outputs/perception/minimal_17/checkpoint_best.pth (torch, 591247 bytes, 8 tensors)

digit_rec.conv1.weight f4 [20, 1, 3, 3]
000000 06 d9 28 3e f4 97 32 be 62 bb b3 bd b3 46 ee 3d
       0.16489038 -0.17440778 -0.08775975 0.116345786
000010 1c 65 9e be dc ad 4c 3e 6f e8 7e bd 45 25 33 3e
       -0.30936515 0.19988197 -0.062233385 0.17494686
000020 81 3a 43 3d dd 33 90 bc 57 46 e0 3d 0c f7 be 3c
       0.047663216 -0.017602855 0.10950916 0.02331116
000030 f0 7a 0c 3e 13 0d f5 bd 8e b6 ff bc e9 db 36 bd
       0.13718772 -0.11965384 -0.031214979 -0.044643316
000040 a0 93 5d 3c 52 b9 91 bc bc 3c 87 3e 5e e4 aa 3d
       0.013523966 -0.017788563 0.26413524 0.08344339
000050 23 9b 00 be 23 a1 66 be 75 ae ba bd fb c2 01 be
       -0.1255918 -0.22522406 -0.09115306 -0.12672035
000060 cd 81 cc bd e8 e2 04 3d c9 1b 65 3e df 79 36 3e
       -0.09985695 0.032442957 0.2237388 0.17819928
000070 b5 f9 b5 be 90 65 52 3e 89 a1 bc 3d 70 58 94 3e
       -0.35542074 0.20546556 0.09210498 0.28973722
000080 6e 79 89 3e 92 e9 92 be 9f 61 a1 be 82 5e 9d bd
       0.26850456 -0.28693825 -0.3151979 -0.076840416
000090 ca 81 7e 3e a3 be 8b bd 08 b6 fa 3d 69 84 4d be
       0.24854198 -0.068234704 0.12241751 -0.20070042
0000a0 23 61 98 3e 7d 1e 39 be 54 d8 49 3e e1 67 1b bd
       0.2976161 -0.18078037 0.19711429 -0.037940864
0000b0 dc 58 75 be e9 61 4f 3e 6c e0 35 be 82 f1 f2 3d
       -0.23959678 0.20252194 -0.17761391 0.1186247
0000c0 35 05 86 bd a6 e2 d4 3a 86 e9 a0 be f1 d4 09 be
       -0.06543962 0.0016241863 -0.31428164 -0.13460137
0000d0 da f0 81 3e d7 ce 67 bd 57 21 80 3e 05 5b 48 3e
       0.25379068 -0.056593742 0.25025436 0.19565971
0000e0 68 79 87 bd 83 54 99 be a1 05 05 3e c3 67 7a 3d
       -0.06614953 -0.2994729 0.12990429 0.06113411
0000f0 c5 c8 89 be 18 34 37 3e 46 8f 1a 3e 7a a0 a7 3e
       -0.26910987 0.17890966 0.15093717 0.3273962
000100 26 18 20 be d5 58 9f bd 62 de d7 3c d2 2c 96 3d
       -0.15634212 -0.07780615 0.026351158 0.073327675
000110 db 5e 75 be fd e0 61 be de 2d 44 3e 2d d4 ae bd
       -0.23961966 -0.22058482 0.19158122 -0.08536563
000120 3e 47 d5 3d 70 e9 f0 3c aa 6b 14 3e 32 3e 03 3d
       0.10413979 0.029408187 0.14494196 0.032041736
000130 02 62 fd 3d 5f 89 1c 3e 5d 8f b6 be bf bf 0e 3e
       0.12372209 0.15286778 -0.35656253 0.13940333
000140 d4 88 8b be 86 7d 89 be 91 89 02 3c c6 d6 81 bd
       -0.2725283 -0.2685358 0.007967369 -0.06339793
000150 b9 4f 33 3e c1 67 06 be de af 7e be e8 bf 8f 3e
       0.1751088 -0.13125516 -0.24871776 0.280761
000160 79 65 8e 3d 9e 55 7a 3e 6a 51 b1 3d 7b d4 a6 be
       0.06952948 0.24446723 0.086581066 -0.32583985
000170 9b d1 25 3e e2 b7 1e 3e e8 ac 55 be 71 52 de bd
       0.1619324 0.15499833 -0.2086674 -0.10855568
000180 5f 18 44 3e c9 12 89 3d 9e 88 47 be f8 5e 0d be
       0.19149922 0.06693036 -0.19485709 -0.13805759
000190 c2 8d 98 3e cf 18 81 bd ac b2 35 3e e7 2a fe 3d
       0.29795653 -0.0630356 0.17743939 0.12410527
0001a0 ef 0e 5e be c1 4d 91 be 08 4d 96 3e 2c a2 00 3c
       -0.21685384 -0.28379634 0.29355645 0.007851165
0001b0 4d 8e 2e 3e a1 7f b1 3c 21 62 76 3d c9 f1 3f 3e
       0.17046471 0.021667304 0.060152177 0.18744577
0001c0 3f 2f 89 3e a1 d1 61 be 63 15 c6 3c ec e9 7a 3e
       0.26793858 -0.22052623 0.02418012 0.24503297
0001d0 93 47 67 3e 13 18 7e 3e 54 e4 9d be 16 63 6d be
       0.22585897 0.24813871 -0.30838263 -0.2318233
0001e0 a1 9d 68 be 8c fd 75 3c 4d a9 c2 3e e8 39 81 be
       -0.2271638 0.015014064 0.3801979 -0.2523949
0001f0 66 c8 69 3e f5 5a 10 be b2 12 be be 4d 0d d3 bd
       0.22830352 -0.14097197 -0.37123638 -0.10305271
000200 ab 99 34 3e 8a 0d 87 3e ad b4 76 be ce e9 f0 3c
       0.17636745 0.26377517 -0.2409236 0.029408362
000210 3b 81 88 3e 21 01 50 3e 00 24 43 3e 6b 59 83 3e
       0.26661095 0.2031293 0.19056702 0.25654158
000220 ac 11 8d 3e a7 ff 17 3e 78 05 7b be a8 92 59 be
       0.27552545 0.14843617 -0.24513805 -0.21247351
000230 be 53 13 be 02 d6 80 bd 4a 6c 23 be 86 57 b4 3d
       -0.14387414 -0.06290819 -0.15959278 0.08805756
000240 fe 7e 53 3d 0b 07 ff bd 04 53 a6 3d 5e b0 24 3d
       0.05163478 -0.12452515 0.08121303 0.04020726
000250 3f 0b 03 3e c1 3c 25 3e 66 e3 32 be e3 03 88 3e
       0.12797259 0.16136457 -0.17469558 0.26565465
000260 ca ba ae bd 08 6f a6 3d fe 08 84 be b0 e4 6e bd
       -0.08531721 0.08126646 -0.2578811 -0.058323562
000270 30 97 c9 bd cb 38 a2 bd 86 ef ac 3e f3 e7 c1 bd
       -0.0984329 -0.07920989 0.33776492 -0.09468069
000280 d8 b2 48 be 18 68 5a 3e a0 c3 59 3e a2 52 8a 3e
       -0.19599473 0.21328771 0.21266031 0.2701617
000290 65 df 09 be a1 79 3f 3e ee 70 6e bd 40 b0 07 be
       -0.13464125 0.18698741 -0.058213167 -0.13250828
0002a0 5d 7e 68 be d9 e4 5b be 00 e4 8e bd 1c 2f e0 3d
       -0.22704454 -0.21474017 -0.06977081 0.109464854
0002b0 86 f1 ac 3c 01 4e 1b 3d 8c 67 95 3e 07 80 86 3e
       0.021111261 0.037916187 0.29180562 0.26269552
0002c0 43 c0 12 3e 22 cf e0 bc d1 62 89 be dd a5 36 3e
       0.14331155 -0.027442519 -0.26833203 0.1783671

digit_rec.conv1.bias f4 [20]
000000 31 13 cb bd c9 57 05 bd c8 76 92 be ae a4 85 bd
       -0.0991577 -0.03255442 -0.28606248 -0.06525551
000010 f7 5f 5c be be 50 9f 3e 65 20 99 be 78 de 81 be
       -0.21520983 0.3111629 -0.29907528 -0.25365043
000020 e4 d3 8b bc f4 78 40 be 5e 65 f1 3d e0 ff f9 bd
       -0.01706881 -0.1879614 0.117869124 -0.122070074
000030 28 a8 15 be 36 29 d5 3c 67 f7 77 3e 92 d0 69 be
       -0.14614928 0.026020627 0.2421547 -0.2283347
000040 25 b8 0d 3e f6 9d 5f 3e ee 21 a9 3e 08 41 75 be
       0.13839777 0.21837601 0.330337 -0.23950589

digit_rec.conv2.weight f4 [10, 20, 3, 3]
000000 0c 37 e2 3b 7d 71 0c bc c8 b6 f5 3d d7 f8 24 bc
       0.0069035348 -0.00857198 0.119977534 -0.010069094
000010 60 59 e7 3c 53 f3 91 3c 57 7b b3 bc 6a 0e aa bc
       0.02824086 0.017816221 -0.021909399 -0.020758826
000020 c6 04 ef 3b 95 cb a6 3c dc 43 9d 3c 71 7b be bc
       0.00729427 0.020360747 0.019197397 -0.02325222
000030 f0 9c 40 bd c7 4f 45 3d 17 9e 4a 3d d7 a7 bc 3d
       -0.047024667 0.048171785 0.049467172 0.092117004
000040 b4 17 71 3d 9d a2 27 bd 57 bc 72 bc 17 e1 88 3d
       0.058860496 -0.040926564 -0.0148154115 0.066835575
000050 c1 fd df bc 53 f4 03 3d 36 57 a3 bd a4 1e 8f bd
       -0.027342679 0.032215428 -0.079756185 -0.06988266
000060 2f f9 94 3c a0 2c 81 bd df 4f 44 bd 49 01 cd bb
       0.018185226 -0.0630734 -0.047927734 -0.0062562567
000070 33 51 7e bd 50 a8 e9 3c a7 91 2a bc c0 4d 94 3c
       -0.062089156 0.02852264 -0.010410703 0.01810348
000080 91 2e d0 3d a9 3b e2 3c d1 f5 9d 3d 24 5e e0 3d
       0.10165132 0.027616339 0.077129014 0.10955456
000090 2f 9c de 39 85 0b a1 3d 0e c2 a4 3b 87 c0 0d bd
       0.00042459505 0.07863525 0.005028016 -0.034607437
0000a0 52 75 f6 bc be f2 33 bd 4e aa 6d 3d e7 99 eb bb
       -0.03008524 -0.04393267 0.058023743 -0.0071899774
0000b0 95 1c 8b bd 5f 60 6a 3c 72 60 bc bd 02 61 dd bd
       -0.06792561 0.014305203 -0.09198083 -0.108095184
0000c0 e7 81 a0 bd f2 e5 bc 3c 59 3a ae bb e0 9e 4f bd
       -0.07837277 0.023058865 -0.005317014 -0.050688624
0000d0 9e 5f cd bc ca d8 ba 3d a0 2c 38 3d 0f f3 bb bc
       -0.025070008 0.091233805 0.044964433 -0.022943048
0000e0 0f 06 15 3d c3 56 34 3d bd c7 80 bc b9 2f 02 bc
       0.03638273 0.044028055 -0.015720243 -0.007945948
0000f0 d4 92 80 3d af ea 0a 3d 6a 3a 23 bd 09 db b3 3d
       0.06278005 0.033915218 -0.03985063 0.08782012
000100 ad b6 8a 3c 3a 42 7c bc 91 ba 7d 3c 1c ec ed bc
       0.01693281 -0.015396649 0.015486375 -0.02904325
000110 c4 bf 5d 3d 69 95 5a ba 07 1a 37 3d 53 1f c1 3d
       0.05413796 -0.0008338304 0.044702556 0.09429803
000120 79 e2 0d 3d cb e2 7c 3b 09 30 e1 bd a7 bc 7b bb
       0.03463981 0.0038587328 -0.1099549 -0.0038412006
000130 ff 8a 6b bd 74 04 64 bc 45 6a 26 bd 16 54 39 bd
       -0.057505604 -0.013917077 -0.04062869 -0.045246206
000140 3b 4d c2 3c 6c f6 17 bd c2 ac 2c bc ee 91 b4 bd
       0.023718467 -0.03710024 -0.010539236 -0.088168964
000150 81 bd 5d bd 0b 49 b0 bd 15 a6 de bd 48 99 61 3c
       -0.054135803 -0.08607682 -0.108715214 0.013769455
000160 eb 76 2d 3b c4 d8 f5 bc 70 53 01 3d 22 1a 3c bd
       0.0026468586 -0.030010588 0.031573713 -0.04592336
000170 df f9 56 3d 67 77 85 3d e2 0d be 3c ee f9 8e 3d
       0.05248439 0.06516915 0.02319998 0.06981264
000180 1c 3e df 3b c5 82 0e 3d 97 21 2a 3e d6 b2 02 bd
       0.006812824 0.03479268 0.16614376 -0.031908832
000190 19 ff 66 3d 57 d3 a0 bd 40 8e 07 3d 74 47 cb bb
       0.056395624 -0.0785281 0.033094645 -0.0062035862
0001a0 aa 3d 32 bc 12 f4 36 bc 58 e7 c3 bc ac 94 81 3d
       -0.01087896 -0.011166589 -0.023914024 0.06327185
0001b0 29 19 36 3d 01 54 9c 3d ca b1 15 bc 43 2d e3 bb
       0.04445759 0.0763321 -0.0091366265 -0.006932886
0001c0 29 18 8c bd 07 87 2a bd 8f 6c 66 3d 82 3a a4 bd
       -0.06840546 -0.04163268 0.056255873 -0.08018972
0001d0 f1 9a 68 bd 24 21 bd 3b 80 c9 bf 3d e7 4b 05 3e
       -0.05678839 0.005771773 0.09364605 0.13017236
0001e0 7c 92 c7 3c 68 f3 40 3d 50 c3 ec 3c 33 ca 96 3a
       0.024361841 0.04710713 0.028901726 0.0011504352
0001f0 36 18 44 bc 5d 61 03 bd d4 1a 6f bd d5 8a ab bb
       -0.011968663 -0.032075275 -0.058375195 -0.005235056
000200 57 bf 8e bd c2 51 17 bd 77 a5 92 3b 94 9c 8c 3c
       -0.06970089 -0.036943205 0.0044752914 0.017164506
000210 67 84 f0 3c 00 38 b3 bd 4f 9b 21 bd 32 eb 66 bb
       0.02936001 -0.087509155 -0.039454754 -0.0035235402
000220 a1 20 9c bd 32 95 1f be 2c 46 b4 bc 22 8d 95 bd
       -0.07623411 -0.15584257 -0.022006117 -0.073023096
000230 d1 54 4b be 11 c9 39 bd 64 a2 a7 bd 7a 7c 21 3c
       -0.19856574 -0.045357767 -0.081852704 0.009856338
000240 36 01 e4 3b 89 a3 4e bc f0 af eb bc f1 22 96 bc
       0.006958152 -0.012612232 -0.028770417 -0.018327208
000250 ee 28 81 bd 98 bc 38 bd cd af 52 3d c6 26 79 bc
       -0.06306635 -0.045101732 0.051437188 -0.015206998
000260 57 79 0d bd c5 fd f0 bc f7 9c 1e 3e 4b 0f ec 3d
       -0.034539547 -0.029417882 0.15489565 0.115263544
000270 66 da 08 3e 6e 12 d2 3d d3 18 95 3d 21 15 3b 3d
       0.13364562 0.102574214 0.072801255 0.045674447
000280 4d 89 18 3d c4 00 fa bd 9c 2c 3e 3c 00 eb 19 bc
       0.037240315 -0.12207177 0.011607315 -0.009394407
000290 ff cc 0e 3d 70 03 8a bc 6a f7 c2 bd de 2c df bd
       0.03486347 -0.016847342 -0.09519847 -0.108972296
0002a0 55 d9 ce 3c 29 ed e0 bd 88 df 4a be 29 58 4b 3d
       0.025250116 -0.10982735 -0.19811833 0.049644623
0002b0 e1 3a be 3b 06 58 3b bc 7f 11 40 3d cd ad 9b 3c
       0.0058053588 -0.011434561 0.046891686 0.019003773
0002c0 3a 56 1e bc 75 e1 85 3d f6 ac a9 3c 38 b2 85 bc
       -0.009664113 0.06537143 0.020712357 -0.016320333
0002d0 ed d6 07 bd 72 8a 9b bd 37 17 7d 3d a8 41 30 bd
       -0.033163954 -0.07594766 0.061789718 -0.043031365
0002e0 84 35 67 bd 34 b2 72 3d 56 00 32 3c 3c 54 a8 3c
       -0.05644752 0.05925198 0.010864338 0.020547979
0002f0 4e 8a c8 bb 72 7c 08 bd e2 25 5c 38 c2 e2 3d 3d
       -0.006120003 -0.033321805 5.248737e-05 0.04635883
000300 8f b8 1d 3b 26 be 26 bd 34 0a 90 3d fe 06 3c bb
       0.0024066304 -0.040708683 0.07033196 -0.002869069
000310 ab 91 64 3d f6 f2 03 3c f7 0b 57 3d 7b bd fc 3c
       0.055802982 0.008053532 0.052501645 0.03085207
000320 0a 54 45 bd aa 0e 02 3d 2d f0 e0 bb 4a e9 80 bd
       -0.04817585 0.031752266 -0.0068645687 -0.06294496
000330 8d 76 c8 bc 7b 8e 93 bd b8 8d 49 bd d4 30 95 bd
       -0.024470592 -0.0720491 -0.04920742 -0.07284704
000340 cc 7a d7 3c de f5 ae 3b 8f 26 ee bc da 12 b0 3c
       0.026303671 0.0053393682 -0.02907112 0.021493364
000350 35 68 42 3d 5f 4d 84 bd 70 29 9d 3c e8 b2 b3 3c
       0.04746266 -0.0646007 0.019184798 0.021935895
000360 6a be 97 bd 5e 98 65 3d 1f fb 63 bd 71 02 2c bd
       -0.074093655 0.05605351 -0.05565941 -0.041994516
000370 f1 e1 86 bd db 03 55 3d 9f f6 a3 3b f0 51 29 3d
       -0.06586064 0.05200563 0.0050037648 0.041337907
000380 d8 a0 ea bb 68 90 ee 3c cf 20 0b bd a6 fa 81 bd
       -0.0071602874 0.029121593 -0.033966836 -0.063466355
000390 94 99 89 3a ab 02 51 bc fa c1 54 bc f7 74 38 bd
       0.001049804 -0.012756984 -0.012985701 -0.04503342
0003a0 ff 18 c8 bb c9 fe 3d 3c 43 28 71 39 4a e8 a0 bd
       -0.0061064954 0.01159639 0.0002299855 -0.078568056
0003b0 33 03 12 3d 4f e9 bb bc 66 cf 27 3d cb 24 89 3d
       0.035647582 -0.022938399 0.040969275 0.06696471
0003c0 64 b4 93 bd e6 d7 ba 3d 6a b9 48 bd 16 8d ca 3c
       -0.07212141 0.091232106 -0.04900495 0.024725478
0003d0 7f 09 45 bc 2c 76 de 3c 51 72 6f bd 47 5b 0e 3d
       -0.01202619 0.027155958 -0.05845863 0.034755018
0003e0 03 fc 37 bd 73 7d 9c bd 31 05 96 3c b5 4e 00 3d
       -0.04491807 -0.07641115 0.018313022 0.03132506
0003f0 38 f1 58 3d 9b 4e cb bc 6d 95 65 3d 49 76 24 3d
       0.05296442 -0.024817755 0.056050707 0.040151868

digit_rec.conv2.bias f4 [10]
000000 c3 17 1d bc 31 07 70 bb 03 b1 0f 3d 2a 16 25 3d
       -0.009588185 -0.003662538 0.03508092 0.04030434
000010 5d 81 0b bc 2e 63 73 3d 73 dd 34 bd d7 70 ab 3a
       -0.008514729 0.059420757 -0.044156503 0.0013079894
000020 f4 67 56 bd 30 86 07 3c
       -0.05234523 0.008271739

digit_rec.fc1.weight f4 [100, 1440]
000000 ef c1 c4 3c 05 65 be bc 3f e5 59 bb da 01 ef bc
       0.024018256 -0.02324153 -0.0033248214 -0.029175688
000010 a7 cb 4a bc c4 3b 83 bc f7 7e 7c bb 0e 89 9d bc
       -0.012377656 -0.01601971 -0.0038527825 -0.019230392
000020 a5 e3 cb 3b 73 5c d8 bc 67 b2 bd 3b d1 1a 26 bc
       0.0062222057 -0.02641127 0.0057890895 -0.0101382295
000030 86 34 81 bc 80 92 80 3c b6 2e 40 bc f9 8a 11 bd
       -0.015772115 0.015694857 -0.011729887 -0.035532925
000040 ae 12 08 bd 7c 06 c7 bc f0 b0 bd bb 60 86 be 3b
       -0.03322094 -0.024295084 -0.005788915 0.0058143586
000050 92 25 35 3b af 61 e0 3c 40 ec b3 ba 71 e1 66 bc
       0.0027640802 0.02739033 -0.0013727024 -0.014091835
000060 a8 3f ad 3c f0 de 3c bc 3d e8 02 bd 75 61 98 b9
       0.021148518 -0.011527762 -0.03195976 -0.0002906431
000070 2a 1a 1c bc 2c de 7c bd 31 d4 80 bc d2 a3 ca 3a
       -0.009527722 -0.061735317 -0.01572618 0.0015460199
000080 a8 7f 33 bc 4c 70 40 bc b6 f3 b2 3b 67 be f4 bc
       -0.010955729 -0.011745524 0.0054611815 -0.029875947
000090 ae 35 f2 bc db aa 2f bd ee 6a 90 bc 2c 12 8d 3b
       -0.029566612 -0.04288755 -0.017629113 0.004305145
0000a0 20 7c 82 3b 7c 72 b1 ba 0c 19 e4 bb fd 57 7e 3c
       0.003982082 -0.0013538147 -0.0069609936 0.015523908
0000b0 94 2e 1b 3c 62 9f f5 bb df f8 0f 3c 41 10 2a 3b
       0.009471554 -0.0074958066 0.008787363 0.002594963
0000c0 27 f2 1f ba 28 50 4a bc f7 75 c5 bc 64 6e 13 3c
       -0.0006101452 -0.012348212 -0.024104102 0.008998487
0000d0 8a 2e 08 3c b7 6b c9 3b 0d 66 0a 3c 4c 87 9e bb
       0.008311877 0.006146874 0.008447182 -0.004837906
0000e0 62 12 ec 3b c1 1f 7a 3d e3 49 41 bc ca c8 ca bc
       0.00720434 0.06106544 -0.011797401 -0.024753947
0000f0 4f a5 7f 3c b0 65 30 bc 79 8f fe bb bb ed 83 3c
       0.0156033775 -0.010766432 -0.007768568 0.01610457
000100 39 cf e5 39 05 f8 b2 3b 76 c6 15 3d 48 f7 84 3c
       0.00043832677 0.005461695 0.03656622 0.016231194
000110 dc 20 1d 3d 0b 54 36 3d ed 03 7b bc e6 b7 6c 3c
       0.038361415 0.044513743 -0.01532076 0.014448142
000120 26 ba 2b 3c 97 43 44 3c 85 e5 0e 3b a3 d7 31 3c
       0.010481393 0.011979005 0.0021804285 0.010854634
000130 4f 6b 72 bb 55 41 30 bd 8b 60 90 bb af ca b8 bb
       -0.003699023 -0.043031055 -0.00440604 -0.005639396
000140 73 6e 9f 3b 17 52 0d 3d 79 28 5d bc 91 50 e8 3b
       0.0048654615 0.034502115 -0.013498419 0.0070896824
000150 9d aa e7 b9 d7 73 b8 3a d2 64 ad 3c 09 ce a8 3c
       -0.0004418687 0.0014072609 0.021166239 0.020606058
000160 c9 ef a7 bc e4 f5 3c bd f4 79 84 bc 37 43 88 3b
       -0.02050008 -0.046132937 -0.016171433 0.0041584033
000170 d8 94 2c 3d 29 0d 2f 3d 95 3f f1 bc fa ad 23 bb
       0.042134136 0.04273716 -0.029449264 -0.0024975524
000180 36 32 2f 3c d5 cf 8b bc 00 e2 1b 3d 2a e4 d7 3c
       0.010693124 -0.017066875 0.038057327 0.026353914
000190 e8 9f 92 bc 29 06 c7 bb aa 0e 03 3a 09 76 ce 3b
       -0.017898515 -0.0060737324 0.00049994385 0.006300692
0001a0 8b 31 a6 3c 05 f8 e6 bb d9 28 7e 3b 44 96 ed ba
       0.020287296 -0.007048609 0.0038781671 -0.0018126448
0001b0 bf c6 aa 3c 18 37 94 bc b7 31 15 bc 65 7a e5 bc
       0.020846723 -0.018092677 -0.009106091 -0.028012464
0001c0 52 1d eb 3b eb a3 52 3c b5 62 2e 3c 21 34 1e 3d
       0.007175126 0.012856464 0.010643651 0.038623933
0001d0 bf 75 42 3d 80 d8 d1 bb c6 b0 fc bc d5 cb d0 bc
       0.047475573 -0.0064039826 -0.03084601 -0.02548782
0001e0 a5 e1 e8 bc ce dd 11 bd ae f0 87 bc 68 1a c5 3c
       -0.028427908 -0.03561192 -0.016594257 0.024060443
0001f0 7d 3e 85 3c 0d 44 ae 3c de 28 2a 3d 23 da a2 3c
       0.016265148 0.021272684 0.04154288 0.019879406
000200 f6 e8 36 3c 70 cd 3d bd 87 48 8a bc 73 f2 0c 3c
       0.011163941 -0.0463385 -0.016880287 0.008602726
000210 de db 96 3b 27 7e 3e bc 64 12 0c 3c cb ec ed 3c
       0.004603847 -0.011626757 0.008549307 0.029043576
000220 32 7e 0b 3d a9 a6 ad 3a 28 ed 8a bc ea 66 0e 3b
       0.034055896 0.0013248521 -0.016958788 0.0021728822
000230 63 e5 bc bc 40 23 44 bc 62 44 da bc 14 2b 56 3b
       -0.023058599 -0.011971295 -0.026643936 0.0032679485
000240 20 72 cf 3c 7e 6b 81 3c 50 20 c4 3c 6e 4e ca 3c
       0.025322974 0.015798327 0.023941189 0.024695601
000250 c2 ad a8 3c 94 56 72 bc 6e 16 6e bc 82 ba 6f ba
       0.020590667 -0.01479115 -0.014531715 -0.00091449183
000260 24 40 5f bc 73 50 ea bb 69 e6 13 bc 36 e7 bc 3c
       -0.013626132 -0.0071507036 -0.009027102 0.023059469
000270 0b 43 e8 ba f1 f6 d0 3c 8c 64 a7 bc 2f c2 d1 bc
       -0.0017720176 0.025508376 -0.020433687 -0.02560529
000280 59 11 71 3b 9a 55 8b 3b 03 10 39 bc 86 b3 60 bc
       0.0036784022 0.004252148 -0.011295321 -0.013714677
000290 ff 14 e9 3b 56 02 d2 3a f3 39 62 bb ad 85 62 3c
       0.0071130986 0.0016022425 -0.0034519404 0.013825816
0002a0 1c 9d 37 bc d5 cf a9 3c d4 44 93 bc d5 63 45 bc
       -0.011206891 0.020728985 -0.017977156 -0.012047728
0002b0 d4 ea c8 3b 31 11 77 3c 49 7c 00 bb 69 8f 9c bc
       0.0061315093 0.015079782 -0.001960533 -0.019111352
0002c0 99 a0 4b bb 62 03 0c bc 35 54 1a bc d7 9b 9c bb
       -0.0031071065 -0.008545728 -0.009419491 -0.0047793197
0002d0 4b c1 cf 3b 87 98 c1 bb 8b 7c 90 bc da ac 1d bc
       0.006340181 -0.0059080753 -0.017637512 -0.009623731
0002e0 5d 7e bd bc e3 89 cb bc 6f 57 48 3c fe 40 89 3c
       -0.023131544 -0.024846023 0.012227877 0.016754624
0002f0 a5 a1 3c ba 1b d8 09 3b 72 a3 40 bc 03 84 88 bc
       -0.0007195718 0.002103335 -0.011757718 -0.01666451
000300 40 0b 57 3c a0 76 82 bc 8a 0c b0 3c 3d 31 63 bc
       0.013125241 -0.015925705 0.021490354 -0.01386672
000310 cc c5 ab bc 77 37 84 bc 86 0f d4 3c 02 20 af 3c
       -0.02096834 -0.016139729 0.025886308 0.021377567
000320 81 c8 50 3b 9e 6f c8 3b 10 a3 9f 3c 48 15 7f 3c
       0.003185779 0.0061168214 0.019486934 0.015569039
000330 8c a3 7f 3c 4b 42 92 bc ac 14 b2 3b 10 3c c7 3c
       0.015602957 -0.017853877 0.005434593 0.024320632
000340 f0 f5 43 bc 65 ec ad 3c bf ae 91 bc 07 5f d6 bb
       -0.011960492 0.021230886 -0.01778352 -0.00654209
000350 9d 01 5e 3c c1 74 6e 3c 1f 5e e0 3b f8 14 7c bc
       0.013550189 0.0145542035 0.0068471576 -0.015385859
000360 25 9e 45 3c d3 1f e7 3b 1a b5 78 bb d5 f8 ce bc
       0.01206163 0.0070533543 -0.0037949742 -0.025265137
000370 c4 ca ef 3c cf f0 58 bc fc 79 8d bc e2 ce c8 3c
       0.02927149 -0.013241007 -0.01727008 0.024512712
000380 b4 86 07 bb 77 48 5f 3c 27 4f b0 3c 45 94 87 bc
       -0.0020679655 0.013628117 0.021522118 -0.016550193
000390 c3 18 ae bc e4 3b 6a bc 6b d7 f4 3b 16 56 d8 3c
       -0.021252042 -0.014296506 0.007471969 0.026408236
0003a0 82 6d dd bb 75 01 2c bc 2d 60 86 bc 48 c9 97 bc
       -0.006757439 -0.010498394 -0.016403282 -0.018528596
0003b0 43 e3 f1 3c c5 52 13 3c 95 3a 8b bc f3 8a 95 bc
       0.029527312 0.008991902 -0.016995708 -0.018254733
0003c0 91 4d 86 3c 8f 33 51 3c 2b 11 90 3c 98 9b 9d bb
       0.016394408 0.01276864 0.017586311 -0.004809808
0003d0 af fc 04 bc eb b6 77 3b 53 2b fe bb 8f 57 10 3b
       -0.008116885 0.0037798237 -0.0077566295 0.0022024845
0003e0 e3 d9 3e 3c cc 7c ae bb e2 79 9c bc 0e 89 af bb
       0.011648628 -0.0053249355 -0.019101087 -0.0053569144
0003f0 ea e3 99 bc dc 5c 2f 3a 29 3b 9c 3b 6c 7a b8 3c
       -0.018785436 0.00066895573 0.0047677946 0.022519313

digit_rec.fc1.bias f4 [100]
000000 74 66 16 bc d2 13 2e bb b8 36 38 3f be 7b 35 3f
       -0.0091797 -0.0026562107 0.71958494 0.7089194
000010 fa 11 33 bc 0e 72 04 bc 94 a4 6f bc 7b 0d 0b bc
       -0.010929579 -0.008083833 -0.014626641 -0.008487101
000020 ca b4 13 3f 56 b2 2e 3f 9d 36 34 3f 8f 0b c4 bc
       0.5769774 0.6824087 0.70395833 -0.023931293
000030 f6 99 ee bc 37 79 e2 bb e0 66 96 bc 42 a5 55 3f
       -0.029126149 -0.0069114226 -0.018359601 0.8345529
000040 b4 9d 41 bb ec fd a5 ba c1 a9 8f bb 81 45 3b bb
       -0.0029543461 -0.0012664176 -0.00438425 -0.0028575363
000050 50 a3 e2 bb 08 dd 3b 3f 60 8c 19 bd bf 58 af bc
       -0.006916441 0.7338414 -0.037487388 -0.021404622
000060 bf 25 24 3f c7 16 ca bc 43 42 60 bc 00 6d 97 bc
       0.64120096 -0.024669064 -0.013687673 -0.018484592
000070 3e 03 fc bc d7 c2 6b bb ba d9 27 3f 49 4a 38 bc
       -0.030763265 -0.0035974288 0.655666 -0.01124818
000080 1c 1a 93 bc be 82 f3 bc 5c 3f 31 bc 49 56 e8 bc
       -0.017956786 -0.029725429 -0.010818329 -0.028361456
000090 33 c0 b7 3d 69 04 c2 bb 1f 9d 34 3f 8f d5 e5 bc
       0.08972206 -0.005920936 0.7055225 -0.028055934
0000a0 d9 c7 9a bc 87 11 44 3f 32 85 16 bd cb 0a cd bc
       -0.018894123 0.76589245 -0.03674812 -0.02502956
0000b0 fe 13 30 3f 42 12 5d 3f 2d 12 27 3f d1 da 6b bc
       0.68780506 0.86355984 0.6526211 -0.014395432
0000c0 5b e2 0a bd 6c 0f 0a bc 1e 20 8c bc 66 57 46 3f
       -0.033907276 -0.008426528 -0.017105158 0.7747711
0000d0 ea 8f 2a bb dd 9a a2 bc 17 9d a3 3d 54 e1 08 bd
       -0.002602572 -0.019849235 0.07988947 -0.033418015
0000e0 41 7c 28 3f e1 27 3c 3f 32 ac 73 bb 15 76 db ba
       0.65814596 0.7349835 -0.0037181494 -0.0016743565
0000f0 4d 05 36 3f b4 d6 08 3f 6c 4e 27 3f 5b 49 43 3f
       0.7110184 0.5345261 0.6535404 0.76283807
000100 05 cb 2e bc e6 1d 1a 3f c0 9c a4 bc fe f3 1e 3f
       -0.010668521 0.6020187 -0.020094275 0.6209105
000110 f8 3a a5 bb c7 c4 85 bc 69 86 47 3f 1d a2 2e 3f
       -0.00504243 -0.016329182 0.7793947 0.68216115
000120 30 5d 1c 3f 51 e7 10 bc a0 ed d2 3e ae 31 a9 bc
       0.6107969 -0.008844213 0.41196918 -0.020653572
000130 8d e3 68 3f 72 ce 4a bc 48 d9 5e b8 56 6b 3b bb
       0.90972215 -0.012378322 -5.3131283e-05 -0.0028597913
000140 29 1f 7a 3c 14 70 da bc 97 fc 17 3f 14 ef 8e 3f
       0.015266218 -0.026664771 0.59369797 1.1166711
000150 e4 a0 2e bc de 6a 4d ba 7b e3 59 3f 6a fa 45 bc
       -0.0106584765 -0.0007836054 0.8511273 -0.012083629
000160 3a 1e 3d 3f 7a 6d 30 3f d7 5a 33 bc 08 33 63 3e
       0.7387425 0.6891705 -0.010946951 0.22187436
000170 25 35 1a bc f9 de 3f bc 26 5d ea bb fe 99 24 3f
       -0.009412085 -0.011710876 -0.0071522174 0.64297473
000180 1c 1b 7f 3f 71 3c 39 b7 31 bd a6 bc e5 06 13 bc
       0.9965074 -1.1040932e-05 -0.020353885 -0.008973812

digit_rec.fc2.weight f4 [10, 100]
000000 b5 06 16 be 35 ad 2c b8 f3 e7 77 3e 27 bb c2 3e
       -0.14650996 -4.1169307e-05 0.24209575 0.3803341
000010 75 98 3c be 85 ad b0 bd a9 64 0f be 93 c2 f2 bd
       -0.18417533 -0.08626846 -0.14003243 -0.11853518
000020 39 d2 b5 3d ad ff 96 3e a2 52 4a 3e cc 3b be 3d
       0.088779874 0.2949194 0.19758084 0.09288749
000030 a8 73 14 bd c8 0a e8 bd e4 e7 71 bd 55 a2 22 3e
       -0.03624311 -0.11330181 -0.05905904 0.15882237
000040 aa fb 89 bd 95 09 b3 bd 78 a8 35 be 57 a0 8f bd
       -0.06737454 -0.08742062 -0.17740047 -0.07013004
000050 d8 34 b0 bd bb 00 aa 3e 0e 10 4e be ce 63 1f bd
       -0.08603829 0.33203682 -0.20123312 -0.03891354
000060 2d 87 9a 3e d7 6a 51 bd 14 63 02 be cf 59 0c be
       0.30181256 -0.05112728 -0.12733108 -0.13706134
000070 d3 8e 9e bc 6d 49 de bd 0b b4 83 3e 35 e1 42 be
       -0.019355213 -0.108538486 0.257233 -0.19031222
000080 1c 3a 54 3b df 20 e7 bd 9e 3f 9a bc 93 76 13 be
       0.0032383269 -0.112855665 -0.018829163 -0.14400701
000090 0a 54 9d bd f1 8a 2f be ce db db 3e b5 ee 05 be
       -0.07682045 -0.17142846 0.42941135 -0.13079341
0000a0 8b e4 58 be fa 4d 8e 3e 8f 54 58 be 01 86 f0 bd
       -0.21180932 0.27793866 -0.21126007 -0.11744309
0000b0 b2 f1 aa 3e 4f cc 37 3f e8 85 6f 3e b0 61 d3 bd
       0.33387524 0.71796125 0.23390925 -0.10321367
0000c0 97 49 53 be d3 12 04 be ff 03 1b be d0 1c ce 3e
       -0.20633541 -0.12897806 -0.15138243 0.40256357
0000d0 c1 71 fd 3a cb 63 17 be 7b 63 ba 3d 64 ac 25 be
       0.001933627 -0.14784162 0.09101006 -0.16179043
0000e0 ed b2 61 3e 92 f8 48 3e 55 6c c6 bd 16 48 18 be
       0.22040911 0.19626072 -0.096886314 -0.14871249
0000f0 ad df ca 3e 82 d6 20 3e 3b c1 2e 3e 2a c6 f2 3e
       0.39623776 0.15706828 0.17065899 0.47416812
000100 3a 17 e6 bd b5 3d 7c 3e 83 de e8 3b 0d fa 9b 3e
       -0.11234899 0.24632914 0.0071066036 0.3046421
000110 b5 30 eb bd ab e0 7a bd e5 44 89 3e 08 a3 96 3e
       -0.114838995 -0.061249416 0.26810375 0.29421258
000120 4e 45 8e 3e f2 cf 5b 3d fe de f6 3d 32 8c 36 bc
       0.2778725 0.05366511 0.12054251 -0.011141824
000130 b2 75 8a 3e bb 66 4f be 88 37 14 be 24 0f 2b be
       0.2704292 -0.20254032 -0.14474308 -0.16704994
000140 d5 f2 83 3d ad 12 02 be ba 03 55 3e de f6 4c 3f
       0.06442801 -0.12702437 0.20802203 0.8006419
000150 07 cc b0 bd 3a af fe bd c1 aa c2 3e 7c 03 6b be
       -0.08632665 -0.124357656 0.380209 -0.22950548
000160 42 ce 9d 3e af b7 a9 3e 4d 7d 6e 3c c8 c5 81 bd
       0.30821425 0.33147952 0.014556241 -0.06336552
000170 ab 9e 3b be 05 7f 18 bd 2d 4d 8e bd 6d 4d 31 3e
       -0.18322246 -0.03723051 -0.06948314 0.17314692
000180 b2 45 17 3f d8 63 40 be 08 74 5e be ba 19 45 be
       0.5909072 -0.18788087 -0.2172395 -0.19248095
000190 21 6c 10 bc 02 c6 21 bc 46 60 5e 3d 06 dd c7 3d
       -0.008814842 -0.009873869 0.054291032 0.09758954
0001a0 8f b8 6a 3d bc a5 ea bd 44 0c 3c bd 2b 81 40 bd
       0.057304915 -0.114573926 -0.045910135 -0.046998184
0001b0 01 f0 49 be b1 3f 07 3e c5 1d 3b be 1c 1b c4 bd
       -0.1972046 0.1320789 -0.18273075 -0.09575483
0001c0 df 84 45 3d b2 2d a5 3d 57 76 12 3e 7d c7 75 be
       0.04822242 0.08065356 0.14302956 -0.2400188
0001d0 9d c5 d9 3c 63 92 08 3e 00 cc 10 3d f9 2d 3f bd
       0.026583487 0.13337092 0.0353508 -0.046674702
0001e0 1c 6e 6c bd d7 d3 12 be 98 40 6a bd af 6e d5 3d
       -0.057722196 -0.14338623 -0.057190508 0.10421502
0001f0 ae a9 47 be c4 64 47 bd f8 af 87 3d d4 04 80 3d
       -0.19498321 -0.048680082 0.0662536 0.06250921
000200 db f4 0c bd 60 43 eb bc bb 1f 83 be 4a 0c 2e 3d
       -0.0344132 -0.02871865 -0.25610146 0.04249219
000210 43 1b d9 3d c9 b8 9c bd 1b 98 84 3d fd 5d 58 3d
       0.10600903 -0.076524325 0.06474324 0.05282401
000220 44 59 88 3d 08 0d 71 3d c2 b7 18 be db 40 bd 3d
       0.06657651 0.05885032 -0.14913848 0.09240886
000230 1a 03 87 3c 57 8a 1d be 9b be 33 3d 67 51 68 3d
       0.016480971 -0.15384804 0.043882947 0.056718256
000240 1b 13 bd bd 29 cf c3 be 7b 8f 5a 3c 3d bb c2 bd
       -0.0923216 -0.38243988 0.0133398725 -0.09508369
000250 53 2c 2d bd 46 a0 64 bd d1 aa 60 3d 5b 41 0f bd
       -0.0422786 -0.05581691 0.054850403 -0.034974437
000260 a5 54 ec 3d 78 6c c2 bd e1 66 61 bc a0 02 04 bd
       0.11539582 -0.09493345 -0.013757438 -0.032229066
000270 85 e9 56 3d e9 1a 55 be 83 43 b1 3d 59 c6 ac 3d
       0.052468795 -0.20811047 0.08655455 0.08436269
000280 a0 27 f1 3d 9c b7 5e 3d 9c d1 30 be 4d ce f2 bd
       0.11775136 0.054374322 -0.1726746 -0.11855755
000290 4f 43 5a 3d 63 91 c9 bd 40 6a 48 3d 42 dc 23 be
       0.053286847 -0.098421834 0.048929453 -0.1600199
0002a0 d0 40 6f bc 88 ec 6d bd c4 67 23 3d f0 17 4e be
       -0.014602855 -0.058086902 0.03989388 -0.20126319
0002b0 93 5f 0a be 97 5a 41 bd ea b4 f6 bd f3 18 05 3c
       -0.13513021 -0.047205534 -0.12046225 0.008123624
0002c0 12 94 8a be c5 dd fc 3c 71 ef 45 3d fe 67 6a 3d
       -0.27066094 0.030867467 0.048324052 0.05722808
0002d0 62 6c 88 3d ea 3b 96 bd 17 19 88 ba fe 6a d9 be
       0.066612974 -0.073356465 -0.0010383454 -0.4246444
0002e0 76 d3 07 bd 0a 42 a1 3d e6 bd b4 bc 6c 1e 3b 3c
       -0.03316065 0.07873924 -0.022063207 0.011420827
0002f0 bb 15 30 be 0a b2 ad bd 09 63 75 bd 37 39 6c 3d
       -0.1719579 -0.08481224 -0.0599089 0.05767175
000300 e4 a2 0d bd fa 1d be bd 19 e2 4c bd 1f fb a4 bd
       -0.034579173 -0.09283061 -0.05002031 -0.0805571
000310 7c 01 8a be ac cd ca 3d a0 71 f4 3b 16 29 1e bc
       -0.26954257 0.0990251 0.007459834 -0.00965335
000320 1b 05 95 3d 22 a6 a0 bd fc 29 01 3d 5a 9c 8c be
       0.072763644 -0.07844187 0.03153418 -0.27463037
000330 86 e0 75 bc c1 8e 0a bd 35 14 0e 3d d1 18 92 3d
       -0.015007144 -0.033827547 0.03468724 0.071336396
000340 fe 1d 33 be 94 ee 15 be e8 f8 53 be 8b 9e 1b bd
       -0.1749191 -0.14641792 -0.20700419 -0.037992995
000350 a3 81 cb 3d 06 9e a7 3d a4 52 1f 3d a6 9e 5f be
       0.099368356 0.081844375 0.03889717 -0.21837863
000360 96 37 e9 3d 14 d4 f2 3d c1 91 ee bd a1 e1 75 3d
       0.11387555 0.11856857 -0.11648894 0.06002963
000370 0f e7 81 bd 26 e3 34 be 25 4e bd bd 77 25 c5 3a
       -0.06342899 -0.17664775 -0.092434205 0.0015041073
000380 5c a3 03 bd 87 0c 36 bc 41 6a 62 bd 7e a1 92 3d
       -0.032138214 -0.011111385 -0.055277113 0.071597084
000390 24 f6 bc 3c 6e 43 b2 3d 0c 89 1e 3d 87 03 54 3d
       0.023066588 0.087042674 0.038704917 0.051761176
0003a0 11 5c 9c 3c 04 fa 50 bd ce c0 75 3d 10 55 66 3d
       0.01908687 -0.051019683 0.059998326 0.056233466
0003b0 3e 9f 92 3d f1 ce 82 3d 7a 82 3d be b8 b4 45 bd
       0.07159279 0.06387127 -0.18506804 -0.04826805
0003c0 3c 46 83 3c 4a d0 53 be 7b 77 41 bd ab eb ac bd
       0.016024701 -0.20684925 -0.047233086 -0.084433876
0003d0 7a a0 32 be 71 68 cc bd 7a bf 4e be 5f 01 85 bd
       -0.1744403 -0.09980858 -0.2019023 -0.06494402
0003e0 30 44 78 3d 6e 05 a9 3d a8 1f 9e bc a7 f3 3d be
       0.060611904 0.08252989 -0.019302204 -0.18549977
0003f0 8c 12 9f bd 9a 77 90 bc 1b 24 31 bd bf 02 22 3d
       -0.077672094 -0.017635155 -0.043247323 0.0395534

digit_rec.fc2.bias f4 [10]
000000 49 c3 25 3f b2 6c 32 bf a1 ae a0 be 58 80 d5 be
       0.64751107 -0.69697106 -0.3138323 -0.4169948
000010 27 8d ff be a2 d1 ef be 76 d6 de be 8b ee fa be
       -0.49912378 -0.46839625 -0.43522996 -0.4901012
000020 11 81 b6 be 2c 67 c5 be
       -0.35645345 -0.38555276
