outputs/perception/minimal_17/checkpoint_last.pth (torch, 591247 bytes, 8 tensors)

digit_rec.conv1.weight f4 [20, 1, 3, 3]
0.1598512 -0.20349261 -0.13867475 0.13516529 -0.3082157 0.19250911 -0.06879806 0.17522244
0.04659508 -0.056739606 0.086557806 -0.008991393 0.117031954 -0.13031371 -0.040970154 -0.03386747
0.044419963 0.020741137 0.25852922 0.0944825 -0.13338988 -0.24175134 -0.10678005 -0.11635498
-0.10320465 0.019137187 0.22724827 0.20063181 -0.31535336 0.20622899 0.11840586 0.33924645
0.25456542 -0.27913746 -0.2917346 -0.105912365 0.27532995 -0.07678447 0.11430334 -0.18151043
0.29803467 -0.18268886 0.21867433 -0.014004628 -0.22210397 0.1674471 -0.15886003 0.135978
-0.067209184 0.019376315 -0.30997577 -0.13349938 0.24390417 -0.059728447 0.27719912 0.21177335
-0.054193825 -0.2776555 0.14059205 0.0544537 -0.2594613 0.16752027 0.1486174 0.33617023
-0.14783639 -0.042862494 0.040743433 0.078305535 -0.27443594 -0.2113833 0.1917304 -0.03308876
0.13698512 0.022769269 0.11761038 0.051043212 0.11865312 0.15001762 -0.33648205 0.15687637
-0.26637077 -0.22075434 0.0537739 -0.025154283 0.17950855 -0.18137363 -0.28343138 0.24651802
0.02481494 0.22837138 0.12524399 -0.3198059 0.13643119 0.16639902 -0.19671845 -0.10954875
0.18243775 0.08583312 -0.14862546 -0.15139028 0.2994104 -0.09006602 0.17406489 0.11910668
-0.24904415 -0.29422915 0.28975245 -0.008871549 0.17926663 0.024615884 0.049759183 0.20277338
0.27738523 -0.22045046 0.023261284 0.24063483 0.21871305 0.25412667 -0.2977644 -0.23932289
-0.21735434 0.038095787 0.37600803 -0.22631153 0.20129678 -0.14489548 -0.38083816 -0.100264266
0.17900845 0.25261834 -0.22245106 0.048341203 0.26631913 0.21273343 0.18862313 0.24952456
0.2479504 0.12742068 -0.20191315 -0.2300821 -0.15023659 -0.016927635 -0.15832706 0.13855723
0.033533443 -0.14155856 0.07386862 0.028566135 0.11968651 0.13959664 -0.18660553 0.24789892
-0.11877499 0.08757919 -0.30684662 -0.055186935 -0.07434302 -0.10034819 0.33009404 -0.070209086
-0.21178204 0.20358044 0.20129026 0.317531 -0.063498996 0.18608347 -0.047611058 -0.10437717
-0.15663165 -0.0862168 -0.18727782 0.09416358 -0.002178257 -0.0007158985 0.27378875 0.22335969
0.12494665 -0.0466178 -0.28510234 0.15806308
00000000: 08b0 233e 5e60 50be c100 0ebe c568 0a3e
00000010: 73ce 9dbe 1c21 453e ffe5 8cbd 836d 333e
00000020: 7cda 3e3d ca67 68bd 3845 b13d a350 13bc
00000030: 73ae ef3d f570 05be 52d0 27bd 9eb8 0abd
00000040: b5f1 353d 51e9 a93c f15d 843e 0a80 c13d
00000050: 5b97 08be aa8d 77be 80af dabd 854b eebd
00000060: f65c d3bd 97c5 9c3c c5b3 683e 6d72 4d3e
00000070: ff75 a1be b12d 533e c67e f23d b6b1 ad3e
00000080: 6656 823e 1beb 8ebe 3d5e 95be 95e8 d8bd
00000090: 0cf8 8c3e 2d41 9dbd df17 ea3d dfdd 39be
000000a0: 0098 983e ca12 3bbe 2aec 5f3e ab73 65bc
000000b0: 396f 63be 4177 2b3e 34ac 22be d13d 0b3e
000000c0: f8a4 89bd 14bb 9e3c 25b5 9ebe 10b4 08be
000000d0: 04c2 793e d1a5 74bd 0bed 8d3e 1ddb 583e
000000e0: 58fa 5dbd dd28 8ebe 5df7 0f3e d80a 5f3d
000000f0: 1dd8 84be 6f8a 2b3e 292f 183e 811e ac3e
00000100: 6c62 17be 9590 2fbd 96e2 263d a75e a03d
00000110: de82 8cbe dd74 58be f954 443e 1488 07bd
00000120: d445 0c3e 9e86 ba3c b6dd f03d b012 513d
00000130: 6800 f33d 389e 193e 6047 acbe 33a4 203e
00000140: c061 88be 6d0d 62be 0542 5c3d 5b10 cebc
00000150: 17d1 373e 02ba 39be eb1d 91be 386f 7c3e
00000160: b348 cb3c 30da 693e f63f 003e 99bd a3be
00000170: 9eb4 0b3e 8164 2a3e 9070 49be 185b e0bd
00000180: f6d0 3a3e 46c9 af3d 4631 18be 0e06 1bbe
00000190: 524c 993e 8974 b8bd 113e 323e 34ee f33d
000001a0: 6e05 7fbe 34a5 96be 6f5a 943e f959 11bc
000001b0: ac91 373e 40a7 c93c 49d0 4b3d d3a3 4f3e
000001c0: 7005 8e3e c4bd 61be 738e be3c fa68 763e
000001d0: 50f6 5f3e e41c 823e 9374 98be 0f11 75be
000001e0: 2392 5ebe 540a 1c3d 2084 c03e 36be 67be
000001f0: be20 4e3e 7b5f 14be 38fd c2be 5a57 cdbd
00000200: fe4d 373e 3157 813e 36ca 63be 6d01 463d
00000210: fb5a 883e cbd6 593e 6c26 413e 5e83 7f3e
00000220: b6e6 7d3e 917a 023e 52c2 4ebe a49a 6bbe
00000230: 9fd7 19be d3ab 8abc 7d20 22be f2e1 0d3e
00000240: 5d5a 093d baf4 10be 6e48 973d 8703 ea3c
00000250: 331e f53d 6cf2 0e3e 8515 3fbe 37d9 7d3e
00000260: 4d40 f3bd b85c b33d 001b 9dbe b20b 62bd
00000270: 2741 98bd 5a83 cdbd 1602 a93e c8c9 8fbd
00000280: 64dd 58be 6477 503e 091f 4e3e 6c93 a23e
00000290: c30b 82bd aa8c 3e3e d003 43bd b3c3 d5bd
000002a0: 0c64 20be 6f92 b0bd c2c5 3fbe d6d8 c03d
000002b0: 17c1 0ebb 23ab 3bba 0a2e 8c3e 67b8 643e
000002c0: 07e4 ff3d 4ef2 3ebd eff8 91be 4adb 213e

digit_rec.conv1.bias f4 [20]
-0.098262824 -0.025886644 -0.2868358 -0.0704776 -0.21325487 0.31154713 -0.30716938 -0.2526312
-0.011205348 -0.18893015 0.12006758 -0.11544898 -0.14140944 0.026368054 0.24509779 -0.22242175
0.1387267 0.21970572 0.33390942 -0.2474373
00000000: 053e c9bd 3a10 d4bc 24dc 92be 8f56 90bd
00000010: 7c5f 5abe 1b83 9f3e 4e45 9dbe e058 81be
00000020: a396 37bc e876 41be fee5 f53d 8470 ecbd
00000030: a3cd 10be d101 d83c eafa 7a3e 87c2 63be
00000040: 5f0e 0e3e 89fa 603e 2df6 aa3e 3460 7dbe

digit_rec.conv2.weight f4 [10, 20, 3, 3]
0.010494947 -0.026813496 0.09646188 -0.019744419 0.023381034 0.009336031 -0.028153477 -0.008929804
0.031751066 0.0056784004 0.016342027 0.03791238 -0.035448827 0.0702858 0.043704353 0.07323651
0.049481858 -0.044353135 0.044755198 0.094869316 0.01063889 0.07286824 -0.012894047 0.031288378
0.04663816 -0.046218134 0.05443027 0.06378822 -0.016267352 -0.033313412 0.010109753 -0.0284144
0.051490165 0.0027285186 -0.0032219966 0.08062917 -0.030649055 0.06956965 0.027884845 -0.060323343
-0.03740929 -0.03111752 0.025067976 -0.021998042 -0.09633691 -0.011345396 -0.056853022 -0.08466529
-0.07248459 0.017387886 0.012186147 -0.047582246 -0.0022774588 0.03200897 0.032128245 -0.03463001
0.038519826 0.047366615 -0.012842136 0.002690906 0.07318377 0.06400653 -0.006707762 0.057782363
0.038892053 0.0021096857 0.018130299 -0.055403326 0.04578619 -0.01863057 -0.009396273 0.0045708064
0.034579307 0.041530773 -0.09548855 -0.011042163 -0.061378043 -0.04062256 -0.027613485 -0.009000413
-0.007314781 -0.060322206 0.014926067 -0.041552737 -0.027704384 -0.048487365 -0.07090706 0.029452981
0.02047499 0.056076664 -0.070233844 -0.123411685 0.0053382805 -0.011593715 -0.03261314 -0.05922045
-0.06132059 0.021185834 -0.04934135 -0.058110964 0.00068085757 -0.0344243 0.016217459 -0.020671256
-0.025539935 -0.024896061 -0.03985003 0.05955788 0.016459173 0.06442448 -0.010378661 -0.026752397
-0.073248066 -0.022021815 0.031667132 -0.07429142 -0.012443747 0.026633823 0.1026689 0.12647869
0.07757018 0.026399575 0.068123475 -0.027485903 -0.0073230537 0.009510593 -0.052139394 0.013269963
-0.09278587 0.0028104 0.034367934 0.019953625 0.009379246 -0.061996534 0.015322707 -0.0072147553
-0.058406368 -0.11424641 0.03158578 0.0039442168 -0.13820355 -0.06030258 -0.05460213 0.05068135
-0.008393746 -0.02418494 -0.05179531 -0.030271104 -0.07708051 -0.058207296 0.039749455 0.0045691896
-0.016897392 -0.025558408 0.107435875 0.10126606 0.10988035 0.061865184 0.07631835 -0.02339697
0.03325363 -0.048846677 0.06010786 0.04560302 0.04462538 0.042394616 -0.022817567 -0.12842286
0.030394146 -0.068769 -0.15671131 0.027412932 0.0012428386 -0.031961307 0.02434088 0.007308679
-0.022070793 0.05567565 0.039503716 0.023999328 -0.022341777 -0.0707315 0.05046705 -0.026887996
-0.056355126 0.039593108 0.017194083 0.008713366 -0.023675807 -0.024714218 0.007896827 0.050328918
0.008153527 -0.040368296 0.07124469 -0.0025159833 0.051956207 0.010440006 0.05860644 0.035456736
-0.0453671 0.044066142 -0.007993525 -0.06749988 -0.025125861 -0.07738885 -0.046673 -0.060795676
0.043486938 -0.023812165 -0.01977436 0.028295845 0.022064995 -0.055918556 0.020526469 0.024402028
-0.061396655 0.057125703 -0.0531764 -0.030516036 -0.069308124 0.060173076 0.0126536265 0.054219436
-0.004246696 0.03251926 -0.030423364 -0.06557128 0.0047248807 -0.013788693 -0.014738404 -0.04218272
-0.004277026 0.014509722 0.018768525 -0.066878915 0.029018156 -0.00056545547 0.043498952 0.045113027
-0.06915627 0.06102574 -0.08212524 0.03431643 -0.001926845 0.029231394 -0.047844853 0.0372433
-0.042120032 -0.07183592 0.020911552 0.035650834 0.06587832 -0.015274379 0.06365009 0.04038611
00000000: 00f3 2b3c faa7 dbbc ce8d c53d 0cbf a1bc
00000010: 9589 bf3c 27f6 183c 1fa2 e6bc 504e 12bc
00000020: 680d 023d e011 ba3b b7df 853c 034a 1b3d
00000030: ca32 11bd 00f2 8f3d 5603 333d 06fd 953d
00000040: 7dad 4a3d a2ab 35bd 3a51 373d d84a c23d
00000050: bd4e 2e3c f23b 953d 8e41 53bc 3e28 003d
00000060: a807 3f3d 3a4f 3dbd 46f2 5e3d 66a3 823d
00000070: 1c43 85bc a573 08bd 61a3 253c 51c5 e8bc
00000080: 5ae7 523d f2d0 323b 2228 53bb e820 a53d
00000090: ba13 fbbc 887a 8e3d c26e e43c 9c15 77bd
000000a0: 7c3a 19bd 2bea febc 5b5b cd3c 3d35 b4bc
000000b0: 494c c5bd 0ae2 39bc b7de 68bd ff64 adbd
000000c0: cd72 94bd 0a71 8e3c 68a8 473c 9ae5 42bd
000000d0: 6b41 15bb d61b 033d e898 033d 33d8 0dbd
000000e0: f7c6 1d3d 7f03 423d d367 52bc e959 303b
000000f0: 5fe1 953d db15 833d c9cc dbbb 33ad 6c3d
00000100: 464d 1f3d a742 0a3b fe85 943c 99ee 62bd
00000110: 4d8a 3b3d 239f 98bc d3f2 19bc b4c6 953b
00000120: 08a3 0d3d 2c1c 2a3d 808f c3bd 30ea 34bc
00000130: 8b67 7bbd d763 26bd ad35 e2bc 7876 13bc
00000140: d5b0 efbb 6b14 77bd 768c 743c 3433 2abd
00000150: 4ef4 e2bc b09a 46bd b837 91bd 6147 f13c
00000160: 2bbb a73c a5b0 653d c3d6 8fbd 44bf fcbd
00000170: beec ae3b 91f3 3dbc 5b95 05bd 2591 72bd
00000180: 4d2b 7bbd ea8d ad3c 281a 4abd c305 6ebd
00000190: 947b 323a 7f00 0dbd 7ada 843c c456 a9bc
000001a0: 2039 d1bc d3f2 cbbc c939 23bd f7f2 733d
000001b0: 63d5 863c fbf0 833d 420b 2abc d827 dbbc
000001c0: 1503 96bd 1867 b4bc 65b5 013d 1a26 98bd
000001d0: dce0 4bbc 2d2f da3c 1244 d23d a183 013e
000001e0: 1ddd 9e3d ec43 d83c 5284 8b3d 1e2a e1bc
000001f0: 3af6 efbb 51d2 1b3c 1e90 55bd 426a 593c
00000200: 8506 bebd b02e 383b 64c5 0c3d c975 a33c
00000210: 69ab 193c 14f0 7dbd 170c 7b3c c169 ecbb
00000220: 843b 6fbd 06fa e9bd 1760 013d 7d3e 813b
00000230: 3b85 0dbe d7ff 76bd 7ca6 5fbd 3f97 4f3d
00000240: ec85 09bc 7f1f c6bc 5227 54bd 1bfb f7bc
00000250: 63dc 9dbd c66a 6ebd 53d0 223d 24b9 953b
00000260: 666c 8abc de5f d1bc 5707 dc3d 9464 cf3d
00000270: f308 e13d 5966 7d3d cc4c 9c3d 01ab bfbc
00000280: f534 083d 7413 48bd a933 763d 3bca 3a3d
00000290: 1ac9 363d faa5 2d3d e8eb babc 4881 03be
000002a0: 25fd f83c c3d6 8cbd ee78 20be 1691 e03c
000002b0: bee6 a23a dce9 02bd 8666 c73c a57d ef3b
000002c0: cfcd b4bc 260c 643d a6ce 213d 3d9a c43c
000002d0: 1a06 b7bc addb 90bd 8ab6 4e3d 3744 dcbc
000002e0: a2d4 66bd 622c 223d 9bda 8c3c 82c2 0e3c
000002f0: c4f3 c1bc 7975 cabc b161 013c b225 4e3d
00000300: 5f96 053c 3a59 25bd bce8 913d 32e3 24bb
00000310: 08d0 543d 8f0c 2b3c 4e0d 703d 153b 113d
00000320: dad2 39bd b37e 343d 46f7 02bc 613d 8abd
00000330: c0d4 cdbc 0c7e 9ebd 302c 3fbd e304 79bd
00000340: 5c1f 323d bb11 c3bc d7fd a1bc b0cc e73c
00000350: a6c1 b43c db0a 65bd 2027 a83c c3e6 c73c
00000360: 0f7b 7bbd a4fc 693d 7fcf 59bd c4fc f9bc
00000370: 6bf1 8dbd 0b78 763d 2851 4f3c 3315 5e3d
00000380: de27 8bbb ea32 053d 6b3a f9bc 3c4a 86bd
00000390: 2cd3 9a3b f8e9 61bc 5979 71bc cac7 2cbd
000003a0: 4b26 8cbb 2fba 6d3c 73c0 993c d0f7 88bd
000003b0: 7cb7 ed3c 133b 14ba f52b 323d 70c8 383d
000003c0: cda1 8dbd 20f6 793d 4731 a8bd 638f 0c3d
000003d0: 318e fcba ad76 ef3c f7f8 43bd 6e8c 183d
000003e0: 0e86 2cbd b61e 93bd b44e ab3c 9c06 123d
000003f0: 36eb 863d 6441 7abc fa5a 823d e86b 253d

digit_rec.conv2.bias f4 [10]
-0.010425336 -0.003868141 0.030303147 0.040766798 -0.00898047 0.059035458 -0.04322316 0.0010618945
-0.053174883 0.008403854
00000000: 07cf 2abc a380 7dbb 4e3e f83c 16fb 263d
00000010: d222 13bc 2acf 713d c50a 31bd 442f 8b3a
00000020: e8cd 59bd 52b0 093c

digit_rec.fc1.weight f4 [100, 1440]
0.020918109 -0.025008082 0.0005216326 -0.030100804 -0.017462635 -0.016558826 -0.0043802806 -0.021921312
-0.00040386198 -0.029737286 0.00031474512 -0.013345623 -0.019178983 0.022177165 0.0038882454 -0.019663025
-0.017659761 -0.020465437 -0.011346617 -0.02298795 -0.012031902 0.0031125261 -0.021959724 -0.018156873
0.019610006 0.004489067 -0.017084086 0.0034237641 0.0013182305 -0.029130673 -0.007704046 -0.03118308
-0.046534944 -0.03541399 -0.026572581 -0.038379364 -0.025656246 -0.025979336 -0.011563715 0.011569884
0.006348101 -0.01690703 -0.012775249 -0.018791303 -0.02265869 -0.019027269 0.00034582737 -0.02117832
0.011342562 0.0013685243 -0.010898741 0.008654909 0.017155526 -0.011244978 0.009713764 0.039970443
0.03398949 0.0513221 -0.013244597 -0.04195353 0.020401197 -0.0026523152 -0.0049358057 0.0052658375
0.0020520522 0.02477319 0.0322277 0.064913526 0.08666946 0.056753032 -0.0026596815 0.020303702
0.0051003154 0.009309831 -0.013652995 0.01084624 0.008174284 -0.007874835 0.007614221 0.021453213
0.04270055 0.029784441 -0.004783969 0.014257517 0.0007024971 0.002147966 0.012224864 0.017485473
0.0050750347 0.02719516 -0.0059634177 0.01832096 0.0047556306 0.00040904628 -0.022218633 0.006255022
0.015111454 -0.0007806467 0.015986163 0.017513797 0.025406942 0.004915949 0.012047736 -0.011243252
-0.008870962 0.0034913605 0.015154057 0.0058736936 0.01824655 0.005083241 0.008448962 0.013247429
-0.0016297589 0.0028465746 -0.009145708 0.0009716594 0.0036448047 -0.0007160978 -0.021150569 -0.024221892
-0.018648582 -0.011536682 -0.009591137 -0.0008177575 0.0082771825 -0.005719577 -0.00758103 -0.00796879
-0.005614445 -0.038119193 -0.01525819 0.006386307 0.0022883213 -0.009990774 -0.015643582 0.007824349
0.015005127 -0.000959348 -0.033878166 -0.016854716 -0.03927393 -0.03297172 -0.028699309 0.00012059054
0.025511308 0.015798327 0.024154104 0.024884272 0.020655096 -0.01479115 -0.014018055 -0.0009150676
-0.013436353 -0.006960526 -0.008838679 0.023059469 -0.0017720176 0.025508376 -0.020433687 -0.025694853
0.0042705047 0.0058614267 -0.010085698 -0.012399978 0.008829271 0.0014960231 -0.0027364276 0.013566595
-0.011206891 0.020728985 -0.017699627 -0.013605527 0.010101285 0.017325565 0.0008510051 -0.019558346
0.0010852948 -0.0062158946 -0.008029896 -0.004815287 0.006528514 -0.0059458106 -0.017007876 -0.012697212
-0.021502672 -0.026781643 0.012880768 0.016074913 0.022272049 0.004684262 -0.008620147 -0.015721003
0.013313574 -0.01592575 0.02054568 -0.014240603 -0.024340698 -0.02006319 0.021961294 0.020964416
0.009112764 0.0035314038 0.023806911 0.016090998 0.01579129 -0.017747385 0.0047328435 0.024373105
-0.018266093 0.026807211 -0.016888877 -0.0056768646 0.0021820134 0.009968455 0.008447623 -0.014242471
0.012249963 0.007162586 -0.002793719 -0.02565413 0.026305554 -0.009302751 -0.012473556 0.029232806
-0.010010557 0.01927417 0.016186513 -0.01696403 -0.021063708 -0.014137824 0.008784658 0.025304483
-0.0010659592 -0.006284245 -0.006583803 -0.015844615 0.029267166 0.0007454829 -0.020091323 -0.01743291
0.016582742 0.012746112 0.017406544 -0.0027600054 -0.00489495 0.010456051 0.00037347613 -0.0066316356
0.007933777 -0.012527767 -0.017623996 -0.0057825116 -0.018597102 0.0008574128 0.004964962 0.026769841
00000000: 745c ab3c c0dd ccbc 2cbe 083a f695 f6bc
00000010: cd0d 8fbc 60a6 87bc 7588 8fbb 5394 b3bc
00000020: 70bd d3b9 9c9b f3bc 6004 a539 9aa7 5abc
00000030: 3e1d 9dbc e3ac b53c efd1 7e3b 5a14 a1bc
00000040: 34ab 90bc 22a7 a7bc 29e7 39bc 3a51 bcbc
00000050: 7421 45bc 86fb 4b3b e1e4 b3bc b9bd 94bc
00000060: 2aa5 a03c 0619 933b edf3 8bbc 3b61 603b
00000070: 7ac8 ac3a 73a3 eebc 3972 fcbb a973 ffbc
00000080: 6d9b 3ebd 430e 11bd beae d9bc ae33 1dbd
00000090: 0c2d d2bc 9ed2 d4bc bc75 3dbc 9c8f 3d3c
000000a0: bb03 d03b 9d80 8abc 474f 51bc 38f0 99bc
000000b0: b89e b9bc 13df 9bbc 2a50 b539 287e adbc
000000c0: 27d6 393c 0e60 b33a a290 32bc 52cd 0d3c
000000d0: bf89 8c3c db3c 38bc 7b26 1f3c 0cb8 233d
000000e0: 9038 0b3d 1f37 523d deff 58bc 77d7 2bbd
000000f0: 6920 a73c 77d2 2dbb 8abc a1bb 0c8d ac3b
00000100: b97b 063b 25f1 ca3c 3101 043d 62f1 843d
00000110: c27f b13d de75 683d 0d4e 2ebb f353 a63c
00000120: 8c20 a73b 4388 183c d0b0 5fbc 6eb4 313c
00000130: 6fed 053c 7405 01bc b780 f93b a6be af3c
00000140: c6e6 2e3d 80fe f33c d7c2 9cbb 5c98 693c
00000150: c827 383a e4c4 0c3b cc4a 483c b23d 8f3c
00000160: 7a4c a63b 62c8 de3c c668 c3bb d715 963c
00000170: 1fd5 9b3b 4375 d639 da03 b6bc edf6 cc3b
00000180: 0896 773c 50a4 4cba 6af5 823c 1879 8f3c
00000190: 3822 d03c f815 a13b de63 453c 9e35 38bc
000001a0: 8357 11bc 4fcf 643b b948 783c 1d78 c03b
000001b0: ca79 953c 5191 a63b 846d 0a3c bf0b 593c
000001c0: a29d d5ba 998d 3a3b e1d7 15bc f5b6 7e3a
000001d0: addd 6e3b 83b8 3bba f543 adbc fd6c c6bc
000001e0: e9c4 98bc 5a04 3dbc 2524 1dbc c75e 56ba
000001f0: 059d 073c 4a6b bbbb 4a6a f8bb 878f 02bc
00000200: 61f9 b7bb df22 1cbd 7dfd 79bc 3a44 d13b
00000210: a9f7 153b 58b0 23bc f826 80bc b331 003c
00000220: 10d8 753c c17c 7bba d5c3 0abd e712 8abc
00000230: b3dd 20bd 5b0d 07bd d01a ebbc 8ee5 fc38
00000240: 17fd d03c 7e6b 813c d4de c53c 1ada cb3c
00000250: e034 a93c 9456 72bc fcab 65bc 26e1 6fba
00000260: 2624 5cbc 2015 e4bb 1bd0 10bc 36e7 bc3c
00000270: 0b43 e8ba f1f6 d03c 8c64 a7bc 037e d2bc
00000280: 97ef 8b3b 3611 c03b 7c3e 25bc 4729 4bbc
00000290: a6a8 103c 3516 c43a a355 33bb 6c46 5e3c
000002a0: 1c9d 37bc d5cf a93c cffe 90bc b7e9 5ebc
000002b0: dc7f 253c 58ee 8d3c fc15 5f3a d338 a0bc
000002c0: 7340 8e3a b4ae cbbb d38f 03bc 8ec9 9dbb
000002d0: 25ed d53b 13d5 c2bb 1a54 8bbc f807 50bc
000002e0: 5f26 b0bc 2d65 dbbc db09 533c 89af 833c
000002f0: df73 b63c 707e 993b 843b 0dbc 55c9 80bc
00000300: 2d21 5a3c b876 82bc 6a4f a83c 6b51 69bc
00000310: 2566 c7bc 8f5b a4bc 2ce8 b33c 91bd ab3c
00000320: b44d 153c 206f 673b b606 c33c 45d1 833c
00000330: bc5c 813c f762 91bc f815 9b3b 1baa c73c
00000340: c6a2 95bc cc9a db3c 8b5a 8abc fe04 babb
00000350: 1c00 0f3b bb52 233c e667 0a3c 4159 69bc
00000360: 12b4 483c 20b4 ea3b d416 37bb 9c28 d2bc
00000370: bf7e d73c 916a 18bc e35d 4cbc a379 ef3c
00000380: 5203 24bc dde4 9d3c 9499 843c 26f8 8abc
00000390: cc8d acbc 55a2 67bc 87ed 0f3c 594b cf3c
000003a0: a8b7 8bba 11ec cdbb f1bc d7bb 91cc 81bc
000003b0: b2c1 ef3c 836c 433a 8f96 a4bc 76cf 8ebc
000003c0: 88d8 873c 12d5 503c 2b98 8e3c 35e1 34bb
000003d0: d165 a0bb db4f 2b3c 1ecf c339 314e d9bb
000003e0: acfc 013c 4341 4dbc 3360 90bc 397b bdbb
000003f0: f358 98bc 00c4 603a 1fb1 a23b 6d4c db3c

digit_rec.fc1.bias f4 [100]
-0.015984049 -0.002350313 0.841135 0.6883946 -0.016126413 -0.009515774 -0.013451753 -0.0026474935
0.9168703 0.67584056 0.67194545 -0.02408228 -0.030366143 -0.007436326 -0.017705847 0.9092009
-0.003451975 -0.001070027 -0.008085282 -0.0025233706 -0.0010746688 0.71380675 -0.03117886 -0.011213459
0.640358 -0.025570167 -0.0167202 -0.019492524 -0.03279628 -0.0061217607 0.8975047 -0.018443607
-0.020510603 -0.028306523 -0.011752492 -0.02808212 0.07891309 -0.0017763878 0.66923004 -0.030326327
-0.023737837 0.7439427 -0.04104255 -0.02934207 0.6455323 -0.0021996158 0.6569352 -0.021026455
-0.026976919 -0.012189662 -0.019861415 0.7396306 -0.002380874 -0.014384831 0.032507524 -0.042563096
0.66515845 0.6609218 -0.0045303465 -4.840769e-14 0.51261854 0.5520549 0.7598794 0.8339062
-0.008533526 0.58019316 -0.01925228 0.60236114 -0.0072277915 -0.018969988 0.76680505 0.7256648
0.6045258 -0.009879871 0.48010042 -0.018726032 0.89255726 -0.011988826 -0.0031781201 -0.0049118134
-0.0019759778 -0.02939342 0.6036035 1.1405876 -0.014887899 -8.127615e-06 1.0545938 -0.014095366
0.7658388 0.69258356 -0.017251603 0.51409215 -0.00547302 -0.009840179 -0.006249203 0.6126197
0.94839877 -1.752116e-06 -0.020992238 -0.0062704952
00000000: fbf0 82bc b507 1abb a054 573f a13a 303f
00000010: 8a1b 84bc 0de8 1bbc be64 5cbc 9281 2dbb
00000020: 03b8 6a3f e303 2d3f 9e04 2c3f 3448 c5bc
00000030: 6bc2 f8bc 6cac f3bb da0b 91bc 64c1 683f
00000040: 883a 62bb 2640 8cba 2178 04bc 225f 25bb
00000050: e7db 8cba 0abc 363f cf6a ffbc a8b8 37bc
00000060: 80ee 233f 8778 d1bc cdf8 88bc c9ae 9fbc
00000070: 6455 06bd 0d99 c8bb dec2 653f 0c17 97bc
00000080: da05 a8bc 15e3 e7bc 868d 40bc 790c e6bc
00000090: 309d a13d afd5 e8ba a952 2b3f eb6e f8bc
000000a0: da75 c2bc 0773 3e3f 3c1c 28bd c85e f0bc
000000b0: 9b41 253f 6e27 10bb e82c 283f ac3f acbc
000000c0: b3fe dcbc 26b7 47bc 68b4 a2bc 6e58 3d3f
000000d0: 7008 1cbb 5bae 6bbc 9c26 053d a456 2ebd
000000e0: d347 2a3f 2c32 293f 4d73 94bb 4402 5aa9
000000f0: f83a 033f 7853 0d3f 7587 423f e07a 553f
00000100: 34d0 0bbc 8a87 143f f5b6 9dbc 5734 1a3f
00000110: 1cd7 ecbb f366 9bbc 564d 443f 2bc5 393f
00000120: 34c2 1a3f 2fdf 21bc b9cf f53e 5667 99bc
00000130: a27e 643f c86c 44bc 0248 50bb 47f3 a0bb
00000140: 687f 01bb 78ca f0bc c285 1a3f c6fe 913f
00000150: 60ec 73bc d75b 08b7 eefc 863f 40f0 66bc
00000160: 030e 443f 284d 313f 3c53 8dbc 8b9b 033f
00000170: 0557 b3bb b438 21bc 1dc6 ccbb a5d4 1c3f
00000180: 43ca 723f 3f2a ebb5 eaf7 abbc ba78 cdbb

digit_rec.fc2.weight f4 [10, 100]
-0.18048576 -0.10766938 0.30518022 0.3808659 -0.18919277 -0.022479923 -0.16416244 -0.13331315
0.23854494 0.28000852 0.20317625 0.08895595 -0.09773253 -0.11513849 -0.032772377 0.22767545
-0.06689521 -0.07420657 -0.20799862 -0.1065558 -0.087492205 0.262231 -0.19130783 -0.048878074
0.28073317 -0.032529786 -0.12660144 -0.1300668 -0.017114328 -0.15524338 0.2784237 -0.18140498
0.0029279103 -0.14195845 0.01086042 -0.10956135 -0.052611943 -0.15706107 0.3919483 -0.16160189
-0.2247284 0.2437984 -0.21165758 -0.12804255 0.30606934 -0.056350477 0.25678992 -0.11994259
-0.19595006 -0.14905764 -0.15484692 0.36997968 0.008036866 -0.060806468 0.043230116 -0.15436818
0.26123765 0.14205417 -0.0729502 -0.10333322 0.35749614 0.2003769 0.2584042 0.4906325
-0.112864554 0.23151644 -0.008015886 0.3051851 -0.1301019 -0.033387855 0.2833973 0.3136645
0.30060735 0.053763304 0.13056521 -0.06760237 0.2442452 -0.16695568 -0.16587906 -0.17769732
0.0013965444 -0.13277201 0.28328326 0.66099054 -0.106090344 -0.120867506 0.44935974 -0.21617298
0.3315015 0.35104975 -0.028075757 0.18095857 -0.14746712 0.008210676 -0.073142625 0.1924004
0.81388974 -0.19330585 -0.2061722 -0.17187804 0.022429923 0.04815853 0.066332065 0.06809391
0.053529423 -0.09432141 -0.04059651 -0.02196232 -0.22512329 0.14882375 -0.17862175 -0.0970941
-0.024514982 0.09346208 0.14583421 -0.23800273 -0.011148821 0.12771 0.03750205 -0.047471672
-0.057384297 -0.15189867 -0.06671215 0.09208338 -0.18928653 -0.039834052 0.030286858 0.045019317
-0.03317578 -0.02881288 -0.35631287 0.044489987 0.12405479 -0.08105213 0.04587808 0.06683373
0.09635829 0.05683109 -0.13324957 0.084238596 0.012282224 -0.16047223 0.03404332 -0.0389491
-0.07957877 0.059526812 -7.4540934e-05 -0.10612066 0.05887985 -0.06519872 0.056884192 -0.10994802
0.19403811 -0.09372391 -0.0068769124 -0.022979226 -0.06830546 -0.17648701 -0.012026576 0.14135952
0.14249197 0.060642466 -0.21614143 -0.12199893 0.0671344 -0.10381966 0.09824989 -0.15264165
-0.04282483 -0.06188437 0.046162613 -0.18964708 -0.12078889 -0.049706772 -0.15081675 0.010122903
-0.2508062 0.04647191 0.04613885 0.053149905 0.09398915 -0.073712476 -0.06562513 -0.37641606
-0.0030517494 0.085129224 -0.14643615 0.016301613 -0.16645104 -0.08784902 -0.049708214 -0.05740184
0.00015477554 -0.08507743 -0.06320739 -0.06683116 -0.48074177 0.07326021 0.015618805 0.026113313
0.05502302 -0.07986657 -0.029176185 -0.26750097 0.009395545 0.047627494 0.035072282 0.08484207
-0.23505618 -0.13903198 -0.18694049 -0.03697185 0.08867092 0.091946885 0.068226255 -0.23644476
0.12507321 0.056026414 -0.044655476 0.05758973 -0.06831096 -0.18435033 -0.0702691 0.08578319
-0.039206024 -0.016702332 -0.044818144 0.060971376 0.0071321796 0.06425482 0.037675355 0.051897112
-0.029834636 -0.057852756 0.034603123 0.05821188 0.09372917 0.08514048 -0.17716362 -0.0552148
0.020006182 -0.18257284 -0.057448708 -0.03787022 -0.16012093 0.098803274 -0.21113104 -0.06174583
-0.001161928 0.07000337 -0.05375909 -0.1635669 -0.07337296 0.058510646 -0.037893623 0.03156449
00000000: 42d1 38be c481 dcbd 9540 9c3e db00 c33e
00000010: c0bb 41be d127 b8bc 331a 28be 3e83 08be
00000020: 2045 743e 475d 8f3e 6f0d 503e 8a2e b63d
00000030: fe27 c8bd bbcd ebbd 543c 06bd c123 693e
00000040: 5b00 89bd 9df9 97bd 97fd 54be ed39 dabd
00000050: 1d2f b3bd 2443 863e 33e6 43be 6034 48bd
00000060: 42bc 8f3e f43d 05bd cfa3 01be 3b30 05be
00000070: 5933 8cbc 1ff8 1ebe 8d8d 8e3e 3ac2 39be
00000080: 2fe2 3f3b 8e5d 11be e7ef 313c b361 e0bd
00000090: 9f7f 57bd 9ed4 20be 73ad c83e f77a 25be
000000a0: 341f 66be 4aa6 793e c4bc 58be 961d 03be
000000b0: 1fb5 9c3e c2cf 66bd f879 833e 76a4 f5bd
000000c0: 22a7 48be 91a2 18be 3190 1ebe fa6d bd3e
000000d0: 0fad 033c 3410 79bd 1012 313d b112 1ebe
000000e0: f1c0 853e a676 113e ea66 95bd 5ea0 d3bd
000000f0: bc09 b73e 9a2f 4d3e 8e4d 843e 2f34 fb3e
00000100: 8825 e7bd a512 6d3e 1055 03bc 3941 9c3e
00000110: 6f39 05be b4c1 08bd 7319 913e a298 a03e
00000120: 35e9 993e e936 5c3d e3b2 053e 1d73 8abd
00000130: 6a1b 7a3e 6ef6 2abe 33dc 29be 49f6 35be
00000140: 410c b73a 63f5 07be 810a 913e ad36 293f
00000150: e545 d9bd 6289 f7bd 7b12 e63e 735c 5dbe
00000160: 91ba a93e cbbc b33e 21ff e5bc 344d 393e
00000170: 9f01 17be 1286 063c cdcb 95bd 9c04 453e
00000180: 145b 503f f8f1 45be ce1e 53be cc00 30be
00000190: f5be b73c e141 453d 1bd9 873d d274 8b3d
000001a0: ab41 5b3d 952b c1bd 8748 26bd 53ea b3bc
000001b0: b886 66be 4165 183e 9fe8 36be 46d9 c6bd
000001c0: a5d3 c8bc 0c69 bf3d 9055 153e fdb6 73be
000001d0: 8ba9 36bc 69c6 023e c09b 193d a871 42bd
000001e0: cc0b 6bbd 538b 1bbe 61a0 88bd 3696 bc3d
000001f0: 54d4 41be 0829 23bd 251c f83c 2d66 383d
00000200: 54e3 07bd fd08 ecbc a46e b6be 223b 363d
00000210: 7010 fe3d a9fe a5bd a7ea 3b3d 1fe0 883d
00000220: 7f57 c53d b8c7 683d 9372 08be 4985 ac3d
00000230: 623b 493c d552 24be 0271 0b3d 1789 1fbd
00000240: 32fa a2bd 63d2 733d dc52 9cb8 ca55 d9bd
00000250: ff2b 713d e886 85bd 66ff 683d 6d2c e1bd
00000260: edb1 463e 52f2 bfbd b957 e1bb ee3e bcbc
00000270: bce3 8bbd 03b9 34be 1e0b 45bc 8dc0 103e
00000280: 6ae9 113e 3c64 783d 2e54 5dbe 93da f9bd
00000290: c37d 893d 679f d4bd 3d37 c93d 184e 1cbe
000002a0: 1769 2fbd 777a 7dbd 0215 3d3d d832 42be
000002b0: 2a60 f7bd 5499 4bbd b56f 1abe 88da 253c
000002c0: ac69 80be 5459 3e3d 17fc 3c3d b7b3 593d
000002d0: 627d c03d 91f6 96bd 7866 86bd 9bb9 c0be
000002e0: dcff 47bb 3b58 ae3d 5cf3 15be f68a 853c
000002f0: 2472 2abe 30ea b3bd d79a 4bbd 311e 6bbd
00000300: 3e4b 2239 133d aebd e072 81bd c6de 88bd
00000310: c923 f6be 7309 963d 04e6 7f3c 96eb d53c
00000320: d15f 613d 1691 a3bd e502 efbc e3f5 88be
00000330: c6ef 193c 0c15 433d f4a7 0f3d aec1 ad3d
00000340: 91b2 70be 665e 0ebe 546d 3fbe cb6f 17bd
00000350: 1999 b53d a64e bc3d 35ba 8b3d 931e 72be
00000360: 3113 003e f47b 653d a9e8 36bd 35e3 6b3d
00000370: 9ee6 8bbd 55c6 3cbe 3fe9 8fbd 19af af3d
00000380: 7f96 20bd 54d3 88bc 3b93 37bd 1fbd 793d
00000390: 0fb5 e93b 0898 833d 7951 1a3d 1192 543d
000003a0: c467 f4bc 03f7 6cbd 01bc 0d3d 956f 6e3d
000003b0: 14f5 bf3d 225e ae3d 616a 35be ea28 62bd
000003c0: 01e4 a33c 60f4 3abe 564f 6bbd ce1d 1bbd
000003d0: bef6 23be 5f59 ca3d bc32 58be 32e9 7cbd
000003e0: d64b 98ba ed5d 8f3d 7e32 5cbd 157e 27be
000003f0: 9044 96bd dca8 6f3d 5836 1bbd c449 013d

digit_rec.fc2.bias f4 [10]
0.64302325 -0.6127059 -0.32808015 -0.39550868 -0.45767406 -0.4573996 -0.42949036 -0.45067745
-0.3502385 -0.3988991
00000000: 2c9d 243f 4bda 1cbf 1ffa a7be 1d80 cabe
00000010: 4154 eabe 4830 eabe 29e6 dbbe 32bf e6be
00000020: 7652 b3be 813c ccbe
