outputs/perception/multiple_sol/checkpoint_best.pth (torch, 591247 bytes, 8 tensors)

digit_rec.conv1.weight f4 [20, 1, 3, 3]
0	0x3e1a8566	0.1508995
1	0xbe2fd5b3	-0.17171364
2	0xbda58379	-0.08081717
3	0x3e0bcb54	0.13651782
4	0xbea8c5de	-0.3296346
5	0x3e40e2e9	0.1883656
6	0xbda8c636	-0.08240931
7	0x3e1d9138	0.15387428
8	0x3d0f0cbf	0.034924265
9	0xbd5e994a	-0.054345407
10	0x3db4832a	0.0881408
11	0xbb3c0b6e	-0.0028693336
12	0x3e03ff1c	0.12890285
13	0xbdef44c7	-0.1168304
14	0xbd0b5f0d	-0.034026194
15	0xbcb91511	-0.022593053
16	0x3d3cd95a	0.04610572
17	0xbcc81a53	-0.024426615
18	0x3e99d1c7	0.3004286
19	0x3dd9976a	0.10624583
20	0xbdfb4a34	-0.122700125
21	0xbe441ff1	-0.1915281
22	0xbd714419	-0.058902834
23	0xbe10f356	-0.14155325
24	0xbdc94b40	-0.09828806
25	0x3c8441f5	0.016144732
26	0x3e4b7ac4	0.1987105
27	0x3e3bdda8	0.18346274
28	0xbea72f2a	-0.3265317
29	0x3e555ac0	0.208354
30	0x3de1495a	0.11000319
31	0x3ea6bc50	0.32565546
32	0x3e772086	0.241335
33	0xbe8e5a71	-0.27803376
34	0xbe9e424a	-0.3090995
35	0xbe10b3af	-0.14131044
36	0x3e999583	0.2999688
37	0xbd3dd5f8	-0.046346635
38	0x3e1358d1	0.1438935
39	0xbe195fae	-0.14977905
40	0x3ea83879	0.32855585
41	0xbe10a906	-0.14126977
42	0x3e788dc5	0.24272831
43	0x3baef221	0.0053389226
44	0xbe2e7096	-0.17035136
45	0x3e408655	0.18801244
46	0xbe1b63cb	-0.15174787
47	0x3e048447	0.12941085
48	0xbd9d2203	-0.07672503
49	0x3c555535	0.013020803
50	0xbe94ae07	-0.29039022
51	0xbe16d3d1	-0.14729239
52	0x3e59d227	0.21271573
53	0xbd6bfc0d	-0.05761342
54	0x3ea2198b	0.31660113
55	0x3e811947	0.25214598
56	0xbcf6228c	-0.03004577
57	0xbe71aa52	-0.23600128
58	0x3e3dc5d9	0.18532504
59	0x3db30236	0.08740656
60	0xbe67304f	-0.22577022
61	0x3e4c5e51	0.19957854
62	0x3e400733	0.18752746
63	0x3eabc367	0.33547518
64	0xbe17cf0f	-0.1482508
65	0xbd27a0c7	-0.040924814
66	0x3cc14342	0.023591641
67	0x3d513051	0.05107147
68	0xbe7c138e	-0.24616835
69	0xbe60b4a8	-0.21943915
70	0x3e545d99	0.2073883
71	0xbd2ced6a	-0.042218603
72	0x3e1fbe88	0.15600026
73	0x3c8c2654	0.01710812
74	0x3de0e51f	0.109812014
75	0x3d819aea	0.06328376
76	0x3dee5546	0.11637358
77	0x3e22d417	0.15901218
78	0xbea4893f	-0.3213596
79	0x3e256936	0.16153416
80	0xbe7b886b	-0.24563758
81	0xbe8170ce	-0.25281376
82	0x3d19bd60	0.037534118
83	0xbbccf2ba	-0.006254521
84	0x3e4cad8e	0.19988081
85	0xbe1e7c4b	-0.15477102
86	0xbe8ed051	-0.27893308
87	0x3e8604cd	0.26175538
88	0xbbaef8d0	-0.0053397194
89	0x3e5b5a00	0.21421051
90	0x3dfc5eb3	0.1232275
91	0xbe85103f	-0.25988957
92	0x3e0b5dd4	0.13610011
93	0x3dfac5c1	0.1224475
94	0xbe34013e	-0.17578599
95	0xbdc9e3fe	-0.09857939
96	0x3e164e27	0.1467825
97	0x3da71d8a	0.08159931
98	0xbe1673b8	-0.1469258
99	0xbdd02d4f	-0.10164892
100	0x3e9e9121	0.309701
101	0xbd5490b1	-0.0518958
102	0x3e41bede	0.18920466
103	0x3e14db58	0.14536798
104	0xbe53d504	-0.20686728
105	0xbe917ab8	-0.2841394
106	0x3ea0b11e	0.3138513
107	0x3ca9cd23	0.0207277
108	0x3e6dc389	0.23219122
109	0x3d924058	0.07141179
110	0x3de00545	0.10938505
111	0x3e819673	0.25310096
112	0x3ea40bd2	0.32040268
113	0xbe58247c	-0.21107668
114	0x3d5a77d8	0.05333695
115	0x3e84d951	0.2594705
116	0x3e808255	0.25099435
117	0x3e62d85e	0.2215285
118	0xbe5f313a	-0.21796122
119	0xbe5b76cb	-0.21432035
120	0xbe3bfb20	-0.18357515
121	0x3d98d9dd	0.07463429
122	0x3ebb0310	0.36525774
123	0xbe37ddca	-0.179557
124	0x3e578a93	0.21048956
125	0xbe24c606	-0.16091165
126	0xbea8774d	-0.3290352
127	0xbd978059	-0.07397527
128	0x3e408c16	0.18803439
129	0x3e9a790a	0.3017047
130	0xbe566e0c	-0.20940417
131	0x3d8d7486	0.06906991
132	0x3e922451	0.28543332
133	0x3e5f3eb0	0.21801257
134	0x3e533fdc	0.20629829
135	0x3e81624f	0.25270316
136	0x3e83aa0d	0.25715676
137	0x3df431c5	0.11923555
138	0xbe6734b0	-0.22578692
139	0xbe5ce1c1	-0.21570493
140	0xbe07bef4	-0.13256437
141	0xbc97d230	-0.018532842
142	0xbe2161e4	-0.15759999
143	0x3e0d5abd	0.13804145
144	0x3daf3450	0.085549
145	0xbdb829b1	-0.08992327
146	0x3de8f897	0.1137554
147	0x3db5f70c	0.08885011
148	0x3e3fe35f	0.18739079
149	0x3e52093f	0.2051134
150	0xbdfb0a90	-0.12257874
151	0x3e9e5c37	0.3092973
152	0xbd48e67d	-0.049047936
153	0x3da3a668	0.07990724
154	0xbe8d503c	-0.27600276
155	0xbde076e9	-0.1096018
156	0xbd89527c	-0.06705186
157	0xbd9f5f67	-0.077818684
158	0x3e9b56e4	0.3033973
159	0xbd3456bb	-0.044028025
160	0xbe5022ee	-0.20325825
161	0x3e334418	0.17506444
162	0x3e29d278	0.16584194
163	0x3e822591	0.25419286
164	0xbe0e6843	-0.1390696
165	0x3e18b2f0	0.14912009
166	0xbd8ffd23	-0.07030704
167	0xbdb572e4	-0.08859804
168	0xbe33fd66	-0.17577133
169	0xbd97e18b	-0.07416066
170	0xbd954ed6	-0.072904274
171	0x3e082b22	0.13297704
172	0x3d6c2d0f	0.05766016
173	0x3d9da580	0.07697582
174	0x3ea3de8e	0.32005733
175	0x3e9d2166	0.30689543
176	0x3e5aa876	0.21353325
177	0xbc553479	-0.013012999
178	0xbe7f405c	-0.24926895
179	0x3e6a30d9	0.22870196

digit_rec.conv1.bias f4 [20]
0	0xbdbbe877	-0.091751985
1	0xbd0bb683	-0.034109604
2	0xbe913555	-0.28361002
3	0xbd8cbbba	-0.068717435
4	0xbe5bb9c4	-0.21457583
5	0x3ea0ea4f	0.31428763
6	0xbe9a1f31	-0.30101922
7	0xbe82aeca	-0.25523978
8	0xbc783421	-0.015149147
9	0xbe3dd687	-0.18538867
10	0x3df708f7	0.12062257
11	0xbdf3abe6	-0.118980214
12	0xbe15bcdc	-0.14622825
13	0x3cdd8410	0.027040511
14	0x3e796ec2	0.24358657
15	0xbe665430	-0.22493052
16	0x3e144409	0.14479078
17	0x3e5ef265	0.21772154
18	0x3eaa8f0b	0.33312258
19	0xbe794117	-0.24341236

digit_rec.conv2.weight f4 [10, 20, 3, 3]
0	0x3d319bff	0.04336166
1	0xbc696469	-0.014245131
2	0x3db4788c	0.08812055
3	0xbcb9615a	-0.022629429
4	0x3d069b4f	0.032862958
5	0xbbdc7b2e	-0.0067285514
6	0xbcedcb51	-0.029027613
7	0xbc607d50	-0.013701752
8	0x3be95bbc	0.0071215313
9	0x3cd970ee	0.026543107
10	0x3b83ba78	0.0040200315
11	0x3be0e858	0.006863635
12	0xbd84a45f	-0.06476664
13	0x3d184d81	0.03718329
14	0x3d6fe5d8	0.058568805
15	0x3d82735d	0.0636966
16	0x3d6e7192	0.058213778
17	0xbd22889b	-0.03968106
18	0xbbf668c7	-0.0075198147
19	0x3d879dce	0.06621896
20	0xbd8d62a3	-0.06903579
21	0x3d70e679	0.058813546
22	0xbda36bc4	-0.07979539
23	0xbdb7c989	-0.08973987
24	0x3d1ded0a	0.038556136
25	0xbd8fca0f	-0.070209615
26	0xbd062ed5	-0.032759506
27	0x3cb287eb	0.021793326
28	0x3cf7350b	0.03017666
29	0x3d6e7307	0.058215167
30	0xbc4e86b9	-0.012605363
31	0x3c2c6f77	0.010524622
32	0x3dfbf17b	0.12301918
33	0xbc84ecbe	-0.016226169
34	0xbc95d1d2	-0.018288527
35	0x3dabc61a	0.08387394
36	0xbd2a467f	-0.041571137
37	0x3d10f5ca	0.035390653
38	0x3c5b749b	0.0133945
39	0xbd534f5b	-0.05158935
40	0xbd4312f9	-0.047625516
41	0xbc9c3cbc	-0.01907193
42	0x3d31b116	0.043381773
43	0x3bf0c1fe	0.0073473444
44	0xbd21eb07	-0.03953078
45	0x3c90d0f0	0.017677754
46	0xbd854974	-0.06508151
47	0xbd81e8cb	-0.0634323
48	0xbd257551	-0.040395085
49	0x3d962f18	0.07333201
50	0x3d44ce98	0.048048586
51	0xbba7e67d	-0.005123912
52	0x3cad929e	0.021188077
53	0x3d495e78	0.049162358
54	0x3cb05db1	0.02152905
55	0xbd4db60e	-0.05022245
56	0x3d1e7cd8	0.03869328
57	0x3d4fcfb5	0.050735194
58	0xbcbe555c	-0.023234062
59	0xbc4bda60	-0.012442201
60	0x3d87e4d7	0.066354446
61	0x3d185a5d	0.037195552
62	0xbd72e960	-0.059304595
63	0x3de1ca7a	0.110249475
64	0x3d25be77	0.040464845
65	0xbd2739a5	-0.04082646
66	0x3d5fcc22	0.054638036
67	0xbd3874f3	-0.045033406
68	0x3d4d2062	0.05007971
69	0xbc14b9e4	-0.009077523
70	0x3c8874ff	0.01665735
71	0x3c84e57d	0.01622271
72	0x3c15f11b	0.009151722
73	0x3cb556c5	0.022136101
74	0xbd61370b	-0.054984134
75	0xbc8def0a	-0.017325897
76	0xbd3f5183	-0.046708595
77	0x3d08ac29	0.03336731
78	0xbd142d03	-0.03617574
79	0xbc4c0bb7	-0.012453965
80	0x3d0786cb	0.033087533
81	0x3b36582d	0.0027823553
82	0x3d164f32	0.03669662
83	0xbb8f73be	-0.004377811
84	0xbd511c40	-0.051052332
85	0xbd622e91	-0.05522019
86	0xbd94740d	-0.072486974
87	0x3d610ce0	0.05494392
88	0x3aea4bf3	0.0017875418
89	0x3c45f956	0.012083372
90	0x3cb36469	0.021898465
91	0xbd312b25	-0.043254036
92	0x3d35d19e	0.04438936
93	0x3d6b37cb	0.057426255
94	0x3caec4c7	0.021334065
95	0xbce897dd	-0.028392727
96	0xbb9a1070	-0.0047016665
97	0x3cdf9740	0.027293801
98	0x3ba8633b	0.0051387823
99	0xbd11e97d	-0.035623062
100	0x3b9e44a3	0.0048299595
101	0xbcf37420	-0.029718459
102	0x3cad31df	0.021141944
103	0xbc91b1aa	-0.017784912
104	0x3c9aa272	0.018876288
105	0xbcb164cf	-0.021654515
106	0xbd32631e	-0.043551557
107	0x3d63096a	0.0554289
108	0x3ccea3c1	0.025224568
109	0x3d83c8be	0.06434773
110	0xbc7bdb2e	-0.015372081
111	0xbc81b89f	-0.015835105
112	0xbd97c3f2	-0.074104205
113	0xbd1b80eb	-0.037964743
114	0x3d54aa97	0.0519205
115	0xbd9f4b0f	-0.07777988
116	0xbd530a02	-0.051523216
117	0x3d6ffa6a	0.058588423
118	0x3dbc1b00	0.09184837
119	0x3daeadd3	0.08529248
120	0x3c9bf5d2	0.019038115
121	0xbb3524c6	-0.0027640327
122	0xbc1afe1f	-0.009460001
123	0xbd53924a	-0.051653184
124	0xbc14b75d	-0.00907692
125	0xbce47ce5	-0.027891586
126	0xbd4cf31e	-0.050036542
127	0x3cc4da14	0.024029769
128	0xbd2a50a2	-0.041580804
129	0xbccae1de	-0.024765905
130	0x3cf033af	0.02932152
131	0x3c926163	0.017868703
132	0x3d797819	0.06090555
133	0xbd7389c1	-0.059457544
134	0xbcadd520	-0.02121979
135	0xbd1238e5	-0.03569879
136	0xbdad44e1	-0.08460403
137	0xbdc8ab7b	-0.09798332
138	0xbad8dcc0	-0.0016545281
139	0xbd0b45f2	-0.034002252
140	0xbda582f6	-0.080816194
141	0xbd480e85	-0.048841972
142	0xbd87c4de	-0.06629346
143	0x3dc9d549	0.09855134
144	0xbc16fce1	-0.0092155645
145	0xbc23b847	-0.009992666
146	0xbc8a7cb9	-0.016905176
147	0xbcf8dfbe	-0.030380126
148	0xbd7b8197	-0.061402883
149	0xbd293431	-0.04130954
150	0x3d43171e	0.04762947
151	0x3a0d5e24	0.0005392751
152	0xbd3b1996	-0.045678698
153	0xbce057e0	-0.027385652
154	0x3dc7ec1a	0.0976183
155	0x3dcec17d	0.10095499
156	0x3d9263c9	0.07147939
157	0x3ceb1bbb	0.028699746
158	0x3d6b21b5	0.057405192
159	0xbc905629	-0.01761921
160	0xbce06146	-0.027390134
161	0xbdd3355b	-0.10312911
162	0x3d62bdc3	0.055356752
163	0xbb518b61	-0.0031973945
164	0xbcb02e65	-0.021506498
165	0x3cab2648	0.020892277
166	0xbdab3695	-0.0836002
167	0xbd8efabb	-0.06981417
168	0x3c4a4e37	0.012347749
169	0xbd49ecf7	-0.049298253
170	0xbdaad41e	-0.083412394
171	0x3d17c4ad	0.0370528
172	0x3b76c335	0.0037652974
173	0xbc976789	-0.018481987
174	0x3d0c4948	0.034249574
175	0x3cb450e1	0.022011222
176	0xbc158286	-0.0091253575
177	0x3d853003	0.06503298
178	0x3cd92aa7	0.026509596
179	0xbc32c5b2	-0.010911392
180	0x3d08bad0	0.033381283
181	0xbd38255e	-0.04495751
182	0x3d05dcf2	0.032681413
183	0x3cc7a2d4	0.024369635
184	0xbd684482	-0.05670596
185	0x3d08e787	0.033423927
186	0x3d3ee561	0.04660547
187	0x3c9edd55	0.019392649
188	0xbb9d4924	-0.004799979
189	0x3b44fe99	0.0030058979
190	0x3cf0a734	0.029376604
191	0x3d4cf130	0.0500347
192	0x3ce7cfb0	0.028297275
193	0xbd2a0145	-0.041505117
194	0x3d8ed4b6	0.06974165
195	0xbb8149e4	-0.003945576
196	0x3d5adafe	0.053431503
197	0x3b17b129	0.0023146367
198	0x3d8746b6	0.06605284
199	0x3cce3b05	0.025174627
200	0xbd715f13	-0.05892856
201	0x3d8bd59e	0.068278536
202	0xbc8ce950	-0.017201096
203	0xbdcfcfc1	-0.10147048
204	0x3d0b7834	0.03405018
205	0xbdf353e6	-0.11881237
206	0xbda4c3e8	-0.08045179
207	0xbd90c95f	-0.070696585
208	0x3cde2601	0.027117731
209	0xbc9da6f9	-0.019244658
210	0xbcc5f0f3	-0.024162745
211	0x3c4487ca	0.011995265
212	0x3cbf8030	0.023376554
213	0xbcfabb2b	-0.030606827
214	0x3c05ad2d	0.008158964
215	0x3d1e1bf5	0.03860088
216	0xbd777b3c	-0.06042026
217	0x3d30d873	0.043175172
218	0xbd26bbcc	-0.04070644
219	0xbd0a4668	-0.03375855
220	0xbd843088	-0.06454569
221	0x3d7a2dc5	0.061078805
222	0x3c5d0549	0.01349003
223	0x3d5c4361	0.053775195
224	0xba160779	-0.00057231594
225	0x3d01c556	0.031682335
226	0xbd38ebdd	-0.04514681
227	0xbda47e6e	-0.08031927
228	0x3d2ee44b	0.042698186
229	0x3b1be53e	0.0023787762
230	0xbc462d89	-0.012095817
231	0xbd2239f5	-0.039606053
232	0xbbf3bbcd	-0.007438159
233	0x3c7474d6	0.014920434
234	0x3c4999bd	0.0123047205
235	0xbd813350	-0.06308615
236	0x3d26c9b1	0.04071969
237	0x3bc76563	0.0060850843
238	0x3d3f62a2	0.046724923
239	0x3d689273	0.05678029
240	0xbd522383	-0.051303398
241	0x3d911018	0.07083148
242	0xbd87c169	-0.06628687
243	0x3d709792	0.0587383
244	0x3b9150cc	0.0044346806
245	0x3d21aa18	0.039468855
246	0x3cd2f7c6	0.025752913
247	0x3da12824	0.07868984
248	0xbd2117c2	-0.039329298
249	0xbc33637f	-0.010949015
250	0x3c943968	0.01809378
251	0x3d02ef13	0.03196628
252	0x3d3e2f14	0.046431616
253	0xbc8bc1ed	-0.017060244
254	0x3d7fb054	0.06242402
255	0x3d0d5c69	0.034511957

digit_rec.conv2.bias f4 [10]
0	0xbc63b62d	-0.013898415
1	0x3b179803	0.0023131378
2	0x3d0dfd0f	0.034665164
3	0x3d28388b	0.04106955
4	0xbbf7abef	-0.007558338
5	0x3d807950	0.062731385
6	0xbd1af03a	-0.037826754
7	0x3b169000	0.0022974014
8	0xbd5bc031	-0.053650085
9	0x3c1f738b	0.009732137

digit_rec.fc1.weight f4 [100, 1440]
0	0x3cc4c1b4	0.024018146
1	0xbcb29192	-0.021797929
2	0x3bbd4927	0.0057765427
3	0xbcc3ade3	-0.023886627
4	0xbbb4a53b	-0.005512861
5	0xbc4140c9	-0.011795231
6	0x3a55cffa	0.0008156296
7	0xbc912a51	-0.017720373
8	0x3bd277c4	0.0064229686
9	0xbccb7fd4	-0.024841227
10	0x3bb715ca	0.0055873143
11	0xbc267da4	-0.010161791
12	0xbc813d9e	-0.015776452
13	0x3cb34b06	0.02188636
14	0x3b905e95	0.0044058063
15	0xbc9ccd57	-0.019140882
16	0xbc902463	-0.017595476
17	0xbc537c20	-0.012908012
18	0xbc388f36	-0.011264613
19	0x3c085794	0.0083216615
20	0x3acd2d24	0.0015653712
21	0x3ccb3fe6	0.024810743
22	0xba26292e	-0.0006338534
23	0xbc6806c5	-0.01416177
24	0x3cbb8580	0.022890806
25	0x3bdc7cd4	0.006728748
26	0xbbda2afd	-0.0066579566
27	0x3c94d01f	0.018165646
28	0x3c89e01e	0.0168305
29	0xbcedbdc3	-0.02902115
30	0xbc9f255b	-0.019426992
31	0xbc69ca1b	-0.014269377
32	0xbc6313c6	-0.013859695
33	0xbc258dac	-0.010104578
34	0x3c084fa3	0.008319768
35	0xbcd08152	-0.02545229
36	0xbcc29c44	-0.023756154
37	0xbca60bc7	-0.020269288
38	0xbc8859a4	-0.016644306
39	0x3c8dedf0	0.017325372
40	0x3c9d7196	0.019219201
41	0x3c5b4afe	0.013384579
42	0xbbc157d3	-0.005900362
43	0xbc556b8f	-0.013026132
44	0x3cd7ee99	0.02635889
45	0xbc9612f4	-0.018319584
46	0x3bf3f6be	0.0074451854
47	0x3c41ee87	0.0118366545
48	0x3c1b5849	0.009481498
49	0x3c005d94	0.007834811
50	0xbcbb6c82	-0.022878889
51	0xba3ab842	-0.00071227935
52	0xbc284603	-0.010270598
53	0x3b8e4983	0.0043422594
54	0xbc799b2f	-0.015234753
55	0x3a88b879	0.0010430954
56	0x3d1690c4	0.036759153
57	0x3cfb64a4	0.030687638
58	0xbcac0969	-0.02100058
59	0xbcb7eb24	-0.022450991
60	0x3cb77e90	0.022399217
61	0x3a2d446a	0.0006609621
62	0xbbab3b96	-0.005225609
63	0x3c9bc291	0.019013675
64	0xbacc227e	-0.0015574244
65	0x3cc38fa9	0.023872213
66	0x3c0f6607	0.008752353
67	0x3d0e55cd	0.034749795
68	0x3c8c908f	0.017158775
69	0x3c3ce7b5	0.011529853
70	0xbca3ac73	-0.019979691
71	0x3c83161b	0.016001752
72	0x3ba78ed6	0.005113463
73	0x3ccfd671	0.025370808
74	0xbc39ebd8	-0.011347733
75	0x3c9ac013	0.018890416
76	0x3cc4f28d	0.024041438
77	0xbcd360ca	-0.025802989
78	0xbb1568e1	-0.0022798108
79	0x3be8fb91	0.007110067
80	0x3c27d221	0.01024297
81	0xbc11c6a2	-0.008897455
82	0xbc60d9bc	-0.013723787
83	0x3bef976b	0.0073117516
84	0xbc34ea58	-0.0110422
85	0xbb5bc3a1	-0.0033533352
86	0x3ce1f369	0.027581887
87	0x3cb2282e	0.021747675
88	0xbc76c5d4	-0.015061814
89	0xbcd298d3	-0.025707638
90	0xbc99cf9d	-0.018775756
91	0x3d24f343	0.040271055
92	0x3d13640f	0.035984095
93	0x3cfb5548	0.030680314
94	0xbc9e5be8	-0.019330934
95	0xbb2fd3a3	-0.0026829026
96	0x3c125109	0.008930453
97	0xbbf0d255	-0.0073492923
98	0x3d04d7a6	0.03243222
99	0x3c27ab92	0.010233777
100	0xbc62d85c	-0.013845529
101	0xbd547d04	-0.051877037
102	0x3abb9e8d	0.001431422
103	0x3966d433	0.0002201356
104	0x3ca00d38	0.019537553
105	0xbbef0554	-0.0072943363
106	0x3cb2f810	0.021846801
107	0x3ab25a49	0.0013607229
108	0x3c6ee526	0.014581
109	0xbc804adb	-0.015660694
110	0x3b128dbc	0.0022362312
111	0xbbe26672	-0.006909185
112	0xbbb88a90	-0.0056317523
113	0xbc4fcc30	-0.012682959
114	0xbb6250f1	-0.0034533108
115	0x3c485552	0.012227373
116	0x3ce55ef9	0.027999388
117	0x3a383475	0.00070268597
118	0xbbdf6fca	-0.006818746
119	0xbcd5603b	-0.026046863
120	0xbcc58448	-0.024110928
121	0xbc97bed5	-0.018523613
122	0xbb97cdda	-0.0046326937
123	0xbc11dd0d	-0.0089028
124	0x3ba2405c	0.00495152
125	0xbb96b036	-0.0045986427
126	0x3b929b4e	0.00447408
127	0xbbfedac1	-0.0077775423
128	0x3d0ee962	0.03489054
129	0xbc52c0e1	-0.012863369
130	0xbb029d31	-0.001993012
131	0x3c14b421	0.009076149
132	0x3bdea083	0.006794037
133	0xbc3b00ff	-0.011413812
134	0xbcad4d9f	-0.021155177
135	0x3cb25670	0.021769732
136	0x3c236601	0.00997305
137	0x3cd41be1	0.0258922
138	0x3cbbeea2	0.022940937
139	0x3cabef82	0.02098823
140	0x3bca1f2d	0.006168267
141	0xbb4d20d9	-0.0031300096
142	0xbc8f6399	-0.017503547
143	0x3b537b7c	0.0032269647
144	0x3ccf7387	0.025323642
145	0x3c816b69	0.015798287
146	0x3cc4206c	0.023941241
147	0x3cc38f32	0.023871992
148	0x3c7c316c	0.0153926425
149	0xbcd57783	-0.026057964
150	0xbcc72b2b	-0.024312576
151	0xbc473cb3	-0.012160468
152	0xbcbdaebc	-0.023154609
153	0xbc8e672e	-0.017383184
154	0xbc8430fd	-0.01613664
155	0x3cc21701	0.02369261
156	0xbae847c1	-0.001772158
157	0x3cd03502	0.025415901
158	0xbcb05239	-0.021523582
159	0xbcd6bda3	-0.026213473
160	0xbbb7ee8e	-0.0056131547
161	0xbc4c90a7	-0.01248566
162	0xbd052a64	-0.03251113
163	0xbd303e0d	-0.043027926
164	0xbc195ae0	-0.009360045
165	0xbcbcf978	-0.023068175
166	0xbbf0aeb3	-0.0073450445
167	0x3c960684	0.018313654
168	0xbc385b56	-0.011252245
169	0x3caa1f6a	0.020766933
170	0xbcaa17f6	-0.020763379
171	0xbc1c2c8d	-0.009532106
172	0x3bdab07a	0.0066738697
173	0x3c395f73	0.011314261
174	0xbca49044	-0.020088322
175	0xbc8ab7b2	-0.016933296
176	0xbc476293	-0.012169498
177	0xbc80f453	-0.015741503
178	0xbbf45004	-0.0074558277
179	0xbbc2865f	-0.0059364284
180	0x3bcffe81	0.006347478
181	0xbc028435	-0.007966091
182	0xbca7fed9	-0.020507263
183	0xbbec1ac7	-0.0072053405
184	0xbc947c60	-0.018125713
185	0x3b565258	0.003270289
186	0x3bd1b4c6	0.0063997237
187	0x3c5af089	0.013363012
188	0x3b3b2eef	0.002856191
189	0xbc109ae8	-0.008825995
190	0xbbeeeccc	-0.007291412
191	0xbca5ecbd	-0.020254487
192	0x3c55f848	0.013059683
193	0xbc8b6cd8	-0.017019674
194	0x3ca20b8d	0.019780898
195	0xbccde52a	-0.025133688
196	0xbb49a8a2	-0.003077068
197	0x3ac7a526	0.0015231713
198	0x3cb047e3	0.021518653
199	0x3c279a67	0.0102296835
200	0x3b4f4e59	0.0031632392
201	0x3c5dc73c	0.013536271
202	0x3cdcdc28	0.026960447
203	0x3c342743	0.010995689
204	0x3c81269f	0.015765486
205	0xbc71ab4f	-0.014750316
206	0x3c318871	0.010835753
207	0x3d426dd6	0.04746803
208	0x3b292398	0.002580857
209	0xbb848d61	-0.004045174
210	0xbca840d9	-0.020538734
211	0xbbf6cdfa	-0.0075318785
212	0x3a49131a	0.0007670388
213	0x3bb49fc0	0.0055122077
214	0x3c85f040	0.016349912
215	0xbc990697	-0.0186799
216	0x3c43147e	0.011906741
217	0x3c25e647	0.010125703
218	0x3a3f2592	0.000729167
219	0x3c57291e	0.013132362
220	0x3c049018	0.008090995
221	0xbc601f19	-0.013679289
222	0xbcffe10a	-0.031235237
223	0x3c2c91c5	0.010532801
224	0xbc8bbfb1	-0.017059179
225	0x3cb649b1	0.022251936
226	0x3cb8c3b9	0.022554265
227	0xbcbcc770	-0.023044318
228	0xbcad4e58	-0.021155521
229	0xbc3cf306	-0.011532551
230	0x3b76d6c9	0.0037664643
231	0x3cc5286a	0.024067122
232	0xba2e6997	-0.00066533074
233	0xbca99bba	-0.020704139
234	0x3ab4304a	0.0013747301
235	0xbc2e4382	-0.010636212
236	0x3bdf6ccf	0.006818391
237	0x3c611154	0.0137370415
238	0x3b89e23f	0.004207879
239	0xbc6a5d15	-0.014304419
240	0x3c86fcc7	0.016477956
241	0x3c5d61a8	0.013512053
242	0x3c43b8d9	0.011945927
243	0x3bdbec48	0.0067115165
244	0xbbfaeebc	-0.007657854
245	0x3bfd0ca0	0.0077224523
246	0x3c399267	0.011326409
247	0xbba5e5b1	-0.0050627817
248	0x3c6a0db1	0.014285491
249	0x3be232ea	0.006903042
250	0xbcac54bf	-0.021036504
251	0xbc310a84	-0.01080573
252	0xbc9a5965	-0.018841455
253	0xb7430f8c	-1.16265255e-05
254	0xbb394285	-0.0028268408
255	0x3c267a33	0.0101609705

digit_rec.fc1.bias f4 [100]
0	0xbbf4a2b9	-0.007465687
1	0xbb3415d0	-0.0027478822
2	0x3f3238f8	0.6961818
3	0x3efcb50f	0.49356887
4	0xbc26988a	-0.010168204
5	0xbc52fc21	-0.012877495
6	0xbc192928	-0.009348191
7	0xbae03d01	-0.0017108024
8	0x3e42b430	0.19014049
9	0x3f0a0578	0.53914595
10	0x3efa3d20	0.4887476
11	0xbd086436	-0.033298694
12	0xbce819b5	-0.02833257
13	0xbba46512	-0.0050169313
14	0xbcb8b6c5	-0.022548089
15	0x3f2bf29c	0.6716707
16	0xbb15a25a	-0.0022832365
17	0x3f32c7b7	0.6983599
18	0xbb1aa933	-0.0023599386
19	0xbb9d4755	-0.004799763
20	0xbab577d3	-0.0013844915
21	0x3f08e3ad	0.53472406
22	0xbc951a85	-0.018201122
23	0xbca01ffc	-0.019546501
24	0x3f049e1e	0.5180377
25	0xbc932aee	-0.017964806
26	0xbb7b460a	-0.0038341307
27	0xbc118ce9	-0.008883693
28	0xbd278233	-0.040895652
29	0xbbb72734	-0.00558939
30	0x3ed82541	0.42215922
31	0xbb303af6	-0.0026890612
32	0xbcb14d2b	-0.021643242
33	0xbc9e7d64	-0.0193469
34	0xbbd36ddb	-0.006452305
35	0xbcb68fc3	-0.022285348
36	0xbae0a5e4	-0.0017139283
37	0xbb6b3323	-0.0035888634
38	0x3f10cbee	0.5656117
39	0xbcbcb035	-0.02303324
40	0xbc808cca	-0.015692133
41	0x3f0afe39	0.54294163
42	0xbd07fb02	-0.033198364
43	0xbcbb3615	-0.022852937
44	0x3f084b1f	0.53239626
45	0x3f563010	0.8366709
46	0x3f081b2d	0.53166467
47	0xbc554106	-0.013015991
48	0xbcc88284	-0.024476297
49	0xbbb92f45	-0.005651387
50	0xbc9750f8	-0.018471226
51	0x3f03be58	0.51462317
52	0xbaf00991	-0.0018313398
53	0xbc81065f	-0.015750108
54	0xbbaae810	-0.0052156523
55	0xbce546b8	-0.027987823
56	0x3f0375a5	0.51351386
57	0x3ec16fe2	0.37780672
58	0xbc1d5564	-0.009602878
59	0xba99d4f0	-0.0011736434
60	0x3ec72cf8	0.38901496
61	0x3eede8fc	0.46466815
62	0x3f22b7e5	0.6356185
63	0x3f088d20	0.5334034
64	0xbb47161a	-0.0030378164
65	0x3f026755	0.5093892
66	0xbca0b771	-0.019618722
67	0x3f065991	0.5248042
68	0xbbaf79b8	-0.005355086
69	0xbd0fe0d3	-0.03512652
70	0x3f0049a5	0.5011237
71	0x3f15a477	0.5845408
72	0x3f0c16eb	0.5472247
73	0xbce7caaf	-0.02829489
74	0x3d314ba2	0.04328502
75	0xbcab580a	-0.020916004
76	0x3f2da0e3	0.6782362
77	0xbab4ff81	-0.0013809056
78	0xba71261a	-0.0009199098
79	0xbb33fc26	-0.0027463525
80	0xbc25b199	-0.010113143
81	0xbcb65add	-0.022260124
82	0x3f043fab	0.5165965
83	0x3f85295a	1.0403244
84	0xbc2692f2	-0.01016687
85	0xba8e9b06	-0.0010879941
86	0x3f81c41e	1.0137975
87	0xbb83840f	-0.0040135453
88	0x3f52d090	0.8234949
89	0xb9ba1e5a	-0.00035499298
90	0xbc847e07	-0.016173376
91	0x3eeda23c	0.46412838
92	0xbb7e2703	-0.0038780577
93	0xbc5b2e84	-0.013377789
94	0xbb658403	-0.0035021312
95	0x3eebd0ff	0.4605789
96	0x3f19f11a	0.60133517
97	0xb82947c7	-4.0359588e-05
98	0xbc0a82d4	-0.008454043
99	0xbc09b114	-0.008404035

digit_rec.fc2.weight f4 [10, 100]
0	0xbdebf9cf	-0.115222566
1	0x3c789f58	0.015174709
2	0x3e6f1c52	0.23350647
3	0x3e813a7a	0.25239927
4	0xbe0bc7ba	-0.13650408
5	0xbb63b90e	-0.0034747752
6	0xbdf27eef	-0.11840617
7	0xbd8bd341	-0.06827403
8	0x3b976241	0.004619867
9	0x3e4b022f	0.19825052
10	0x3de4c7cb	0.1117092
11	0x3d444483	0.0479169
12	0xbd4f665f	-0.050634738
13	0xbd53db81	-0.051723007
14	0x3cdc18a9	0.026867228
15	0x3e526813	0.20547514
16	0xbd0d8faa	-0.034560837
17	0x3ea1d926	0.31610984
18	0xbe0a881d	-0.13528486
19	0xbc832cdc	-0.016012602
20	0xbcaeea66	-0.021352004
21	0x3e4df792	0.20113972
22	0xbe07103f	-0.13189791
23	0x3d4fabc7	0.05070093
24	0x3e872bee	0.26400703
25	0xbc84deb3	-0.016219473
26	0xbd3bc423	-0.045841347
27	0xbdbf29e9	-0.093341656
28	0xbdd4ad7a	-0.103846505
29	0xbdc5d23c	-0.0965924
30	0x3e2b7e01	0.16747285
31	0xbe78c870	-0.24295211
32	0x3d3c2b17	0.04593953
33	0xbdbfb573	-0.093607806
34	0xbdceccf1	-0.10097683
35	0xbd8f5faa	-0.07000668
36	0xbcc62837	-0.024189098
37	0xbdfa1a19	-0.12212009
38	0x3e8dc995	0.27692857
39	0xbde3595d	-0.11101029
40	0xbe2b052b	-0.1670119
41	0x3e32835c	0.17432922
42	0xbe2a2e2d	-0.16619177
43	0xbd04e1f1	-0.032442037
44	0x3e708f2c	0.23492116
45	0x3ee51291	0.44740728
46	0x3e43801a	0.19091836
47	0xbd8e7056	-0.0695502
48	0xbddb03f0	-0.106941104
49	0xbde52a15	-0.11189667
50	0xbdfb924b	-0.122837625
51	0x3e874eab	0.26427206
52	0x3d0adeb7	0.033903804
53	0xbd97ae47	-0.07406288
54	0x3d09e9e1	0.03367031
55	0xbdd43e33	-0.10363426
56	0x3e35d890	0.17758393
57	0x3dfd2304	0.12360194
58	0xbd1ff033	-0.03904743
59	0xbdbb13b5	-0.09134618
60	0x3e7aa4cf	0.24476932
61	0x3e22648c	0.15858668
62	0x3e16d1df	0.14728497
63	0x3e96ed5b	0.29477963
64	0xbd5ccc36	-0.05390569
65	0x3e42c890	0.19021821
66	0x3c944626	0.018099856
67	0x3e65f847	0.22457992
68	0xbd803520	-0.06260133
69	0x3c7dad08	0.015483148
70	0x3e2ff06a	0.17181554
71	0x3e836c33	0.25668487
72	0x3e5ddf10	0.21667123
73	0xbe2ae8bb	-0.16690342
74	0xbb967bed	-0.00459241
75	0x3c9dd61e	0.019267138
76	0x3e818db3	0.2530342
77	0xbdbce5db	-0.09223529
78	0xbdd353c4	-0.103187114
79	0xbdd6d58f	-0.10489952
80	0x3d25bae1	0.040461425
81	0x3ce6424c	0.028107785
82	0x3e3b3f5d	0.1828589
83	0x3f986512	1.1905844
84	0xbd84d5ab	-0.064860664
85	0xbdaba1a8	-0.08380443
86	0x3f25333d	0.6453131
87	0xbe2d98e8	-0.1695286
88	0x3eaa8ca6	0.3331043
89	0x3dadb227	0.084812455
90	0xbb30e166	-0.0026989817
91	0x3e559336	0.20856938
92	0xbe159c35	-0.1461037
93	0x3d3722ad	0.044710804
94	0xbcac06a7	-0.020999266
95	0x3df4b405	0.119483985
96	0x3ea9a241	0.33131602
97	0xbe086036	-0.13317952
98	0xbe13c529	-0.1443068
99	0xbdf9732c	-0.121801704
100	0xbd331e99	-0.043730352
101	0x3c6bb548	0.014386483
102	0x3ca5fdb9	0.020262586
103	0x3d3d65b4	0.04623957
104	0x3d5a0014	0.05322273
105	0xbda13e1a	-0.07873173
106	0xbd0c5698	-0.03426227
107	0xbb8fd27b	-0.004389105
108	0xbdf6e035	-0.12054483
109	0x3d86c860	0.06581187
110	0xbe073554	-0.13203937
111	0xbda60f2d	-0.08108363
112	0x3ca7996b	0.020458898
113	0x3dc93919	0.09825344
114	0x3dc70bca	0.097190455
115	0xbe64411c	-0.22290462
116	0xbb4524e8	-0.0030081812
117	0x3c91ceec	0.017798863
118	0x3d75eeb2	0.06004209
119	0xbd85dddb	-0.06536456
120	0xbd304a97	-0.043039884
121	0xbdde5c6d	-0.108574726
122	0xbd3ac6b0	-0.04559964
123	0x3e09aa5d	0.13443895
124	0xbe27e13a	-0.16394511
125	0xbd25842b	-0.04040925
126	0x3d94b7cb	0.07261618
127	0x3d2c46e0	0.04205978
128	0xbd80a4ac	-0.06281409
129	0x3d1eda96	0.03878268
130	0xbe4346ce	-0.19069979
131	0x3d56cf1f	0.05244362
132	0x3d9ac70c	0.075574964
133	0xbd434b14	-0.047679022
134	0x3cfdc2a8	0.030976608
135	0x3d8153b7	0.063147955
136	0x3d9fa2dd	0.077947356
137	0x3d49e06f	0.049286302
138	0xbdca4cc1	-0.09877921
139	0x3d9bd68d	0.07609282
140	0x3cdab760	0.026698768
141	0xbde518a6	-0.11186342
142	0x3d0b5542	0.034016855
143	0xbc493dcf	-0.012282803
144	0xbd650f48	-0.055922776
145	0xbed8e75f	-0.42364022
146	0xbbbb9b6e	-0.005725316
147	0xbda56df7	-0.08077615
148	0x3da79ae5	0.08183841
149	0xbd7aa86a	-0.06119577
150	0x3d2e5731	0.04256362
151	0xbd70ef5a	-0.058822013
152	0x3df12e9e	0.1177647
153	0xbdcb6380	-0.099310875
154	0xbc0c3272	-0.008556949
155	0xbc00ec5b	-0.007868852
156	0x3cf7cb0f	0.030248193
157	0xbda92826	-0.08259611
158	0x3c7407cd	0.014894438
159	0x3dd85d9a	0.10564728
160	0x3da6386f	0.081162326
161	0xbd3912c1	-0.0451839
162	0xbe210f5d	-0.15728517
163	0xbd651b89	-0.055934463
164	0x3d82a823	0.06379726
165	0xbd9c335d	-0.07626984
166	0x3dba2c1e	0.09090446
167	0xbdfc4137	-0.12317126
168	0x3bff9bef	0.007800571
169	0xbd7d0271	-0.061769906
170	0x3d2559e3	0.040368926
171	0xbe2e066c	-0.16994637
172	0xbdd3a343	-0.10333874
173	0xbdb735d2	-0.08945812
174	0xbd39d51b	-0.04536925
175	0x3b9041bf	0.004402369
176	0xbe59badc	-0.21262687
177	0x3d88bd2a	0.06676705
178	0x3d5d49a2	0.0540253
179	0x3d942f7f	0.07235622
180	0x3d7f0dcc	0.062269017
181	0xbd2c4daf	-0.042066272
182	0xbd906b71	-0.07051743
183	0xbdd62a50	-0.10457289
184	0x3c13b235	0.009014656
185	0x3d9b791f	0.075914614
186	0xbd1b711e	-0.037949674
187	0x3cb11da8	0.021620587
188	0xbe4c36bd	-0.19942756
189	0x3d4b98fc	0.049706444
190	0xbd3e39db	-0.046441894
191	0x3c4ac55e	0.012376158
192	0xbc959cf7	-0.018263323
193	0xbda03e26	-0.07824354
194	0xbd423ff3	-0.047424268
195	0xbacbe894	-0.0015556985
196	0xbe43ecd9	-0.19133319
197	0x3d4cc3d0	0.04999143
198	0x3bc683e3	0.0060582026
199	0x3c29c98e	0.010362996
200	0x3d8972e9	0.067113705
201	0xbd95e8ab	-0.073197685
202	0xbce93566	-0.028467845
203	0xbe50f79b	-0.20406954
204	0xbc2372c0	-0.009976089
205	0x3c4b333f	0.012402355
206	0x3d50bdb8	0.05096218
207	0x3d9e077e	0.07716273
208	0xbd882ea3	-0.0664952
209	0xbdb4d2e8	-0.0882929
210	0xbe152006	-0.14562997
211	0xbcad044f	-0.021120219
212	0x3dd5c00f	0.10437023
213	0x3dc559bc	0.09636256
214	0x3cc6a718	0.024249598
215	0xbe2cee88	-0.16887867
216	0x3de514c8	0.11185604
217	0xbd2a93f5	-0.04164501
218	0xbd9edf81	-0.07757474
219	0x3d82e6e3	0.063916944
220	0xbd8f3b2d	-0.06993709
221	0xbe158f16	-0.14605364
222	0xbd490888	-0.0490804
223	0x3d75ea1e	0.060037725
224	0xbd06032d	-0.032717872
225	0x3d8d450b	0.068979345
226	0xbcf492af	-0.0298551
227	0x3d8dfd14	0.069330364
228	0x3c66df3c	0.014091309
229	0x3d314b51	0.043284718
230	0x3d740c78	0.059582204
231	0x3d616ac6	0.055033468
232	0x3cf852dd	0.03031295
233	0xbd1f0b89	-0.03882936
234	0x3d130d70	0.035901487
235	0x3d7f0f44	0.062270418
236	0x3da0d483	0.078530334
237	0x3d832e55	0.064053215
238	0xbe1a8518	-0.15089834
239	0xbc899c2a	-0.016798098
240	0x3c0b4166	0.008499479
241	0xbe265a85	-0.16245468
242	0xbc896bbe	-0.016775008
243	0xbd8f356b	-0.069926105
244	0xbe006f87	-0.12542544
245	0x3b4f38da	0.003161958
246	0xbe305188	-0.17218602
247	0xbd2a06dc	-0.041510448
248	0x3c8a77b8	0.01690279
249	0x3d9a2b49	0.07527787
250	0xbce3043f	-0.027711986
251	0xbde84f63	-0.11343267
252	0xbd640e49	-0.055677686
253	0x3cb78995	0.022404471
254	0xbcfcd31a	-0.03086238
255	0x3d31aac3	0.04337574

digit_rec.fc2.bias f4 [10]
0	0x3ef3df33	0.47631225
1	0xbf08bf3f	-0.5341682
2	0xbe7be2f4	-0.24598294
3	0xbebd3859	-0.36957052
4	0xbec94fbc	-0.39318645
5	0xbec47605	-0.38371292
6	0xbea1ba00	-0.3158722
7	0xbeb3b2a3	-0.35097227
8	0xbe770a93	-0.24125127
9	0xbebdf1cf	-0.37098548
