outputs/perception/multiple_sol/checkpoint_last.pth (torch, 591247 bytes, 8 tensors)

digit_rec.conv1.weight f4 [20, 1, 3, 3]
00000000: 7b85 1a3e 1ad6 2fbe 9583 a5bd 6fcb 0b3e
00000010: e2c5 a8be e4e2 403e d4c5 a8bd 6b91 1d3e
00000020: 620d 0f3d f999 5ebd e482 b43d 9521 3cbb
00000030: 42ff 033e b244 efbd 9960 0bbd f313 b9bc
00000040: 44d9 3c3d 1d1c c8bc b9d1 993e a496 d93d
00000050: 4a4b fbbd ea1f 44be d346 71bd ddf3 10be
00000060: 264b c9bd 3f3d 843c 277a 4b3e 2edd 3b3e
00000070: 712f a7be 225a 553e 5548 e13d fdbb a63e
00000080: 1020 773e b15a 8ebe a142 9ebe 13b4 10be
00000090: 9a95 993e 1cd5 3dbd c558 133e 5a5f 19be
000000a0: 8538 a83e 11a9 10be 058e 783e 63fd ae3b
000000b0: 7070 2ebe f485 403e f263 1bbe fc83 043e
000000c0: 4a22 9dbd 7456 553c 18ae 94be 03d4 16be
000000d0: 2bd2 593e eafc 6bbd a319 a23e 4719 813e
000000e0: 5a1f f6bc 49aa 71be b9c5 3d3e ca02 b33d
000000f0: 5a30 67be 1e5e 4c3e 6607 403e 8cc3 ab3e
00000100: cbce 17be e79f 27bd 2145 c13c cc2f 513d
00000110: 6e13 7cbe bdb4 60be a95d 543e 6aec 2cbd
00000120: 8dbe 1f3e b728 8c3c c0e5 e03d ad9a 813d
00000130: dd55 ee3d 29d4 223e 5989 a4be 7169 253e
00000140: a888 7bbe c970 81be ebbc 193d aff4 ccbb
00000150: 90ad 4c3e 057c 1ebe 24d0 8ebe fe04 863e
00000160: e6e3 aebb 8a5a 5b3e eb5e fc3d 1610 85be
00000170: 7d5e 0b3e b4c6 fa3d f800 34be 37e3 c9bd
00000180: 8d4e 163e d71d a73d c373 16be ba2e d0bd
00000190: f790 9e3e 6e92 54bd 3cbe 413e bada 143e
000001a0: 82d5 53be 0a7b 91be bcb0 a03e fdc8 a93c
000001b0: 69c3 6d3e 2d40 923d 2f05 e03d 6d96 813e
000001c0: d80b a43e 0324 58be 5278 5a3d 71d9 843e
000001d0: 6482 803e 42d8 623e 6a31 5fbe a576 5bbe
000001e0: 6afb 3bbe 78d9 983d 1003 bb3e 19de 37be
000001f0: 728a 573e 66c6 24be 9977 a8be 7180 97bd
00000200: 218c 403e c678 9a3e 3b6e 56be 1b74 8d3d
00000210: 1e24 923e 5d3e 5f3e 833f 533e 5062 813e
00000220: 05aa 833e b631 f43d 9b34 67be ace1 5cbe
00000230: 49bf 07be 51d3 97bc 0d62 21be 835a 0d3e
00000240: 1635 af3d 2d29 b8bd 34f9 e83d a5f7 b53d
00000250: a0e3 3f3e 3e09 523e ba09 fbbd 3d5c 9e3e
00000260: 5ee5 48bd 27a7 a33d 1750 8dbe 0f75 e0bd
00000270: 3a52 89bd dd5e 9fbd 3f57 9b3e 5f55 34bd
00000280: 7122 50be bb44 333e fcd2 293e b225 823e
00000290: e267 0ebe bdb3 183e 41fd 8fbd da73 b5bd
000002a0: 6ffc 33be 1fe2 97bd 7350 95bd 8d2b 083e
000002b0: 8a2f 6c3d 4da6 9d3d aede a33e 6f21 9d3e
000002c0: bca8 5a3e 7233 55bc 1640 7fbe a530 6a3e
0.15089981 -0.17171517 -0.08081738 0.13651823 -0.32963473 0.18836552 -0.08240858 0.15387504
0.034924872 -0.05434606 0.08814028 -0.002870654 0.12890342 -0.116830245 -0.03402767 -0.02259252
0.04610564 -0.024427468 0.30042818 0.106244355 -0.122702196 -0.19152799 -0.058905434 -0.14155526
-0.098287866 0.016142486 0.19870816 0.18346092 -0.32653382 0.20835164 0.11000124 0.325653
0.24133325 -0.27803567 -0.3091021 -0.14131193 0.2999695 -0.046345815 0.14389332 -0.1497778
0.3285562 -0.14126994 0.24272926 0.0053402646 -0.17035079 0.18801099 -0.15174845 0.12940973
-0.07672556 0.0130211 -0.29039073 -0.14729314 0.21271579 -0.057614245 0.31660184 0.25214598
-0.030044246 -0.23600115 0.18532456 0.08740766 -0.22577038 0.19957778 0.18752822 0.33547628
-0.14824979 -0.04092398 0.023592534 0.051070973 -0.24616787 -0.21943946 0.20738854 -0.04221765
0.15600033 0.017109258 0.10981321 0.0632833 0.11637471 0.15901245 -0.32136038 0.16153504
-0.24563849 -0.2528136 0.03753368 -0.0062547545 0.19988084 -0.15476997 -0.27893174 0.26175684
-0.005337226 0.21421257 0.12322792 -0.25988835 0.13610263 0.12244931 -0.17578495 -0.09857791
0.14678402 0.081599884 -0.14692597 -0.101651624 0.30969974 -0.05189746 0.18920225 0.14536563
-0.20686916 -0.28414184 0.31384838 0.020725721 0.23219074 0.07141147 0.10938489 0.25310078
0.32040286 -0.21107487 0.053337403 0.25947145 0.2509948 0.22152808 -0.21796194 -0.21431978
-0.18357626 0.07463354 0.36525774 -0.17955817 0.21048906 -0.16091308 -0.32903746 -0.07397545
0.18803455 0.30170268 -0.20940487 0.06906911 0.2854318 0.21801133 0.20629697 0.2527032
0.25715652 0.11923544 -0.22578661 -0.21570462 -0.13256563 -0.01853338 -0.1576006 0.13804059
0.08555047 -0.08992229 0.11375657 0.08885125 0.18739176 0.20511338 -0.122577146 0.30929747
-0.049046867 0.07990866 -0.27600166 -0.10959827 -0.067051366 -0.077817656 0.3034 -0.04402673
-0.20325638 0.17506687 0.1658439 0.25419384 -0.13906816 0.14912315 -0.07030726 -0.088599876
-0.17576765 -0.07416176 -0.07290735 0.13297863 0.057662524 0.07697735 0.3200583 0.3068957
0.2135343 -0.013012754 -0.2492679 0.22870119

digit_rec.conv1.bias f4 [20]
00000000: 77e8 bbbd 81b6 0bbd 5535 91be babb 8cbd
00000010: c4b9 5bbe 4fea a03e 311f 9abe caae 82be
00000020: 1334 78bc 87d6 3dbe f708 f73d e6ab f3bd
00000030: dcbc 15be 0d84 dd3c c26e 793e 3054 66be
00000040: 0944 143e 65f2 5e3e 0b8f aa3e 1741 79be
-0.091751985 -0.034109596 -0.28361002 -0.068717435 -0.21457583 0.31428763 -0.30101922 -0.25523978
-0.015149134 -0.18538867 0.12062257 -0.118980214 -0.14622825 0.027040506 0.24358657 -0.22493052
0.14479078 0.21772154 0.33312258 -0.24341236

digit_rec.conv2.weight f4 [10, 20, 3, 3]
00000000: a39c 313d 9067 69bc 7778 b43d bf60 b9bc
00000010: cd99 063d d079 dcbb 6ccd edbc cc7e 60bc
00000020: fa5a e93b f96f d93c 3cb9 833b c6e7 e03b
00000030: 65a4 84bd 474d 183d 04e6 6f3d 2f73 823d
00000040: 9571 6e3d 8888 22bd 1e6f f6bb 289d 873d
00000050: 9562 8dbd 79e5 703d cc6b a3bd fbc9 b7bd
00000060: acec 1d3d 93ca 8fbd 402f 06bd 8a86 b23c
00000070: 5e32 f73c e971 6e3d 7187 4ebc ea6f 2c3c
00000080: f6f0 fb3d 12ed 84bc f2d1 95bc 8fc6 ab3d
00000090: a346 2abd e5f4 103d 4a75 5b3c f44f 53bd
000000a0: b812 43bd e23d 9cbc c3b0 313d 54be f03b
000000b0: 41eb 21bd 1fd1 903c 8a49 85bd dfe8 81bd
000000c0: 3b75 25bd 482f 963d 86ce 443d 79e9 a7bb
000000d0: 2b92 ad3c a45e 493d 6e5d b03c 94b6 4dbd
000000e0: 4b7d 1e3d 72cf 4f3d 2056 bebc 3cda 4bbc
000000f0: bde4 873d c559 183d dde9 72bd 6bca e13d
00000100: 01be 253d bf38 27bd 22cc 5f3d 2375 38bd
00000110: 9120 4d3d ceb7 14bc 9173 883c 10e6 843c
00000120: 49ee 153c 2f55 b53c 5737 61bd 18f0 8dbc
00000130: 2752 3fbd 2dac 083d a22d 14bd 950f 4cbc
00000140: 3b87 073d 9e45 363b 7b4c 163d 4f7e 8fbb
00000150: 361d 51bd ca2e 62bd e273 94bd dc0b 613d
00000160: a46c ea3a f0fa 453c 3166 b33c b82c 31bd
00000170: 35d2 353d 0738 6b3d fbc4 ae3c 4895 e8bc
00000180: a515 9abb e996 df3c b874 a83b 85ea 11bd
00000190: 4655 9e3b 7f72 f3bc 2a31 ad3c e5ae 91bc
000001a0: 7ca5 9a3c bc64 b1bc c560 32bd b709 633d
000001b0: 49a3 ce3c 64c8 833d 6ad9 7bbc 3fb9 81bc
000001c0: e7c3 97bd f280 1bbd 6caa 543d 004b 9fbd
000001d0: 9d0a 53bd aff9 6f3d da1a bc3d d5ad ae3d
000001e0: a3f5 9b3c 0145 35bb 2900 1bbc 1c93 53bd
000001f0: 5bba 14bc a27d e4bc c6f3 4cbd ddd9 c43c
00000200: 2152 2abd e1e2 cabc 0034 f03c 8360 923c
00000210: b277 793d d289 73bd 61d6 adbc 313a 12bd
00000220: 0a46 adbd 45ac c8bd 7f05 d9ba 5347 0bbd
00000230: 9683 a5bd 040f 48bd 69c5 87bd 7cd4 c93d
00000240: 1efd 16bc 9fb4 23bc 827c 8abc 30df f8bc
00000250: a881 7bbd e234 29bd 5317 433d eb4b 0d3a
00000260: c519 3bbd 9057 e0bc 1aec c73d 44c1 ce3d
00000270: f763 923d 331b eb3c a320 6b3d e956 90bc
00000280: 995f e0bc 1336 d3bd 12bc 623d bc89 51bb
00000290: 482f b0bc 3a24 ab3c 1a37 abbd 10fb 8ebd
000002a0: 014b 4a3c cdee 49bd c2d4 aabd aec4 173d
000002b0: d3bf 763b b965 97bc ce48 0c3d fd4f b43c
000002c0: 6282 15bc eb2f 853d 122a d93c dac9 32bc
000002d0: a2bc 083d a523 38bd 9bdc 053d 55a5 c73c
000002e0: 8944 68bd 0ae8 083d 44e6 3e3d b1de 9e3c
000002f0: 9643 9dbb 4409 453b 07a8 f03c 65f1 4c3d
00000300: d1d0 e73c 4001 2abd c0d4 8e3d 1543 81bb
00000310: 1ddb 5a3d 93a7 173b 3f47 873d c73c ce3c
00000320: 355e 71bd 6cd5 8b3d b1e7 8cbc 0fcf cfbd
00000330: c178 0b3d a353 f3bd 75c3 a4bd b5c9 90bd
00000340: 1324 de3c 1da6 9dbc 7cf2 c5bc bf86 443c
00000350: 9381 bf3c 15bd fabc 49ad 053c 2a1f 1e3d
00000360: d179 77bd cdd8 303d 30bb 26bd 8744 0abd
00000370: 8630 84bd 242d 7a3d f80e 5d3c 3d43 5c3d
00000380: 6e52 16ba 76c5 013d 04ec 38bd 577e a4bd
00000390: c6e4 2e3d 11e7 1b3b 7e2d 46bc e239 22bd
000003a0: b4bb f3bb 2575 743c 229b 493c 0533 81bd
000003b0: 62ca 263d d060 c73b 6a62 3f3d 8993 683d
000003c0: 9423 52bd ee0f 913d 9ec0 87bd 2498 703d
000003d0: 1153 913b 20ab 213d faf8 d23c 6828 a13d
000003e0: 6f17 21bd 075f 33bc f238 943c 1bef 023d
000003f0: 922e 3e3d 0ec2 8bbc caaf 7f3d 2c5b 0d3d
0.04336227 -0.014245883 0.08812039 -0.02262914 0.03286152 -0.0067283884 -0.029028617 -0.013702106
0.007121441 0.02654265 0.0040198844 0.006863567 -0.06476668 0.037183072 0.05856897 0.06369626
0.05821379 -0.039680988 -0.0075205704 0.06621772 -0.06903569 0.058812592 -0.07979545 -0.089740716
0.038555786 -0.0702106 -0.032759905 0.021792669 0.030175384 0.058214102 -0.012605534 0.010524729
0.12301819 -0.016226325 -0.018288586 0.083874814 -0.04157127 0.0353898 0.013394663 -0.05158992
-0.047625273 -0.019072477 0.043381464 0.0073469076 -0.039530996 0.017677842 -0.06508167 -0.06343245
-0.040395003 0.07333237 0.04804852 -0.0051242677 0.021187862 0.049162522 0.021528926 -0.05022295
0.038693707 0.050734945 -0.023234427 -0.012442168 0.06635425 0.037194986 -0.05930506 0.11024936
0.040464405 -0.0408256 0.054638036 -0.045033585 0.050079886 -0.009077026 0.016656669 0.016222984
0.00915105 0.022135345 -0.054984417 -0.0173264 -0.046709206 0.033367325 -0.03617633 -0.012454887
0.03308795 0.0027812491 0.03669403 -0.004379071 -0.05105325 -0.055220403 -0.072486654 0.05494295
0.0017885161 0.012083754 0.021899315 -0.043255538 0.044389922 0.05742648 0.021334162 -0.028391495
-0.0047022873 0.02729364 0.005140867 -0.035624046 0.0048319427 -0.029717682 0.021141607 -0.017783592
0.018877737 -0.02165448 -0.043549318 0.055429187 0.025224345 0.06434706 -0.01537166 -0.015835403
-0.07410412 -0.03796477 0.05192034 -0.07777977 -0.051523793 0.058587726 0.09184809 0.085292496
0.019038027 -0.0027659538 -0.009460487 -0.051653966 -0.009077634 -0.027891938 -0.050037168 0.024029667
-0.04158223 -0.024766387 0.02932167 0.017868286 0.060905166 -0.059457608 -0.021220388 -0.035700027
-0.084606245 -0.09798483 -0.0016557424 -0.034003567 -0.08081739 -0.048842445 -0.0662945 0.09854981
-0.009215621 -0.009991794 -0.016905073 -0.030379862 -0.061402947 -0.0413102 0.047629666 0.0005390036
-0.045678873 -0.027385503 0.0976183 0.10095456 0.07147973 0.028699493 0.05740417 -0.017619567
-0.027389335 -0.10313048 0.05535514 -0.0031972965 -0.02150692 0.020891298 -0.08360119 -0.0698148
0.012346984 -0.049300004 -0.083413616 0.037052803 0.0037650957 -0.018481122 0.03424912 0.022010798
-0.009125324 0.0650328 0.026509319 -0.010912383 0.03338302 -0.04495587 0.03268109 0.024370829
-0.056705985 0.033424415 0.046606317 0.019393297 -0.0047993166 0.0030065337 0.029376997 0.0500349
0.028297814 -0.0415051 0.069741726 -0.0039447644 0.05343162 0.0023140654 0.06605386 0.025175465
-0.058927733 0.06827816 -0.017200323 -0.10146915 0.034050707 -0.11881187 -0.08045093 -0.070697226
0.02711681 -0.019244248 -0.024163477 0.011995017 0.023377215 -0.03060774 0.00815899 0.03860394
-0.060418908 0.043175507 -0.04070586 -0.03375676 -0.064545676 0.061078206 0.013492338 0.05377506
-0.0005734329 0.031682454 -0.045146957 -0.0803191 0.042698644 0.002378885 -0.012095807 -0.039605983
-0.0074381474 0.014920508 0.012305053 -0.06308559 0.04072035 0.006084539 0.046724714 0.056781325
-0.05130346 0.070831165 -0.06628536 0.058738843 0.004434951 0.03946984 0.025753487 0.07869035
-0.03932899 -0.010947949 0.01809356 0.03196631 0.04643113 -0.017060306 0.062423505 0.034510776

digit_rec.conv2.bias f4 [10]
00000000: 5ab6 63bc 9f98 173b 05fd 0d3d 8f38 283d
00000010: 11ac f7bb 5179 803d 42f0 1abd 898e 163b
00000020: 2ec0 5bbd ef73 1f3c
-0.0138984565 0.002313174 0.034665126 0.041069563 -0.0075583537 0.06273139 -0.037826784 0.0022973141
-0.053650074 0.009732231

digit_rec.fc1.weight f4 [100, 1440]
00000000: b4c1 c43c 9291 b2bc 1d49 bd3b 0dae c3bc
00000010: 38a5 b4bb c940 41bc a3cf 553a 4e2a 91bc
00000020: c377 d23b d47f cbbc ca15 b73b a47d 26bc
00000030: 9e3d 81bc 064b b33c b75e 903b 71cd 9cbc
00000040: 5f24 90bc 4b7c 53bc 038f 38bc 4957 083c
00000050: 682c cd3a e03f cb3c 2e29 26ba c506 68bc
00000060: 8085 bb3c 297c dc3b 7e2c dabb bdcf 943c
00000070: 82df 893c 13be edbc da24 9fbc 8ec9 69bc
00000080: 3d13 63bc 388d 25bc c64f 083c 5281 d0bc
00000090: 419c c2bc c60b a6bc d259 88bc 43ee 8d3c
000000a0: 2472 9d3c fd4a 5b3c 2f59 c1bb 7e6b 55bc
000000b0: daee d73c 9912 96bc 3cf6 f33b 85ee 413c
000000c0: 5458 1b3c 4a5c 003c 8c6c bbbc 2293 3aba
000000d0: d145 28bc 5746 8e3b ce9a 79bc eea9 883a
000000e0: 1291 163d 4865 fb3c 4b09 acbc 24eb b7bc
000000f0: 887e b73c 6a37 2d3a c13a abbb 9ac2 9b3c
00000100: 9c1b ccba 5890 c33c b063 0f3c fe55 0e3d
00000110: c491 8c3c a5e8 3c3c 3fac a3bc 1b16 833c
00000120: 2b8f a73b 34d6 cf3c eeeb 39bc f8bf 9a3c
00000130: 6ef2 c43c e160 d3bc f765 15bb b8fc e83b
00000140: 4ad5 273c a1c5 11bc 2ed9 60bc 6b97 ef3b
00000150: 32ea 34bc 6bc5 5bbb f4f2 e13c 2429 b23c
00000160: f0c5 76bc 2d99 d2bc 07d0 99bc 27f3 243d
00000170: 6864 133d bb55 fb3c c85b 9ebc a3d3 2fbb
00000180: 4f51 123c b4d3 f0bb e6d7 043d efad 273c
00000190: 4dd9 62bc 367d 54bd 188e bb3a 15db 6639
000001a0: 140e a03c 8c01 efbb 5af8 b23c 1e5a b23a
000001b0: 55e5 6e3c 7b4a 80bc a48e 123b ed67 e2bb
000001c0: a78b b8bb a3cb 4fbc ad4e 62bb e555 483c
000001d0: 1b60 e53c 133e 383a 2b6f dfbb 5f60 d5bc
000001e0: 4884 c5bc 1ebf 97bc 0ace 97bb 22dd 11bc
000001f0: 4445 a23b 43ab 96bb 249f 923b d1d8 febb
00000200: 97e9 0e3d 5cc0 52bc cf9f 02bb fcb3 143c
00000210: 83a0 de3b 0401 3bbc 6a4d adbc 7756 b23c
00000220: 6766 233c 291c d43c 10ef bb3c c2ef ab3c
00000230: ae1f ca3b 0f1f 4dbb e763 8fbc 7c7b 533b
00000240: 8773 cf3c 696b 813c 6c20 c43c 248f c33c
00000250: bd30 7c3c b577 d5bc 502b c7bc e33c 47bc
00000260: d7ae bdbc 7667 8ebc 2131 84bc fb16 c23c
00000270: c147 e8ba 0135 d03c 5252 b0bc d8bd d6bc
00000280: 23f0 b7bb 3f91 4cbc a92a 05bd 223e 30bd
00000290: 2e5b 19bc daf9 bcbc c2ae f0bb a006 963c
000002a0: 565b 38bc 6a1f aa3c 1118 aabc 512c 1cbc
000002b0: beb0 da3b 415e 393c b191 a4bc 8ab6 8abc
000002c0: be62 47bc 35f4 80bc a04f f4bb f483 c2bb
000002d0: 81fe cf3b e884 02bc fcfe a7bc 4a18 ecbb
000002e0: 1c7c 94bc ea54 563b 9bb6 d13b 30f1 5a3c
000002f0: 882b 3b3b 759b 10bc 5dec eebb 8cec a5bc
00000300: 4bf8 553c 296d 8bbc 750b a23c 50e5 cdbc
00000310: 10a5 49bb c298 c73a 6548 b03c 5c9a 273c
00000320: 294a 4f3b 23c8 5d3c 20dd dc3c e926 343c
00000330: a026 813c 69ab 71bc 3a88 313c ec6d 423d
00000340: cb20 293b 5791 84bb ef3f a8bc e6d2 f6bb
00000350: ffd7 483a 77a2 b43b d1f0 853c 3006 99bc
00000360: 7b14 433c d2e6 253c d228 3f3a 8f28 573c
00000370: 148f 043c 3a22 60bc 07e1 ffbc e68e 2c3c
00000380: b3c0 8bbc 144a b63c f2c3 b83c b6c7 bcbc
00000390: 584e adbc 90f2 3cbc 97cd 763b 5927 c53c
000003a0: 9257 2eba e79b a9bc b526 b43a 3044 2ebc
000003b0: bf6e df3b 9b12 613c 56e7 893b 8a5c 6abc
000003c0: c8fc 863c fe61 5d3c 25b8 433c dbed db3b
000003d0: 3bf1 fabb a10d fd3b d090 393c 1bde a5bb
000003e0: f812 6a3c 9939 e23b 3c54 acbc 680a 31bc
000003f0: 6559 9abc eccd 42b7 0543 39bb 6e79 263c
0.024018146 -0.021797929 0.005776538 -0.023886705 -0.0055128597 -0.011795231 0.00081562455 -0.017720368
0.006422968 -0.024841227 0.0055873143 -0.010161791 -0.015776452 0.02188636 0.004405822 -0.01914093
-0.017595468 -0.012908052 -0.011264565 0.008321592 0.0015653493 0.024810731 -0.0006338534 -0.01416177
0.022890806 0.006728668 -0.006658136 0.018165464 0.01683021 -0.029021299 -0.019426752 -0.014269246
-0.013859567 -0.01010447 0.008319801 -0.02545229 -0.023756148 -0.020269286 -0.016644392 0.017325526
0.019219466 0.013384578 -0.005900524 -0.013026116 0.02635901 -0.018319415 0.007445125 0.011836653
0.009481508 0.007834503 -0.022878908 -0.00071172614 -0.010270552 0.0043418813 -0.015234662 0.001042662
0.036759444 0.030687943 -0.021000525 -0.022450991 0.022399202 0.00066076836 -0.00522551 0.019013692
-0.0015572193 0.02387254 0.008751795 0.034749977 0.01715935 0.011530076 -0.019979594 0.016001752
0.0051135025 0.025370695 -0.011347754 0.018890366 0.02404138 -0.025803031 -0.0022796371 0.0071102045
0.010243723 -0.008897216 -0.013723655 0.0073117516 -0.011042165 -0.0033534418 0.02758167 0.021748133
-0.01506184 -0.025707806 -0.018775953 0.04027095 0.035984427 0.030680528 -0.019330874 -0.0026829026
0.008930518 -0.0073494557 0.03243246 0.01023434 -0.013845754 -0.051877223 0.0014309315 0.00022016124
0.019537963 -0.0072938856 0.021846939 0.0013607179 0.014581044 -0.015660515 0.0022362852 -0.0069093616
-0.005631882 -0.012682828 -0.0034531758 0.01222751 0.027999928 0.0007028293 -0.006818672 -0.02604693
-0.024110928 -0.018523749 -0.004632716 -0.00890282 0.0049521048 -0.0045980527 0.0044745374 -0.0077773114
0.034890737 -0.012863245 -0.001993168 0.009076115 0.006794037 -0.011413816 -0.021155078 0.021769745
0.009973145 0.025892334 0.022941142 0.020988349 0.0061683273 -0.003129903 -0.017503692 0.0032269647
0.025323642 0.015798287 0.023941241 0.023871966 0.0153924795 -0.026058057 -0.024312645 -0.012160513
-0.02315466 -0.017383318 -0.016136708 0.023692599 -0.001772158 0.0254159 -0.021523628 -0.026213571
-0.0056133433 -0.012485801 -0.032511387 -0.043028004 -0.009360118 -0.023068357 -0.0073450515 0.018313706
-0.011252245 0.020766933 -0.020763429 -0.00953205 0.0066739013 0.011313976 -0.020089002 -0.016932745
-0.012169538 -0.015741447 -0.007455781 -0.00593614 0.006347478 -0.007966258 -0.020507328 -0.007205044
-0.018125586 0.0032704421 0.006399942 0.013363168 0.0028559882 -0.008826126 -0.0072913603 -0.020254396
0.013059686 -0.017019825 0.019780854 -0.025133759 -0.003076855 0.001522802 0.021518895 0.010229673
0.0031629896 0.013536486 0.02696091 0.010995605 0.015765488 -0.01475034 0.010835702 0.04746811
0.00258069 -0.004045646 -0.020538298 -0.0075324653 0.00076615805 0.0055125314 0.016350182 -0.018679708
0.011906738 0.010125833 0.00072921545 0.0131322285 0.008090753 -0.013680035 -0.031235231 0.0105321165
-0.01705966 0.02225212 0.022554372 -0.023044448 -0.021155521 -0.011532441 0.0037659162 0.024066614
-0.0006650622 -0.020704223 0.0013744446 -0.010636374 0.006818622 0.013737346 0.0042084856 -0.01430429
0.016477957 0.013512133 0.011945759 0.006711704 -0.0076581514 0.007722572 0.01132603 -0.0050618774
0.014286749 0.006903839 -0.02103626 -0.010805704 -0.018841455 -1.1611246e-05 -0.0028268707 0.010160787

digit_rec.fc1.bias f4 [100]
00000000: b5a2 f4bb d415 34bb 1a39 323f b2b5 fc3e
00000010: 8598 26bc 1dfc 52bc 3129 19bc 293d e0ba
00000020: 30b4 423e 7905 0a3f 783d fa3e 3764 08bd
00000030: bc19 e8bc b564 a4bb b5b6 b8bc b1f2 2b3f
00000040: 90a2 15bb e8c7 323f a1a8 1abb 7a47 9dbb
00000050: 7977 b5ba dde3 083f 941a 95bc ef1f a0bc
00000060: 4f9e 043f ef2a 93bc 1846 7bbb 278d 11bc
00000070: 3e82 27bd ea26 b7bb cb25 d83e 833a 30bb
00000080: 384d b1bc 637d 9ebc 596d d3bb bc8f b6bc
00000090: c7a4 e0ba b232 6bbb 25cc 103f 35b0 bcbc
000000a0: c98c 80bc 42fe 0a3f 03fb 07bd 3536 bbbc
000000b0: 294b 083f 4730 563f 3a1b 083f 0a41 55bc
000000c0: 7782 c8bc 0d2f b9bb 0651 97bc 8fbe 033f
000000d0: 1808 f0ba 5b06 81bc 12e8 aabb bb46 e5bc
000000e0: a575 033f 1a70 c13e 5055 1dbc 8ed3 99ba
000000f0: 822d c73e 54e9 ed3e e7b7 223f 578d 083f
00000100: f515 47bb 5567 023f 67b7 a0bc aa59 063f
00000110: e579 afbb d5e0 0fbd b249 003f ada4 153f
00000120: 2217 0c3f b8ca e7bc 8d4b 313d 0b58 abbc
00000130: 16a1 2d3f bffe b4ba b022 71ba 85fb 33bb
00000140: a2b1 25bc de5a b6bc c23f 043f 5a29 853f
00000150: dc92 26bc 8d98 8eba 1ec4 813f 1e84 83bb
00000160: c7d0 523f 7a1e bab9 027e 84bc 8ea2 ed3e
00000170: 4627 7ebb 852e 5bbc 0584 65bb 29d1 eb3e
00000180: 51f1 193f 3e43 29b8 f682 0abc 46b1 09bc
-0.0074656853 -0.002747883 0.6961838 0.49357373 -0.010168199 -0.012877491 -0.0093482 -0.0017108071
0.19014049 0.539146 0.48875022 -0.033298697 -0.028332584 -0.005016888 -0.022548059 0.6716719
-0.002283249 0.6983628 -0.0023599046 -0.0047997804 -0.001384481 0.5347269 -0.01820115 -0.019546477
0.5180406 -0.017964808 -0.003834134 -0.008883751 -0.040895693 -0.0055893557 0.42216334 -0.0026890344
-0.021643266 -0.019346898 -0.0064522442 -0.022285335 -0.0017138951 -0.003588837 0.565615 -0.02303324
-0.015692132 0.54294217 -0.033198368 -0.022852996 0.53239685 0.83667415 0.53166544 -0.013015995
-0.024476273 -0.005651361 -0.018471252 0.51462644 -0.0018312959 -0.0157501 -0.005215653 -0.027987828
0.51351386 0.3778084 -0.00960286 -0.0011736022 0.38901907 0.46467078 0.6356186 0.5334067
-0.0030378078 0.5093892 -0.019618703 0.52480567 -0.005355107 -0.035126526 0.5011245 0.584544
0.547228 -0.028294906 0.04328494 -0.020916006 0.6782392 -0.001380883 -0.0009198589 -0.002746315
-0.010113152 -0.022260126 0.51659787 1.0403244 -0.01016685 -0.0010879204 1.0137975 -0.0040135523
0.8234982 -0.0003549939 -0.016173366 0.46413082 -0.0038780733 -0.01337779 -0.0035021317 0.46058014
0.60133845 -4.0355364e-05 -0.008454075 -0.008404082

digit_rec.fc2.weight f4 [10, 100]
00000000: 5dfa ebbd 7297 783c 341e 6f3e 3c3b 813e
00000010: 45c8 0bbe 7ccc 63bb 3c80 f2bd 14d4 8bbd
00000020: 654a 973b b003 4b3e ddca e43d 6f42 443d
00000030: 0668 4fbd 40dd 53bd 7d11 dc3c b268 523e
00000040: d390 0dbd cfd9 a13e a088 0abe f732 83bc
00000050: 22ed aebc 88f9 4d3e a010 07be ceaa 4f3d
00000060: fd2c 873e 13e4 84bc 79c8 3bbd 6b2b bfbd
00000070: 4eae d4bd dfd2 c5bd b77e 2b3e 91c8 78be
00000080: de27 3c3d 32b6 bfbd e7cd cebd a860 8fbd
00000090: b62f c6bc 911a fabd a7ca 8d3e 175a e3bd
000000a0: 8505 2bbe c884 323e 772e 2abe 94e5 04bd
000000b0: 9890 703e 6513 e53e 6b81 433e ed70 8ebd
000000c0: 7004 dbbd 232b e5bd f192 fbbd bb4f 873e
000000d0: ccdc 0a3d 16af 97bd 32e9 093d 763f d4bd
000000e0: 12d9 353e 8422 fd3d a4f1 1fbd 1c14 bbbd
000000f0: cca5 7a3e 3365 223e c8d2 163e 6dee 963e
00000100: 4fcf 5cbd e5c9 423e 1a43 943c ddf9 653e
00000110: 0d36 80bd 0fa6 7d3c f0f1 2f3e ef6c 833e
00000120: 42e1 5d3e 11e9 2abe cb85 96bb 12d5 9d3c
00000130: 6c8e 813e 30e7 bcbd f854 d3bd 93d6 d6bd
00000140: 4bb8 253d 8241 e63c ca40 3b3e 1265 983f
00000150: 6fd6 84bd 7ba2 abbd 7333 253f 9d99 2dbe
00000160: 908d aa3e 27b2 ad3d eb10 31bb 2993 553e
00000170: 849c 15be 8622 373d d20b acbc 3ab4 f43d
00000180: 89a2 a93e 7060 08be b0c5 13be 3a74 f9bd
00000190: 301d 33bd 4eba 6b3c a2fe a53c c267 3d3d
000001a0: b6ff 593d 2b3e a1bd 3556 0cbd e3d9 8fbb
000001b0: 8de0 f6bd 0dc9 863d 5235 07be 120f a6bd
000001c0: d399 a73c 3539 c93d ab0c c73d 5141 64be
000001d0: 8223 45bb ebce 913c 72ee 753d 4ddd 85bd
000001e0: 3e4a 30bd e35c debd 37c5 3abd acaa 093e
000001f0: 3ae1 27be 6983 25bd f9b7 943d fd47 2c3d
00000200: cea4 80bd f0dc 1e3d d746 43be d7ce 563d
00000210: 7fc8 9a3d 524b 43bd 74c3 fd3c a353 813d
00000220: b2a2 9f3d fcdf 493d 244d cabd 10d7 9b3d
00000230: d6b7 da3c ca18 e5bd e456 0b3d 043b 49bc
00000240: 2410 65bd 5fe7 d8be 1a8d bbbb ef6d a5bd
00000250: 319b a73d 0fa9 7abd 5258 2e3d 49f0 70bd
00000260: 202f f13d 8c63 cbbd ea32 0cbc 67ec 00bc
00000270: bccc f73c 3c28 a9bd 0409 743c 6b5d d83d
00000280: 2d39 a63d be14 39bd 910f 21be 641c 65bd
00000290: 1ba8 823d 6633 9cbd a72c ba3d 8141 fcbd
000002a0: 84a9 ff3b ad02 7dbd 445b 253d 8b06 2ebe
000002b0: 7da3 d3bd a735 b7bd 1ed5 39bd a03e 903b
000002c0: 01bb 59be 84bd 883d 6749 5d3d 992f 943d
000002d0: 940d 7f3d a84d 2cbd 7e6b 90bd 502a d6bd
000002e0: 7ab3 133c fc78 9b3d 8d71 1bbd e61c b13c
000002f0: d936 4cbe fc98 4b3d 9939 3ebd b8bb 4a3c
00000300: 689a 95bc 243e a0bd 1940 42bd 88bd cbba
00000310: d4ec 43be 97c6 4c3d 1e89 c63b 8ec4 293c
00000320: d272 893d 8de8 95bd e235 e9bc b7f7 50be
00000330: 0c6f 23bc 8235 4b3c 62bd 503d 7107 9e3d
00000340: 3f2e 88bd edd3 b4bd 2120 15be 5902 adbc
00000350: 1dc0 d53d 7559 c53d fea4 c63c f1ee 2cbe
00000360: 3715 e53d ae96 2abd b8df 9ebd 38e7 823d
00000370: 033b 8fbd 698f 15be a708 49bd aae9 753d
00000380: 1804 06bd b644 8d3d 1294 f4bc 50fd 8d3d
00000390: e9e4 663c e54b 313d 740f 743d 2969 613d
000003a0: 1f50 f83c f10b 1fbd 5f10 133d 4610 7f3d
000003b0: a8d4 a03d 512e 833d 2585 1abe c69d 89bc
000003c0: 9549 0b3c b75a 26be 546c 89bc f134 8fbd
000003d0: b86f 00be 7851 4f3b a951 30be 1f07 2abd
000003e0: b674 8a3c ec2a 9a3d 4200 e3bc d24f e8bd
000003f0: 610e 64bd 3888 b73c 02d3 fcbc d8aa 313d
-0.115223624 0.015172826 0.23351365 0.25240505 -0.13650616 -0.0034759333 -0.11840865 -0.0682756
0.004617023 0.19825625 0.111715056 0.04791492 -0.050636314 -0.051724672 0.026863808 0.2054775
-0.034561943 0.31611487 -0.13528681 -0.016015513 -0.021353308 0.2011472 -0.13189936 0.0507
0.2640151 -0.016222036 -0.045845482 -0.09334453 -0.103848085 -0.09659361 0.16747557 -0.2429526
0.045936458 -0.09360923 -0.100978665 -0.070008576 -0.024192672 -0.122120984 0.27693674 -0.11101168
-0.16701324 0.17433465 -0.16619287 -0.032445505 0.23492658 0.4474136 0.19092338 -0.06955133
-0.10694206 -0.11189868 -0.12283886 0.26428017 0.033901975 -0.07406442 0.033669658 -0.10363667
0.17758587 0.12360099 -0.039048806 -0.09134695 0.24477309 0.15858917 0.14728844 0.2947878
-0.053908642 0.19022329 0.018098403 0.22458597 -0.06260309 0.015481486 0.17182136 0.25669047
0.2166796 -0.1669047 -0.004593586 0.019266639 0.25303972 -0.09223783 -0.10318941 -0.104901455
0.04045896 0.028107408 0.18286434 1.1905844 -0.064862125 -0.083806 0.6453163 -0.1695313
0.3331113 0.084812455 -0.002701814 0.20856918 -0.14610487 0.04471066 -0.02100173 0.11948438
0.33131817 -0.13318038 -0.1443088 -0.121803716 -0.043729007 0.01438768 0.02026302 0.04624153
0.05322238 -0.07873186 -0.0342619 -0.004389988 -0.120545484 0.06581316 -0.13203934 -0.08108343
0.020459091 0.098253645 0.09719213 -0.22290541 -0.0030080979 0.017798861 0.060041852 -0.065363504
-0.043039553 -0.108575605 -0.045598235 0.13444012 -0.16394511 -0.040408526 0.072616525 0.04206084
-0.06281434 0.03878492 -0.19069992 0.05244335 0.07557773 -0.047679253 0.030976988 0.063147806
0.077947035 0.049285874 -0.09877995 0.07609379 0.026698988 -0.11186369 0.034018412 -0.012282137
-0.055923596 -0.42364022 -0.0057236077 -0.08077609 0.08183897 -0.061196383 0.042564698 -0.058822904
0.117765665 -0.099310964 -0.008557061 -0.007868863 0.030248992 -0.08259627 0.014894728 0.10564693
0.08116374 -0.045185797 -0.15728594 -0.05593528 0.0637972 -0.07626991 0.09090548 -0.123171814
0.0078021903 -0.06177013 0.04037024 -0.16994683 -0.10333917 -0.0894578 -0.04536926 0.0044019967
-0.21262743 0.06676772 0.05402508 0.07235641 0.06226881 -0.042066246 -0.070517525 -0.10457289
0.0090149585 0.07591435 -0.037950087 0.021620225 -0.19942798 0.049706444 -0.04644165 0.012373857
-0.018262103 -0.078243524 -0.04742441 -0.0015544156 -0.19133312 0.049994078 0.006058826 0.010361804
0.06711353 -0.07319746 -0.028468076 -0.20406996 -0.009975206 0.012402894 0.05096186 0.07716263
-0.06649446 -0.08829484 -0.14563037 -0.021119284 0.10437033 0.09636203 0.024248596 -0.16888024
0.11185687 -0.041647606 -0.07757515 0.06391758 -0.069936775 -0.14605488 -0.049080517 0.060037293
-0.032718748 0.06897871 -0.029855762 0.06933081 0.014092662 0.04328527 0.05958505 0.05503193
0.030311642 -0.038829748 0.035904285 0.06227138 0.07853061 0.064053185 -0.15089853 -0.016798865
0.00850143 -0.16245542 -0.016775288 -0.0699252 -0.12542617 0.0031634253 -0.17218651 -0.041510697
0.016901355 0.07527718 -0.027710084 -0.113433495 -0.055677775 0.022403821 -0.030862335 0.04337582

digit_rec.fc2.bias f4 [10]
00000000: 82e1 f33e 40bf 08bf 75e3 7bbe 7338 bdbe
00000010: e74f c9be 4e76 c4be 1bba a1be ddb2 b3be
00000020: c70a 77be daf1 bdbe
0.47632986 -0.53416824 -0.24598487 -0.3695713 -0.39318773 -0.3837151 -0.315873 -0.350974
-0.24125205 -0.3709858
