outputs/perception/satnet/checkpoint_last.pth (torch, 591247 bytes, 8 tensors)

digit_rec.conv1.weight f4 [20, 1, 3, 3]
0	0x3e28f81b	0.16500895
1	0xbe17a2d9	-0.14808215
2	0xbd7927dc	-0.06082903
3	0x3e068231	0.13135602
4	0xbe99dd1e	-0.30051512
5	0x3e5e0fc0	0.21685696
6	0xbdd4f9f2	-0.10399236
7	0x3e2e252d	0.17006369
8	0x3dacc487	0.08435922
9	0xbd59ae5c	-0.053144798
10	0x3dc67f1d	0.09692214
11	0x39b0e13e	0.00033737154
12	0x3dd5abfe	0.104331955
13	0xbe0b895b	-0.13626616
14	0xbd4e120c	-0.05031018
15	0xbd4022cc	-0.046908185
16	0x3cf8288d	0.030292774
17	0xbc916c03	-0.0177517
18	0x3e965fb0	0.2936988
19	0x3dec454b	0.11536654
20	0xbe106164	-0.14099652
21	0xbe5de4d1	-0.21669318
22	0xbd2b1929	-0.04177204
23	0xbe1bf6e9	-0.15230907
24	0xbdfbfe3a	-0.12304349
25	0x3d2b29cc	0.041787907
26	0x3e596f21	0.21233799
27	0x3e18adeb	0.14910094
28	0xbea49088	-0.3214152
29	0x3e64b5ae	0.2233493
30	0x3d9a97d0	0.07548487
31	0x3ea0ef7d	0.31432715
32	0x3e826105	0.25464645
33	0xbeacce0f	-0.3375096
34	0xbe9d0496	-0.3066756
35	0xbdd4d24d	-0.10391674
36	0x3e957509	0.29190853
37	0xbd60bb35	-0.054866035
38	0x3e24db7a	0.16099349
39	0xbe0eef29	-0.1395842
40	0x3ea95b00	0.3307724
41	0xbe0add9b	-0.13561098
42	0x3e6fc787	0.23415957
43	0xbc1bb0ee	-0.009502633
44	0xbe485d63	-0.19566874
45	0x3e3c8667	0.18410645
46	0xbe49f58c	-0.19722575
47	0x3e04023c	0.12891477
48	0xbdcba7d2	-0.099441186
49	0xbd5dbab9	-0.05413315
50	0xbea2aa97	-0.31770775
51	0xbe29f25a	-0.16596356
52	0x3e561bf2	0.20909098
53	0xbda51c23	-0.08062007
54	0x3e9ac585	0.3022882
55	0x3e802c24	0.25033677
56	0xbcb038a0	-0.021511376
57	0xbe7fd5cc	-0.24983901
58	0x3e3c09c7	0.18363105
59	0x3dd363d4	0.10321775
60	0xbe737f9d	-0.2377915
61	0x3e464de3	0.19365649
62	0x3e56ed50	0.20988965
63	0x3e9d4fcb	0.3072494
64	0xbe3f8bf0	-0.18705726
65	0xbdd56aea	-0.10420783
66	0x3d435ddc	0.047696933
67	0x3dbd3757	0.09239071
68	0xbe80f98a	-0.25190383
69	0xbe39f44a	-0.18159595
70	0x3e678747	0.22610198
71	0xbd87a493	-0.06623187
72	0x3e1b1f99	0.15148772
73	0x3c376baa	0.011195103
74	0x3debd5f4	0.11515418
75	0x3d7a179a	0.061057664
76	0x3dca159a	0.098674014
77	0x3e18979e	0.14901587
78	0xbeb0ab12	-0.34505516
79	0x3e0bce03	0.13652806
80	0xbe8992fe	-0.2686996
81	0xbe82e59c	-0.25565803
82	0xbc7ae2df	-0.015312879
83	0xbdb2c524	-0.08729008
84	0x3e482387	0.19544803
85	0xbe41569d	-0.18880697
86	0xbe7163cd	-0.23573227
87	0x3e81e145	0.2536718
88	0xbc8c5018	-0.017128035
89	0x3e5b07bd	0.2138967
90	0x3e0396af	0.1285045
91	0xbe87700d	-0.26452675
92	0x3d62fddc	0.05541788
93	0x3db52f1b	0.08846875
94	0xbe53c98c	-0.20682353
95	0xbe21c6df	-0.1579852
96	0x3e147519	0.14497794
97	0x3daf0d3d	0.08547447
98	0xbe2959e6	-0.165382
99	0xbdb182bc	-0.08667514
100	0x3e9fe789	0.31231335
101	0xbda3440c	-0.07971963
102	0x3e4cade6	0.19988212
103	0x3e20900e	0.15679953
104	0xbe839b9b	-0.25704655
105	0xbe906746	-0.2820379
106	0x3ea6d253	0.3258234
107	0x3b2d30f8	0.0026426893
108	0x3e77a95e	0.24185702
109	0x3d82dcdc	0.06389782
110	0x3db8ce30	0.09023702
111	0x3e83eaee	0.25765175
112	0x3ea0b260	0.3138609
113	0xbe672bcc	-0.22575301
114	0x3d838135	0.06421129
115	0x3e84ad47	0.2591345
116	0x3e6fcd43	0.23418145
117	0x3e31a380	0.17347527
118	0xbe8c83ec	-0.27444398
119	0xbe59ac02	-0.21257022
120	0xbe7c9b56	-0.24668631
121	0x3d3a003f	0.04541039
122	0x3ebd406f	0.3696322
123	0xbe24379f	-0.16036843
124	0x3e5f2d4b	0.21794622
125	0xbe19d5e5	-0.15023
126	0xbea8d8d5	-0.3297793
127	0xbdb39969	-0.08769495
128	0x3e354b64	0.1770454
129	0x3ea79dd6	0.32737607
130	0xbe4b368a	-0.19845024
131	0x3d986617	0.07441347
132	0x3e8d500c	0.27600133
133	0x3e504687	0.20339404
134	0x3e59566f	0.21224378
135	0x3e84e43e	0.25955385
136	0x3e6559ba	0.22397509
137	0x3da5683d	0.080765225
138	0xbe61539a	-0.22004548
139	0xbe904fcc	-0.2818588
140	0xbe515967	-0.2044426
141	0xbd0f41de	-0.034974925
142	0xbe4b20bd	-0.19836707
143	0x3dccdb40	0.10002756
144	0x3db8bfdd	0.0902097
145	0xbda802ba	-0.08203645
146	0x3df2835a	0.118414596
147	0x3db2e197	0.08734434
148	0x3e3b8d14	0.18315536
149	0x3e560ff6	0.20904526
150	0xbe018c37	-0.12651144
151	0x3e9c7fba	0.30566198
152	0xbd523cfd	-0.051327694
153	0x3c5ec20f	0.013596072
154	0xbea5cd2f	-0.32383105
155	0xbe72272a	-0.23647752
156	0xbe41ca6a	-0.18924871
157	0xbe07dd77	-0.13268076
158	0x3e8f4131	0.27979425
159	0xbe087cbc	-0.13328832
160	0xbe629caa	-0.22130075
161	0x3e293e15	0.16527589
162	0x3e057d4f	0.13036083
163	0x3e662649	0.22475542
164	0xbe3af2c8	-0.18256676
165	0x3dc632b2	0.09677638
166	0xbdc94338	-0.09827274
167	0xbda8aab7	-0.08235686
168	0xbe6f07bb	-0.23342793
169	0xbe0fb83a	-0.1403512
170	0xbda90d73	-0.08254518
171	0x3e1535e9	0.14571346
172	0x3d40d91a	0.047082044
173	0x3d85f91b	0.06541654
174	0x3eacc4ac	0.337438
175	0x3e9edc94	0.31027663
176	0x3e5d4bed	0.21610995
177	0x3ca30976	0.019901972
178	0xbe73da5f	-0.2381377
179	0x3e6b14e8	0.22957194

digit_rec.conv1.bias f4 [20]
0	0xbdb80a70	-0.08986366
1	0xbcee5183	-0.029091602
2	0xbe8fa00d	-0.28051797
3	0xbd88e27a	-0.06683822
4	0xbe5e4a46	-0.2170802
5	0x3e9b1cf7	0.30295536
6	0xbe976bab	-0.29574332
7	0xbe854fff	-0.26037595
8	0xbc5a8ced	-0.013339263
9	0xbe40bc3a	-0.18821803
10	0x3dd6e72e	0.10493313
11	0xbdf76066	-0.120789334
12	0xbe1b5d72	-0.15172365
13	0x1d3388e1	2.3761217e-21
14	0x3e6bad06	0.23015222
15	0xbe66d0e0	-0.22540617
16	0x3e1d939d	0.15388341
17	0x3e5eb3af	0.21748231
18	0x3e99574f	0.29949424
19	0xbe70d4b0	-0.23518634

digit_rec.conv2.weight f4 [10, 20, 3, 3]
0	0xbad8a6da	-0.0016529218
1	0xbd8a061f	-0.06739449
2	0x3d9ea5cf	0.07746469
3	0xbd5731e7	-0.052537825
4	0x3c9e87d0	0.01935187
5	0x3c314430	0.01081948
6	0xba6336ac	-0.00086675095
7	0xbcf4c445	-0.029878745
8	0x3cc4f1ef	0.024041144
9	0x3d0e4323	0.034731995
10	0x3b8c49f3	0.0042812764
11	0x3c55821a	0.013031507
12	0xbd8a21de	-0.06744741
13	0x3d5cce20	0.053907514
14	0x3d8e2dba	0.069423154
15	0x3d9198a6	0.071091935
16	0x3d2b9de6	0.04189863
17	0xbd645436	-0.055744372
18	0xbd02958c	-0.0318809
19	0x3d94b65f	0.07261347
20	0xbd640aba	-0.055674292
21	0x3d6d814a	0.057984628
22	0xbd9ac637	-0.07557338
23	0xbd83aa85	-0.064290084
24	0x3cc34de0	0.023840845
25	0xbd9f841e	-0.07788871
26	0xbcbc2855	-0.02296845
27	0x3ce7a819	0.028278397
28	0x3d2a5b61	0.041591052
29	0x3d8dd261	0.06924892
30	0xbd6685d8	-0.056279987
31	0xbd831a41	-0.06401492
32	0x3dbc90d3	0.092073105
33	0xbda785f8	-0.081798494
34	0xbda4c218	-0.08044833
35	0x3d016376	0.031588994
36	0xbd8307ed	-0.06397996
37	0x3d443280	0.047899723
38	0x3d441660	0.0478729
39	0xbd5227ed	-0.051307607
40	0xbd65020a	-0.055910148
41	0xbc8af01a	-0.016960192
42	0x3d40f377	0.047107186
43	0x3b978cca	0.0046249377
44	0xbd53ab4e	-0.05167704
45	0xbc69060c	-0.014222633
46	0xbd9915cb	-0.0747486
47	0xbd5cc03f	-0.053894278
48	0xbdac7576	-0.084208414
49	0x3d621b15	0.05520161
50	0x3d6bb153	0.057542156
51	0xbcc76ec1	-0.024344804
52	0x3b311789	0.0027022085
53	0x3d6c96f6	0.057761155
54	0x3c95971e	0.018260535
55	0xbd129099	-0.03578243
56	0x3d003013	0.031295847
57	0x3d885ec5	0.06658701
58	0xbbde115a	-0.006776971
59	0xbcd7c3a1	-0.0263384
60	0x3da5b786	0.08091645
61	0x3d582fb9	0.052779887
62	0xbd7c40e7	-0.061585333
63	0x3d22c7db	0.03974138
64	0x3cb0ef79	0.021598564
65	0xbd7ba571	-0.061437074
66	0x3c54b45e	0.012982456
67	0xbd3d4cc3	-0.046215784
68	0x3d551422	0.052021153
69	0xbd8c64dc	-0.06855175
70	0x3d14cd30	0.036328495
71	0x3cd7de3f	0.026351092
72	0x3b443aa5	0.0029942181
73	0x3d5f7ab9	0.054560397
74	0xbd362230	-0.044466197
75	0xbd01c17d	-0.031678665
76	0xbd8d5ade	-0.06902097
77	0x3bca4d77	0.0061737853
78	0xbd4da22b	-0.050203484
79	0xbd049087	-0.032364395
80	0xbc75a7a7	-0.014993585
81	0x3d76b29b	0.060228925
82	0x3da410af	0.08010995
83	0x3d4af634	0.049551204
84	0x3be4dc43	0.006984265
85	0xbcea82f4	-0.028626896
86	0xbd28d3cf	-0.04121762
87	0x3d962d13	0.07332816
88	0xbd4495a8	-0.047994286
89	0xbc11224b	-0.008858274
90	0x3b3dc989	0.0028959236
91	0xbd0fea37	-0.035135474
92	0x3d4d7afc	0.050166115
93	0x3d8e6d40	0.069544315
94	0x3c51ddf1	0.012809263
95	0xbcf601a1	-0.030030074
96	0x3c96d842	0.018413667
97	0xbb456f26	-0.0030126064
98	0xbcae5a73	-0.021283364
99	0xbd0ebc70	-0.034847677
100	0xbc655246	-0.013996666
101	0xbd2afa9f	-0.041742917
102	0x3cd6b771	0.026210519
103	0x3ba4d0dd	0.0050297813
104	0xbce0406f	-0.027374474
105	0xbccd2eb8	-0.025046691
106	0xbd73c3b1	-0.059512798
107	0x3c3db935	0.011579801
108	0x3bf0f90c	0.0073539075
109	0x3d655851	0.05599243
110	0xbd07bce1	-0.033139113
111	0xbca0e130	-0.019638628
112	0xbd831ef2	-0.06402387
113	0xbd3a178d	-0.045432616
114	0x3d549d71	0.05190796
115	0xbdaa0b53	-0.08302941
116	0xbd721d3b	-0.059109908
117	0x3d50a57e	0.050939076
118	0x3d2cb4bd	0.042164553
119	0x3dae628c	0.0851489
120	0xbd387564	-0.045033827
121	0xbc682f81	-0.014171482
122	0xbb33950b	-0.002740207
123	0xbd1772a9	-0.036974583
124	0x3ca00608	0.019534126
125	0xbccad7f7	-0.024761183
126	0xbcac9259	-0.021065878
127	0x3d0d15b2	0.03444452
128	0xbd22362c	-0.039602444
129	0xba9ea999	-0.0012104987
130	0x3d19cb55	0.03754743
131	0x3d077635	0.033071715
132	0x3d91746b	0.07102283
133	0xbdb88e67	-0.09011536
134	0xbcecf569	-0.028925614
135	0xbcc23be9	-0.023710208
136	0xbd15784f	-0.03649169
137	0xbd754661	-0.05988157
138	0xbb14f503	-0.0022729046
139	0xbbb063b3	-0.005382979
140	0xbd4677d5	-0.048454124
141	0xbd87669a	-0.066113666
142	0xbd8b8ac6	-0.06813578
143	0x3db35b6f	0.08757674
144	0xbc551395	-0.013005157
145	0xbc912975	-0.017719964
146	0xbd2558df	-0.040367957
147	0xbcd5642c	-0.026048742
148	0xbd6c6ab6	-0.057718955
149	0xbd5bbaa0	-0.053644776
150	0x3d290fd1	0.04127485
151	0xbb1c5afc	-0.0023857942
152	0xbd81f188	-0.063448966
153	0xbcdd795a	-0.027035404
154	0x3d51d671	0.051229898
155	0x3e03bf34	0.12865907
156	0x3d8a739b	0.06760331
157	0x3cb7076e	0.02234241
158	0x3d63e657	0.05563959
159	0xbba478d4	-0.0050192866
160	0xbd3432f6	-0.043993913
161	0xbd7365af	-0.059423145
162	0x3cc04360	0.023469627
163	0xbc46d8fe	-0.012136696
164	0x3c1834be	0.0092899185
165	0xbca001aa	-0.019532043
166	0xbdb4de3e	-0.08831452
167	0xbd374bc9	-0.04475001
168	0xbc9d626f	-0.019211976
169	0xbd1810c9	-0.037125383
170	0xbd9f9d4b	-0.07793673
171	0x3c54cdbd	0.012988505
172	0xbc8d5197	-0.01725082
173	0xbcbf108f	-0.023323325
174	0x3d2586bc	0.040411696
175	0x3c5f7308	0.013638265
176	0xbc8fc461	-0.017549695
177	0x3d9e6f25	0.07736043
178	0x3cd20929	0.025639134
179	0xbae49dd6	-0.0017442058
180	0x3d67b4dc	0.056568965
181	0xbd43e982	-0.047830112
182	0x3d466300	0.048434258
183	0x3c248ba9	0.010043063
184	0xbd630132	-0.05542106
185	0x3d22a431	0.039707366
186	0x3c901ae0	0.01759094
187	0x3ccb1c70	0.024793833
188	0xbc51ca99	-0.012804651
189	0xbcf0dedd	-0.029403144
190	0x3b3f3b22	0.0029179533
191	0x3d29445c	0.04132496
192	0x3b885043	0.0041599586
193	0xbd3292bd	-0.04359697
194	0x3d8e78d5	0.06956641
195	0xbbe2fe72	-0.006927305
196	0x3d408a86	0.047007106
197	0xbc0a3f0d	-0.008437884
198	0x3d4faf77	0.050704446
199	0x3c351e9f	0.011054664
200	0xbdbc804a	-0.09204157
201	0x3d3e6fa2	0.04649318
202	0xbcbe1f60	-0.02320832
203	0xbde278d5	-0.11058203
204	0xbca96430	-0.020677656
205	0xbdcb96db	-0.09940883
206	0xbdef853b	-0.116953336
207	0xbda9ef51	-0.08297599
208	0x3d115a01	0.035486225
209	0xbcdaccad	-0.026708925
210	0x395bd210	0.00020963722
211	0x3d07a82f	0.033119377
212	0x3c4eff77	0.01263415
213	0xbd70bafd	-0.058772076
214	0x3ca88ccd	0.020574952
215	0x3c8f498b	0.017491123
216	0xbdc16a8a	-0.09444149
217	0x3c005818	0.007833503
218	0xbd107770	-0.035270154
219	0xbd1a3713	-0.03765018
220	0xbd9a710f	-0.075410955
221	0x3d864465	0.06556014
222	0xbb958d25	-0.004563945
223	0x3c52c83d	0.012865123
224	0xbbd16d23	-0.006391184
225	0x3cfde068	0.030990794
226	0xbd317af8	-0.043330163
227	0xbd8fcf89	-0.07022006
228	0x3c4b2cf2	0.0124008525
229	0x3c7530f5	0.014965286
230	0xbc37e358	-0.011223637
231	0xbd469460	-0.048481345
232	0xbce55b07	-0.027997507
233	0xbbb3ebe8	-0.0054907687
234	0xbc8d079f	-0.017215548
235	0xbd973c3a	-0.07384534
236	0x3d097558	0.033559173
237	0x3adf30c9	0.0017028089
238	0x3d4b7d27	0.0496799
239	0x3d68447e	0.056705944
240	0xbd83b69c	-0.06431314
241	0x3d9bfe82	0.07616903
242	0xbd61cbff	-0.055126186
243	0x3da5bf65	0.08093146
244	0xbcb7cb94	-0.02243594
245	0x3cc40cd3	0.023931896
246	0xbba7ed69	-0.005124737
247	0x3d7b7f08	0.061400443
248	0xbcc9be2d	-0.024626816
249	0xbd7f3c44	-0.062313333
250	0x3cefe730	0.029285043
251	0x3d406fd0	0.046981633
252	0x3c1d9c1d	0.00961974
253	0xbd1e42a0	-0.038637757
254	0x3d705e29	0.058683548
255	0x3c8fc0af	0.017547933

digit_rec.conv2.bias f4 [10]
0	0xbc490b5a	-0.012270773
1	0xbbd39977	-0.0064575034
2	0x3d0fe79c	0.03513299
3	0x3d2a317a	0.04155109
4	0xbd10eac3	-0.035380136
5	0x3d83cafc	0.064352006
6	0xbcfa4503	-0.030550485
7	0xbc820485	-0.015871296
8	0xbd55d2b3	-0.05220289
9	0x3c73c74a	0.014879057

digit_rec.fc1.weight f4 [100, 1440]
0	0x3cc4dde4	0.024031587
1	0xbcbd459f	-0.023104487
2	0x3bb6ae96	0.0055750115
3	0xbcfea449	-0.031084197
4	0xbc7bd0da	-0.015369618
5	0xbcb63f2a	-0.022246916
6	0x3b9437a5	0.004523235
7	0xbccbfbf1	-0.024900408
8	0xbaeadb72	-0.0017918183
9	0xbcb36e91	-0.021903308
10	0x3be3eac2	0.0069554755
11	0xbc52557e	-0.012837766
12	0xbc899a39	-0.016797172
13	0x3cb32d14	0.02187208
14	0x3c040b67	0.008059359
15	0xbc76a849	-0.015054771
16	0x3bfff5a0	0.007811263
17	0x3b083db0	0.0020788722
18	0xba859a02	-0.0010192993
19	0x3b3ba05a	0.0028629513
20	0x39885f94	0.00026011153
21	0x3c993cd6	0.018705767
22	0x3b2d790a	0.002646985
23	0xbbe64a64	-0.007027911
24	0x3cb00445	0.02148641
25	0x3c684248	0.014175959
26	0x39f11367	0.00045981558
27	0x3d0fa2bb	0.0350673
28	0x3d388854	0.045051888
29	0xbb9564fd	-0.004559158
30	0xbbd20eb4	-0.006410444
31	0xbc5928c6	-0.01325435
32	0xbc38db39	-0.0112827355
33	0xbc4cb6e3	-0.0124947755
34	0x3c8b68b9	0.01701771
35	0xbc725c2a	-0.014792481
36	0xbcc988e3	-0.024601405
37	0xbca31251	-0.019906195
38	0x3a453081	0.0007522181
39	0x3cd38e33	0.025824642
40	0x3d09cc31	0.033641998
41	0x3d335d56	0.043790184
42	0xbb712768	-0.003679717
43	0xbce01c0d	-0.027357126
44	0x3cac52a2	0.021035496
45	0xbc739782	-0.014867665
46	0x3c3aa007	0.011390693
47	0x3c05513f	0.008137046
48	0x3c208543	0.009797397
49	0x3c0ea266	0.008705711
50	0xbc9e5d10	-0.019331485
51	0xbb5c09c3	-0.0033575154
52	0xbc58e481	-0.013238073
53	0x3c9dcd6e	0.019262996
54	0xbcd363e6	-0.025804471
55	0xbc219062	-0.009861084
56	0x3c469538	0.012120537
57	0x3b260e51	0.0025338123
58	0xbbe5e6dd	-0.0070160464
59	0xbc24b0cb	-0.010051916
60	0x3cd857d5	0.02640907
61	0x3c0c7fe9	0.008575418
62	0xbc8a9dc9	-0.016920941
63	0x3c57fea5	0.013183271
64	0xbc8c29b2	-0.017109726
65	0x3c975ca8	0.0184768
66	0xb98ebdaa	-0.0002722566
67	0xb966b8e8	-0.00022003392
68	0xbbddfd62	-0.0067745904
69	0xbb016472	-0.0019743708
70	0xbc6306fb	-0.013856645
71	0x3cb40b15	0.02197794
72	0x3be6cadd	0.007043226
73	0x3cbc08ec	0.022953473
74	0xbc61170e	-0.013738407
75	0x3bd0f2c4	0.006376596
76	0x3cc1e5a8	0.023669079
77	0xbba0a715	-0.00490273
78	0xbc9976e3	-0.018733447
79	0xbd0ae8f2	-0.03391356
80	0xbca930a1	-0.02065307
81	0xbc51ac2d	-0.012797398
82	0xbc1e40f5	-0.009659042
83	0x3bd905b6	0.0066229952
84	0xbc18da91	-0.009329454
85	0xba345856	-0.0006879618
86	0x3cc32912	0.023823295
87	0xba1c6668	-0.00059661875
88	0xbc578bbd	-0.013155875
89	0xbc97e7ef	-0.018543212
90	0xbc91c44c	-0.017793797
91	0xbb98a1d3	-0.004657963
92	0xbb47bdff	-0.0030478237
93	0x3c4dd621	0.012563259
94	0xbc6057b6	-0.013692787
95	0xbc624a15	-0.013811608
96	0x3b81b3e0	0.0039582103
97	0xbbb8e3a4	-0.0056423713
98	0x3c83f1bd	0.01610648
99	0xbc004636	-0.00782924
100	0xbbc47d6b	-0.0059963963
101	0xbd07fd07	-0.03320029
102	0x3c57d913	0.013174313
103	0xbcdfd67d	-0.027323956
104	0xbc7013f9	-0.014653199
105	0xbcfe7aa7	-0.031064345
106	0x3c5415b5	0.0129446285
107	0xbba32b3b	-0.0049795187
108	0x3c1b608c	0.009483468
109	0xbcb56249	-0.022141593
110	0x3b604fbc	0.0034227213
111	0x3be8844c	0.007095849
112	0x3c2cff66	0.010558939
113	0x3c9b36fd	0.018947119
114	0x3b87925f	0.004137322
115	0xbb4f1cbc	-0.003160282
116	0x3c1087ad	0.00882141
117	0xbc1380b9	-0.009002858
118	0xbaddd7a5	-0.0016925229
119	0xbccae1b1	-0.024765821
120	0xbce388a2	-0.027775113
121	0xbc8df49b	-0.017328551
122	0x3b769d3f	0.0037630347
123	0x3ba0a143	0.0049020364
124	0x3a6e9460	0.0009101089
125	0x3c9fa78f	0.019489078
126	0x3c846f7e	0.016166445
127	0xbb48ac8e	-0.0030620429
128	0x3d0da099	0.034576986
129	0xbc414482	-0.011796119
130	0x3c022997	0.007944486
131	0x3c16e28e	0.009209288
132	0x3c1466e3	0.009057733
133	0xbbf4c01f	-0.0074691917
134	0xbcc57099	-0.024101542
135	0x3cba7267	0.02275963
136	0x3b54e572	0.0032485393
137	0x3d1181d8	0.03552422
138	0x3cd90a59	0.026494192
139	0x3cb57e08	0.022154823
140	0x3c22538b	0.0099076135
141	0xbac7bdc0	-0.0015239045
142	0xbc3b22b2	-0.011421846
143	0x3ba23945	0.0049506747
144	0x3ccddbc4	0.025129206
145	0x3c3abe47	0.011397905
146	0x3c94ad89	0.018149154
147	0x3c05194c	0.008123707
148	0x3c979006	0.018501293
149	0xbc7d4aaf	-0.0154597005
150	0xbca7a910	-0.020466357
151	0xbb2f1ecd	-0.002672124
152	0xbc5ac97c	-0.013353702
153	0xbb870f7d	-0.0041217194
154	0xbb9e18cf	-0.0048247348
155	0x3cc12a86	0.023579847
156	0xbb74bed8	-0.0037345197
157	0x3cd2c20a	0.02572729
158	0xbce45769	-0.027873712
159	0xbcb857e6	-0.02250285
160	0x3c32bd7b	0.0109094335
161	0x3c21f7d7	0.00988575
162	0x3b9ef3cf	0.0048508416
163	0xb94b134c	-0.00019366777
164	0x3c284fb3	0.010272908
165	0x3c8152e6	0.0157866
166	0x3c2db2cb	0.01060171
167	0x3c13854e	0.00900395
168	0xbc45e7e5	-0.012079214
169	0x3c8d383f	0.017238734
170	0xbc05ad67	-0.008159018
171	0x3b85f60b	0.0040881685
172	0x3c69d7af	0.014272614
173	0x3cbf323f	0.023339389
174	0x3c41bb18	0.011824392
175	0xbbcccb96	-0.0062498553
176	0x3c419bca	0.011816928
177	0x3c9a5b26	0.018842291
178	0x3b5e16f9	0.0033888204
179	0xbbde45c6	-0.00678322
180	0x3b8faefc	0.0043848734
181	0xbc3b44f2	-0.011430012
182	0xba835748	-0.0010020519
183	0x37f77f8f	2.9504094e-05
184	0x3bc5fbe6	0.0060419915
185	0xbc524072	-0.012832748
186	0x3c84ae01	0.016196253
187	0x3cea9842	0.028637055
188	0x3d61a007	0.055084255
189	0x3cba4746	0.022739064
190	0xbc6dcb3a	-0.014513785
191	0xbc8bc1c1	-0.017060162
192	0x3c745f1c	0.014915254
193	0xbc9a026f	-0.018799989
194	0x3d081cbb	0.033230525
195	0x3acfa51a	0.0015842051
196	0xbbecac23	-0.0072226687
197	0xbca45860	-0.020061672
198	0x3ca40dd8	0.020026132
199	0x3d06a3b6	0.03287097
200	0x3cffc857	0.03122346
201	0x3c930925	0.017948696
202	0x3c82b86c	0.01595708
203	0x3c964e01	0.018347742
204	0x3cec4b0f	0.028844384
205	0xbbe51b80	-0.0069918036
206	0x3cace6b0	0.021106094
207	0x3c6be9e8	0.014399029
208	0xbceb8a39	-0.028752433
209	0x3bb97c49	0.005660568
210	0x3c3a1480	0.011357427
211	0x3ad6c185	0.0016384578
212	0x3d159bf7	0.036525693
213	0x3c4352e8	0.011921622
214	0x3c73a814	0.014871616
215	0xbc53a98b	-0.01291884
216	0x3c8c3029	0.017112808
217	0x3bb6ece2	0.005582438
218	0xbae97791	-0.0017812123
219	0xbc9d68f8	-0.019215092
220	0xbca9f0ec	-0.020744763
221	0xbd2150ab	-0.03938357
222	0x3b91719a	0.004438591
223	0x3c6f51d1	0.014606909
224	0x3c12dcc3	0.0089637665
225	0x3c9e8429	0.019350128
226	0x3ca276d2	0.019832049
227	0xbc67b7fe	-0.014142988
228	0xbc49f475	-0.0123263495
229	0xbb958839	-0.004563358
230	0xbba57056	-0.005048792
231	0xbae52789	-0.0017483096
232	0xbcfb7731	-0.030696483
233	0xbcccd2e2	-0.0250029
234	0xbbc52801	-0.0060167317
235	0xbc039b4f	-0.008032634
236	0x3cdee71c	0.02720981
237	0x3b668452	0.0035174084
238	0xbc860064	-0.016357608
239	0xbc629708	-0.013829954
240	0x3c7945ea	0.015214423
241	0x3ca484e6	0.020082902
242	0x3b89fb6d	0.0042108805
243	0xbabaaa1e	-0.0014241373
244	0xbb2e59f2	-0.0026603905
245	0x3bcf1879	0.006320056
246	0x3ad22d4e	0.001603523
247	0xbc449b88	-0.011999972
248	0x3c69d060	0.014270872
249	0xbc5c7804	-0.013456348
250	0xbc71d8d9	-0.014761173
251	0xbbfda9bc	-0.007741181
252	0xbcb96f1a	-0.022635985
253	0xbba688c3	-0.0050822212
254	0x3b874794	0.004128406
255	0x3d109d20	0.035306096

digit_rec.fc1.bias f4 [100]
0	0x3c4a7992	0.012358086
1	0xba7a2d80	-0.0009543523
2	0x3c07e6f6	0.0082948115
3	0x3ae051a7	0.0017114178
4	0xbc5681b9	-0.013092452
5	0xbb2b7a9b	-0.0026165608
6	0x3cb0aca8	0.021566704
7	0x3c07512f	0.008259102
8	0x3c8e5a56	0.01737706
9	0x3c940bed	0.018072093
10	0xbc1ad76c	-0.009450775
11	0xbcda59e2	-0.026654188
12	0xbce3a15c	-0.027786903
13	0xbbda8d59	-0.006669682
14	0xbc9c0f69	-0.019050317
15	0x3c3b9291	0.011448518
16	0x3c89b298	0.016808793
17	0xbc0b2142	-0.008491816
18	0x3c485684	0.012227658
19	0xbbb370b1	-0.0054760803
20	0x3b4d42c7	0.003132032
21	0x3bf08039	0.007339504
22	0xbc9a85e4	-0.018862672
23	0xbc4af47f	-0.012387394
24	0xbacb82a0	-0.00155266
25	0xbcf6156c	-0.030039512
26	0xbc2bb950	-0.010481194
27	0x3bb7fc6a	0.005614807
28	0xbce0d359	-0.027444528
29	0x3c4eb49d	0.012616304
30	0x3b836780	0.004010141
31	0x38db5eac	0.00010460368
32	0xbcce5818	-0.02518849
33	0xbc9a1af7	-0.018811686
34	0xbc13f68a	-0.009030947
35	0xbcbc7116	-0.023003142
36	0xbbb4f9a7	-0.005522925
37	0x3ada412b	0.0016651502
38	0x3cdf6e3a	0.02727424
39	0xbca79f41	-0.02046168
40	0xbc8958aa	-0.016765911
41	0x3c5517e2	0.013006182
42	0xbcb272c9	-0.02178325
43	0xbce95f8a	-0.02848794
44	0x3b7773f1	0.0037758315
45	0x3c08c25f	0.008347123
46	0x3cc368bc	0.023853652
47	0xbc054d69	-0.008136132
48	0xbc76bd8f	-0.015059843
49	0x3bf89603	0.007586242
50	0xbc5e94e1	-0.0135853
51	0x3c5b9f62	0.013404699
52	0x3b8ef6dd	0.0043629245
53	0xbc27859f	-0.010224729
54	0xbbb1ea62	-0.005429552
55	0xbcb015e5	-0.021494815
56	0x3b03b7f2	0.0020098654
57	0x3c9df1f3	0.01928041
58	0xbc6bdb2e	-0.014395518
59	0x3c0f403e	0.008743344
60	0xbabe7cd3	-0.001453305
61	0x3bb1c384	0.0054249186
62	0xbafee70c	-0.001944752
63	0x3cae6e10	0.021292716
64	0xbc29ec73	-0.010371315
65	0x3c644842	0.013933243
66	0xbc9738bc	-0.01845967
67	0x3aae7d5b	0.0013312505
68	0x3afaef09	0.0019144724
69	0xbca62486	-0.020281088
70	0x3a621466	0.00086242554
71	0x3c9d3b48	0.019193307
72	0x3cab3d39	0.020903217
73	0xbbd331e6	-0.0064451573
74	0x3c310594	0.010804553
75	0xbc7f9b0c	-0.015600931
76	0x3c0eefa6	0.008724129
77	0x3c5e0506	0.013551002
78	0x3c847ca1	0.016172709
79	0x3c30ec0b	0.0107984645
80	0xbb9e73e0	-0.0048355907
81	0xbcd29727	-0.02570684
82	0x3c87e320	0.016587794
83	0x3ca63284	0.02028776
84	0xbb41dbcc	-0.0029580472
85	0xbb25074c	-0.0025181351
86	0x3caafeff	0.020873545
87	0x3c9d12c0	0.01917398
88	0xbb99df79	-0.0046958295
89	0x3c165761	0.009176106
90	0xbcee7576	-0.029108744
91	0x39b48e0d	0.00034438111
92	0x3c54bd47	0.01298458
93	0xbc29a57d	-0.010354397
94	0xbc05ed2b	-0.008174221
95	0x3cabf4ae	0.020990696
96	0x3c0e9c21	0.008704216
97	0x3c02e812	0.0079899
98	0x3a36a8d9	0.0006967909
99	0x3caae6ef	0.02086207

digit_rec.fc2.weight f4 [10, 100]
0	0xbdbbdc5f	-0.09172892
1	0x3d2a2556	0.041539513
2	0x3c9ef3da	0.019403387
3	0x3daffe4c	0.08593425
4	0xbd1fa4b4	-0.038975433
5	0x3d2ec1d1	0.042665306
6	0xbe0d86c5	-0.13820942
7	0xbd0204c5	-0.03174283
8	0xbc2bcba0	-0.01048556
9	0x3d1918d0	0.03737718
10	0xbd859239	-0.065220304
11	0x3dc2d69b	0.09513589
12	0x3d617899	0.05504665
13	0x3befd2a7	0.007318813
14	0x3da88690	0.08228791
15	0x3d27d691	0.04097611
16	0xbbc9e6b4	-0.006161535
17	0x3d99b794	0.07505718
18	0xbde51f2f	-0.111875884
19	0x3d465467	0.048420336
20	0xbc8a12ac	-0.016854607
21	0x3d1eea9f	0.03879797
22	0xbdecfa73	-0.11571207
23	0x3d7e1d57	0.0620397
24	0x3db0a14c	0.08624515
25	0x3da4856a	0.08033259
26	0xbd014fbc	-0.03157018
27	0xbb1f02fb	-0.002426325
28	0xbd181ad2	-0.037134953
29	0xbdbad5c3	-0.09122803
30	0xbcc3a9d6	-0.023884695
31	0xbe237620	-0.1596303
32	0x3dc796c0	0.0974555
33	0xbd6df5e9	-0.058095846
34	0x3d1db74e	0.03850489
35	0xbd1d2c45	-0.038372297
36	0x3d82fef9	0.063962884
37	0xbdcd9e99	-0.10040016
38	0x3db73546	0.08945708
39	0xbd257ae1	-0.04040039
40	0xbdb6246a	-0.08893664
41	0x3cf955c6	0.030436408
42	0xbddbf78d	-0.10740576
43	0x3d7d08b2	0.06177587
44	0x3db440e0	0.088014364
45	0x3da13c7e	0.07872866
46	0x3d9bb69f	0.076031916
47	0xbce5213d	-0.02796995
48	0xbe1450c4	-0.14483935
49	0xbd6443cc	-0.05572872
50	0xbdb70519	-0.08936519
51	0x3db39650	0.08768904
52	0x3dd8131b	0.10550519
53	0xbd34ab65	-0.044108767
54	0x3db9f229	0.090793915
55	0xbda26c15	-0.07930771
56	0x3d33ac1d	0.043865312
57	0xbd31b9a3	-0.043389928
58	0x3d58f31e	0.05296623
59	0xbda81473	-0.082070254
60	0x3dec69cc	0.11543617
61	0x3d80dabf	0.062917225
62	0xbd635c4b	-0.05550794
63	0x3de57a25	0.11204938
64	0x3d6f3b6d	0.058406282
65	0x3d7d8b49	0.06190041
66	0x3b8be675	0.004269416
67	0x3db13337	0.086523466
68	0xbd542990	-0.05179745
69	0x3d20ab47	0.039225843
70	0x3bb03696	0.005377601
71	0x3d83735e	0.06418489
72	0x3d7228e5	0.05912103
73	0x3d4c5085	0.049881477
74	0xbd248a87	-0.040171172
75	0x3d90e7d5	0.070754685
76	0xbcf687bb	-0.030094018
77	0xbda1a898	-0.07893485
78	0xbd4ae8f6	-0.049538575
79	0xbdbb6975	-0.09150974
80	0x3dc13920	0.09434724
81	0x3c8ab6f8	0.01693295
82	0x3d582690	0.05277115
83	0x3ca85b72	0.020551417
84	0xbd177141	-0.03697324
85	0xbc2d3e25	-0.010573898
86	0x3d383310	0.044970572
87	0xbe2d4f96	-0.16924891
88	0x3ce43717	0.0278583
89	0x3db3ed17	0.08785456
90	0x3d70a0ee	0.058747225
91	0x3cfae0f9	0.030624853
92	0xbd98f540	-0.07468653
93	0x3d3ec498	0.046574205
94	0x3d7d9a60	0.0619148
95	0x3c1cf8d6	0.0095808115
96	0x3dbc5aac	0.09196982
97	0xbdeac3b3	-0.11463108
98	0xbdbf1763	-0.093306325
99	0xbdbb0ace	-0.0913292
100	0xbc8d43cb	-0.01724424
101	0xbd5a03bf	-0.05322623
102	0x3d8f2c6c	0.06990895
103	0x3dc1a9e1	0.0945623
104	0x3da9d082	0.08291723
105	0xbe03ef7b	-0.12884323
106	0xbd31bbf1	-0.043392126
107	0x3c34677f	0.0110110035
108	0xbdc00839	-0.09376568
109	0x3dbbf82d	0.09178195
110	0xbd8aca7c	-0.06776902
111	0xbd69c249	-0.05707005
112	0x3c8ecad1	0.017430695
113	0x3dadc774	0.08485308
114	0x3dbb92cc	0.09158859
115	0xbdba5ee6	-0.09100132
116	0xbccb1a04	-0.024792679
117	0x3c2d0ec2	0.010562601
118	0x3d6ee991	0.058328215
119	0xbd8bb3ba	-0.068213895
120	0xbd4b9b3a	-0.049708582
121	0xbd565be7	-0.05233374
122	0xbd9d495d	-0.076800086
123	0x3da84059	0.08215398
124	0xbdb9da75	-0.090748705
125	0xbdaaa4c9	-0.083322115
126	0x3d1056c9	0.035239015
127	0x3d60060a	0.05469326
128	0xbd35df42	-0.04440237
129	0x3bd7b27f	0.0065825577
130	0xbd704e7c	-0.0586686
131	0x3d4e625a	0.050386764
132	0x3dc19b41	0.094534405
133	0xbdb7d3b1	-0.08975924
134	0x3d04ec83	0.032452118
135	0xbc76eeee	-0.015071614
136	0x3d39518d	0.04524379
137	0xbc6614da	-0.014043057
138	0x3c349ab4	0.011023212
139	0x3e09a4f7	0.13441835
140	0x3dbc3067	0.091889195
141	0xbd3327cf	-0.043739136
142	0x3d8d30fd	0.068941094
143	0xbd44ee0d	-0.048078585
144	0xbc1e95fa	-0.009679312
145	0xbd250e96	-0.040297113
146	0x3d6ad902	0.05733586
147	0xbd92e061	-0.07171703
148	0x3d7d447a	0.061832882
149	0xbdb12b74	-0.08650866
150	0x3b99c54a	0.004692708
151	0x3d97fe2a	0.07421525
152	0x3dde141c	0.10843679
153	0xbdbd7dbc	-0.092524976
154	0xbd2be263	-0.041963946
155	0xbd418940	-0.047250032
156	0x3daa232a	0.08307488
157	0x3cb67d4c	0.022276543
158	0x3af4b46f	0.0018669496
159	0x3def6865	0.116898336
160	0x3d8bb8f5	0.06822387
161	0x3c5937e0	0.013257951
162	0xbd999f21	-0.075010546
163	0x3c5b9d75	0.01340424
164	0x3d66049b	0.056156736
165	0xbcaf5045	-0.02140058
166	0x3c40b8ac	0.011762779
167	0xbd6894e9	-0.056782637
168	0xbc09c3f9	-0.00840854
169	0xbd7ae009	-0.061248813
170	0x3da55c88	0.080742896
171	0xbd985529	-0.07438118
172	0xbd600eeb	-0.054701727
173	0xbd92638a	-0.07147892
174	0xbd48783c	-0.04894279
175	0xbd0aacfc	-0.033856377
176	0x3c095a06	0.00838328
177	0x3dba2f55	0.09091059
178	0x3d767f49	0.060179982
179	0x3d781dbe	0.06057524
180	0x3dc5d258	0.096592605
181	0xbdbed26a	-0.09317477
182	0xbd3a8815	-0.045539934
183	0x3d4d5c9f	0.05013716
184	0xbd8f536c	-0.06998333
185	0x3dc4503f	0.09585618
186	0x3d29ab62	0.04142321
187	0x3d218684	0.039434925
188	0xbd3bd939	-0.045861457
189	0x3daaee04	0.08346179
190	0xbd854424	-0.065071374
191	0x3d9cc6b0	0.07655084
192	0xbce821cf	-0.028336434
193	0xbdf0a964	-0.11751059
194	0xbd4dd3b5	-0.050250728
195	0xbc83ea7d	-0.016103024
196	0xbcb33859	-0.021877455
197	0x3dae9ca1	0.08525968
198	0x3cd8912e	0.026436415
199	0x3d38542c	0.045002148
200	0x3d5c95ab	0.053853672
201	0xbd805d12	-0.06267752
202	0x3d2dbb08	0.042414695
203	0xbd9ac076	-0.0755624
204	0xbd7fb32d	-0.062426735
205	0x3c31bcae	0.010848207
206	0x3d81f643	0.06345799
207	0x3d391508	0.045186073
208	0xbda53aae	-0.08067833
209	0xbc788ad7	-0.015169821
210	0xbdb6d7e2	-0.08927895
211	0xbcf3427b	-0.029694786
212	0x3d763d33	0.060116958
213	0x3db2c8bb	0.087296925
214	0x3c226a45	0.009913032
215	0xbd8415e4	-0.06449488
216	0x3db04751	0.086073525
217	0x3d6b56e0	0.057455897
218	0xbdb2a005	-0.087219276
219	0x3b98e0f0	0.0046654865
220	0xbd9c22f1	-0.07623852
221	0xbd9d7f02	-0.076902404
222	0xbd8af253	-0.06784501
223	0x3db55f5e	0.088560805
224	0x3d0592b0	0.032610595
225	0x3d968c71	0.07351006
226	0xbd8aae6f	-0.06771552
227	0x3dd203c0	0.102546215
228	0x3c6d3fc4	0.014480535
229	0x3ca3ffaa	0.020019371
230	0x3dcaf23c	0.09909484
231	0x3d4bc251	0.04974586
232	0x3d8573af	0.065162055
233	0xbdc30a37	-0.09523433
234	0xbba55611	-0.0050456603
235	0x3d1d90d9	0.038468216
236	0x3da0d11a	0.07852383
237	0x3d689798	0.056785196
238	0xbd972e58	-0.07381886
239	0xbcf82d2d	-0.030294979
240	0xbc3679c8	-0.011137433
241	0xbd56f241	-0.052477125
242	0xbd34e806	-0.044166587
243	0xbdce0a32	-0.10060538
244	0xbce546e3	-0.027987903
245	0x3daf97e4	0.08573893
246	0xbdba4a7e	-0.090962395
247	0xbc98e3d8	-0.018663332
248	0x3d81870a	0.06324585
249	0x3dc08c81	0.09401799
250	0xbd5882b7	-0.052859034
251	0x3d1d99f4	0.0384769
252	0xbdaf51c6	-0.08560519
253	0x3d39ddc4	0.045377508
254	0xbd1f3202	-0.03886605
255	0x3d593f9a	0.05303917

digit_rec.fc2.bias f4 [10]
0	0xbcc55fa0	-0.02409345
1	0xbd52d2a7	-0.051470425
2	0xbcaa8010	-0.020813018
3	0x3d6af622	0.057363637
4	0x3d35c2dd	0.04437529
5	0xbdd075da	-0.101787284
6	0x3c8fa9df	0.017537056
7	0xbcfd2b91	-0.030904563
8	0x3df1930f	0.11795627
9	0xbd952816	-0.072830364
