outputs/perception/satnet/checkpoint_best.pth (torch, 591247 bytes, 8 tensors)

digit_rec.conv1.weight f4 [20, 1, 3, 3]
000000 2f e5 28 3e 21 a2 17 be d5 2b 79 bd 50 73 06 3e
       0.16493677 -0.14807941 -0.060832817 0.13129926
000010 4d e5 99 be bc e5 5d 3e f5 ff d4 bd fb ff 2d 3e
       -0.30057755 0.21669668 -0.104003824 0.1699218
000020 33 34 ac 3d a3 a2 59 bd b0 57 c6 3d ae af a8 39
       0.08408394 -0.053133618 0.09684694 0.0003217435
000030 99 ac d5 3d 9f 84 0b be 82 06 4e bd ac 19 40 bd
       0.10433311 -0.1362481 -0.050299175 -0.046899483
000040 52 b8 f8 3c 4d 88 91 bc 6a 63 96 3e 7e 45 ec 3d
       0.030361328 -0.017765189 0.29372722 0.11536692
000050 1e 53 10 be 78 ce 5d be bd 48 2b bd 27 06 1c be
       -0.14094207 -0.21660793 -0.041817416 -0.15236722
000060 cc 1c fc bd 60 e4 29 3d c4 1e 59 3e e2 a9 18 3e
       -0.1231018 0.04147756 0.21203142 0.14908555
000070 f4 92 a4 be a8 ad 64 3e ce 79 9a 3d 33 f3 a0 3e
       -0.32143366 0.2233187 0.07542764 0.31435546
000080 79 58 82 3e de c5 ac be fe ec 9c be a3 c6 d4 bd
       0.25458124 -0.3374471 -0.3064956 -0.103894494
000090 c8 6d 95 3e a2 e6 60 bd de c8 24 3e 1f 04 0f be
       0.2918532 -0.05490745 0.1609225 -0.13966416
0000a0 59 56 a9 3e 2b e0 0a be c3 d5 6f 3e 81 dd 1b bc
       0.3307369 -0.13562076 0.23421387 -0.00951326
0000b0 bb 52 48 be 07 6f 3c 3e f9 eb 49 be 53 df 03 3e
       -0.19562809 0.18401729 -0.19718923 0.1287816
0000c0 29 93 cb bd 35 a5 5d bd ec a8 a2 be 33 ef 29 be
       -0.09940178 -0.05411263 -0.31769502 -0.16595154
0000d0 4c 11 56 3e 40 eb a4 bd 8e c5 9a 3e a9 23 80 3e
       0.20905036 -0.08052683 0.30228847 0.25027207
0000e0 22 c6 b0 bc 4b cc 7f be 6a ff 3b 3e 66 33 d3 3d
       -0.021578852 -0.24980275 0.18359151 0.10312538
0000f0 d3 7e 73 be 22 4c 46 3e db d5 56 3e 75 4d 9d 3e
       -0.23778848 0.1936498 0.20980017 0.30723158
000100 06 8d 3f be fc 5d d5 bd db c9 42 3d cc 10 bd 3d
       -0.1870614 -0.10418317 0.047555786 0.092317194
000110 6a fe 80 be b8 17 3a be 45 60 67 3e f7 b4 87 bd
       -0.25194103 -0.1817311 0.22595318 -0.06626313
000120 b6 fc 1a 3e b6 ba 36 3c ba ab eb 3d 17 9d 79 3d
       0.15135464 0.011152914 0.115073636 0.06094083
000130 52 51 ca 3d a7 ac 18 3e bd a1 b0 be 9f f2 0b 3e
       0.09878792 0.14909612 -0.34498397 0.13666771
000140 95 7c 89 be 11 eb 82 be 06 0f 79 bc 87 bf b2 bd
       -0.2685286 -0.25569966 -0.015201336 -0.08727937
000150 9e 14 48 3e 83 54 41 be 1b 81 71 be 2a d3 81 3e
       0.19539115 -0.18879895 -0.23584406 0.25356418
000160 a7 7c 8d bc e6 e4 5a 3e 08 86 03 3e f3 6f 87 be
       -0.017271353 0.2137638 0.12844098 -0.26452598
000170 67 32 63 3d 35 e6 b4 3d 3c cf 53 be f3 c3 21 be
       0.05546799 0.08832971 -0.20684522 -0.15797405
000180 81 49 14 3e 88 0f af 3d 1f 29 29 be 54 ab b1 bd
       0.14481165 0.08547884 -0.16519593 -0.08675256
000190 63 ce 9f 3e d1 8b a3 bd 10 b4 4c 3e 0c 6d 20 3e
       0.31212148 -0.07985652 0.19990563 0.15666598
0001a0 cf 8d 83 be 98 65 90 be fb c9 a6 3e 10 cc 2d 3b
       -0.2569413 -0.2820251 0.32575974 0.0026519336
0001b0 dd 9e 77 3e 1e ba 82 3d 28 b7 b8 3d eb eb 83 3e
       0.24181695 0.06383155 0.09019309 0.2576593
0001c0 5d a8 a0 3e 19 4e 67 be 29 51 83 3d 23 99 84 3e
       0.3137845 -0.22588386 0.064119644 0.25898084
0001d0 13 aa 6f 3e 21 c7 31 3e 94 68 8c be ad 8b 59 be
       0.23404722 0.17361118 -0.27423537 -0.21244688
0001e0 5e 73 7c be 1f 5c 3a 3d cb 3a bd 3e bc 51 24 be
       -0.24653384 0.04549801 0.36958918 -0.16046804
0001f0 87 12 5f 3e 0f f0 19 be 39 c7 a8 be 8b 6a b3 bd
       0.21784411 -0.15032981 -0.32964495 -0.08760556
000200 7a 4f 35 3e 89 98 a7 3e 9c 46 4b be e0 1e 98 3d
       0.17706099 0.32733563 -0.19851154 0.07427764
000210 80 4d 8d 3e 16 3a 50 3e 77 2d 59 3e d7 d5 84 3e
       0.2759819 0.20334658 0.2120875 0.25944397
000220 55 5a 65 3e 60 7f a5 3d 88 52 61 be 24 4b 90 be
       0.2239774 0.080809355 -0.2200414 -0.28182328
000230 f3 09 51 be a7 1f 0f bd 85 2b 4b be 47 df cc 3d
       -0.20413952 -0.034942295 -0.1984082 0.10003524
000240 b6 96 b8 3d c2 41 a8 bd 89 4d f2 3d 02 ce b2 3d
       0.09013121 -0.08215667 0.11831195 0.08730699
000250 59 88 3b 3e cd 15 56 3e 9a a3 01 be 38 7e 9c 3e
       0.18313731 0.20906754 -0.12660065 0.30565047
000260 62 32 52 bd 9b 5a 5e 3c c3 d2 a5 be 0d 37 72 be
       -0.05131758 0.013571407 -0.3238736 -0.23653813
000270 66 ce 41 be 1a f3 07 be cd 23 8f 3e 46 76 08 be
       -0.18926391 -0.1327633 0.27957 -0.13326368
000280 28 b8 62 be 32 15 29 3e 70 60 05 3e 59 1f 66 3e
       -0.22140563 0.16511992 0.13025069 0.22472896
000290 74 e9 3a be e4 0a c6 3d fd 16 c9 bd 45 4a a8 bd
       -0.18253118 0.09670046 -0.09818838 -0.08217291
0002a0 da 02 6f be 84 af 0f be b4 2f a9 bd 42 19 15 3e
       -0.23340932 -0.14031798 -0.08261052 0.14560416
0002b0 45 83 40 3d 7c e9 85 3d 16 c0 ac 3e 5f df 9e 3e
       0.04700019 0.06538674 0.337403 0.31029794
0002c0 7c 3a 5d 3e 9f f0 a2 3c 7b cb 73 be ad 2f 6b 3e
       0.21604341 0.019890128 -0.2380809 0.22967406

digit_rec.conv1.bias f4 [20]
000000 92 0b b8 bd b5 54 ee bc be a0 8f be cc e4 88 bd
       -0.08986582 -0.029093126 -0.28052324 -0.066842645
000010 78 4a 5e be ad 1e 9b 3e d9 6b 97 be de 4f 85 be
       -0.21708095 0.3029684 -0.2957447 -0.26037496
000020 96 96 5a bc 34 bd 40 be c7 e9 d6 3d 1a 61 f7 bd
       -0.013341567 -0.18822175 0.10493808 -0.120790675
000030 3e 5e 1b be 90 4f d5 b1 b2 ab 6b 3e 2e d2 66 be
       -0.1517267 -6.208161e-09 0.23014715 -0.22541115
000040 ee 91 1d 3e 9c b3 5e 3e 6e 58 99 3e 1b d5 70 be
       0.15387699 0.21748203 0.2995028 -0.23518793

digit_rec.conv2.weight f4 [10, 20, 3, 3]
000000 19 e2 d6 ba e7 ea 89 bd 39 9c 9e 3d 84 27 57 bd
       -0.0016394287 -0.06734257 0.07744641 -0.05252792
000010 d5 33 9f 3c 48 5a 30 3c f9 a9 76 ba f7 d6 f4 bc
       0.019433895 0.010763712 -0.0009409483 -0.02988766
000020 70 fe c4 3c 84 3d 0e 3d 57 78 8c 3b 67 4a 55 3c
       0.024047107 0.034726635 0.0042868066 0.013018227
000030 53 29 8a bd d2 d0 5c 3d 61 27 8e 3d 68 8d 91 3d
       -0.06746163 0.053910084 0.06941105 0.07107049
000040 9d a8 2b 3d 3c 36 64 bd 92 b0 02 bd 70 bc 94 3d
       0.04190885 -0.055715784 -0.03190667 0.07262504
000050 a8 07 64 bd 99 31 6d 3d 48 b6 9a bd 18 ae 83 bd
       -0.055671364 0.057908628 -0.07554299 -0.0642969
000060 e7 d2 c2 3c 9d 9b 9f bd 59 71 bc bc ad db e7 3c
       0.023782207 -0.07793353 -0.023003267 0.028302992
000070 6f 79 2a 3d 31 e4 8d 3d d6 3a 66 bd b7 26 83 bd
       0.041619714 0.0692829 -0.056208454 -0.06403869
000080 03 6a bc 3d 48 45 a7 bd 38 a4 a4 bd 9f 9e 01 3d
       0.09199908 -0.08167511 -0.08039135 0.031645413
000090 b6 ee 82 bd cd 1a 44 3d c3 1c 44 3d a5 59 52 bd
       -0.06393187 0.04787712 0.04787899 -0.051355023
0000a0 16 33 65 bd 5b c2 8a bc bb fc 40 3d 91 b5 97 3b
       -0.055956922 -0.016938379 0.047116023 0.0046297987
0000b0 e4 f3 53 bd 3f 11 69 bc b3 11 99 bd 64 bc 5c bd
       -0.051746264 -0.014225303 -0.07474079 -0.0538906
0000c0 43 4f ac bd f9 1f 62 3d 6b 99 6b 3d f6 b8 c7 bc
       -0.084135555 0.055206273 0.057519358 -0.024380188
0000d0 0c d6 2f 3b 60 59 6c 3d 56 78 94 3c f3 aa 12 bd
       0.0026830463 0.057702422 0.018123787 -0.03580756
0000e0 cf 44 00 3d ba e8 87 3d 13 35 e0 bb ff 97 d7 bc
       0.03131562 0.06636186 -0.0068422644 -0.026317595
0000f0 70 84 a5 3d 82 cd 57 3d ab 06 7c bd 8c da 22 3d
       0.08081901 0.052686222 -0.061529797 0.039759204
000100 39 77 b0 3c 6a 80 7b bd cf 14 55 3c 4e bc 3d bd
       0.021541225 -0.061401762 0.013005449 -0.04632216
000110 c9 e6 54 3d f7 4f 8c bd 26 6b 14 3d 1e 0d d8 3c
       0.051977906 -0.068511896 0.036234997 0.026373442
000120 be c0 46 3b b3 72 5f 3d 38 fb 35 bd 5e 28 02 bd
       0.0030327286 0.054552745 -0.044429034 -0.03177678
000130 d6 71 8d bd 1a 33 c7 3b a1 52 4d bd a5 50 04 bd
       -0.06906478 0.00607909 -0.05012763 -0.03230347
000140 6f b0 75 bc 0c 59 76 3d 56 fd a3 3d 20 84 4a 3d
       -0.014995678 0.060143515 0.08007304 0.04944241
000150 ef bb e0 3b 80 27 ea bc 1c 0b 29 bd 63 0c 96 3d
       0.006858341 -0.028583288 -0.04127036 0.07326581
000160 b6 2f 44 bd 69 58 11 bc 1c db 3a 3b c9 1f 10 bd
       -0.047897063 -0.008871176 0.0028511947 -0.035186563
000170 23 4a 4d 3d 62 27 8e 3d 9d 1c 52 3c 44 8f f6 bc
       0.05011953 0.069411054 0.012824205 -0.030097611
000180 e7 62 95 3c 2e 9e 43 bb d5 fd ae bc 58 0b 0f bd
       0.018235637 -0.002984892 -0.02136127 -0.034922928
000190 4f 14 66 bc b1 dc 2a bd 88 5b d6 3c fc f9 a0 3b
       -0.014042928 -0.041714374 0.026166692 0.004912613
0001a0 81 2c e0 bc 8d 4e cd bc 07 20 74 bd a4 03 3f 3c
       -0.027364971 -0.02506187 -0.059600856 0.011658583
0001b0 80 6c f1 3b b6 4c 65 3d 88 a2 07 bd ea e5 a0 bc
       0.0073676705 0.05598136 -0.033113986 -0.019640882
0001c0 10 33 83 bd 13 09 3a bd 79 84 54 3d 65 0b aa bd
       -0.06406224 -0.04541881 0.05188415 -0.083029546
0001d0 08 04 72 bd ab 3c 50 3d ee 9b 2c 3d c6 0c ae 3d
       -0.059085876 0.050839107 0.042140894 0.0849853
0001e0 9d 5d 38 bd 0a da 67 bc f7 7c 37 bb a9 7d 17 bd
       -0.04501115 -0.014151106 -0.0027998069 -0.036985073
0001f0 bf 1b a0 3c 3b d0 ca bc fd e1 ac bc 47 c1 0c 3d
       0.01954448 -0.024757495 -0.021103853 0.03436401
000200 a0 5b 22 bd f9 cd 9f ba 6c 1e 1a 3d f5 71 07 3d
       -0.03963816 -0.0012192122 0.03762667 0.033067662
000210 c3 4f 91 3d 76 5d b8 bd b5 c8 ec bc 84 0d c2 bc
       0.070952915 -0.09002201 -0.028904298 -0.023688085
000220 9c 65 15 bd 5c 26 75 bd 66 f8 0e bb d1 32 b0 bb
       -0.036473855 -0.059851035 -0.0021815537 -0.0053771515
000230 5a 79 46 bd e9 73 87 bd 51 a2 8b bd c9 48 b3 3d
       -0.048455574 -0.06613905 -0.06818069 0.08754117
000240 f7 1e 56 bc 9e c4 91 bc 50 16 25 bd a7 a1 d5 bc
       -0.013068906 -0.01779395 -0.040304482 -0.026078058
000250 c9 81 6c bd c9 ac 5b bd 49 2d 29 3d 89 a8 1c bb
       -0.05774096 -0.053631578 0.041302953 -0.0023904166
000260 78 d1 81 bd c0 81 dd bc 70 b8 51 3d 9e 91 03 3e
       -0.06338781 -0.027039409 0.051201284 0.12848517
000270 ed 73 8a 3d cf f8 b6 3c ab ed 63 3d d7 9b a4 bb
       0.06760392 0.022335438 0.05564658 -0.0050234604
000280 62 32 34 bd a5 2d 73 bd 91 3f c1 3c 38 13 46 bc
       -0.04399336 -0.059369702 0.023589881 -0.012089543
000290 f9 16 19 3c 3f 99 9f bc 7c dd b4 bd a5 6c 37 bd
       0.009343856 -0.019482253 -0.08831307 -0.044781346
0002a0 36 83 9d bc 7d 25 18 bd 33 78 9f bd 72 d9 54 3c
       -0.019227605 -0.037145127 -0.07786598 0.012991296
0002b0 94 46 8d bc 31 8a bf bc 38 6a 25 3d b9 2b 5f 3c
       -0.017245568 -0.023381324 0.0403845 0.013621264
0002c0 2c 0b 90 bc 08 62 9e 3d 2a b0 d2 3c 21 52 d9 ba
       -0.017583452 0.07733542 0.025718767 -0.0016580262
0002d0 14 43 67 3d 44 cb 43 bd f3 88 46 3d 8b cb 23 3c
       0.056460455 -0.04780127 0.04847045 0.009997259
0002e0 1b 87 62 bd bd ac 22 3d 34 6c 90 3c b7 83 cb 3c
       -0.055304628 0.039715517 0.01762972 0.02484308
0002f0 ed 73 52 bc b0 d8 f0 bc ad 25 3f 3b e1 4d 29 3d
       -0.012845022 -0.0294002 0.0029166744 0.041334037
000300 8f 4a 88 3b 02 97 32 bd 23 77 8e 3d 70 f0 e2 bb
       0.0041592787 -0.043601044 0.06956317 -0.006925635
000310 da 89 40 3d 63 98 0a bc 50 f3 4f 3d 0d 0c 37 3c
       0.047006465 -0.008459183 0.05076915 0.011172307
000320 3d 43 bc bd c1 9d 3e 3d 3b 6d bd bc 99 51 e2 bd
       -0.09192512 0.046537165 -0.023123374 -0.1105072
000330 f4 b0 a8 bc a5 53 cb bd 90 52 ef bd 9a e9 a9 bd
       -0.02059219 -0.09928063 -0.116856694 -0.08296509
000340 a1 8b 11 3d 9c 26 da bc 65 66 23 39 e2 8a 07 3d
       0.03553355 -0.026629739 0.00015583036 0.033091433
000350 24 76 4d 3c df 67 70 bd f5 fb a8 3c 17 8e 8f 3c
       0.012540374 -0.05869281 0.020627955 0.017523808
000360 87 3d c1 bd d6 66 01 3c 40 6a 11 bd ac 02 1a bd
       -0.094355635 0.007898053 -0.03550172 -0.037600204
000370 9c 9b 9a bd 01 0b 86 3d ac d5 95 bb 34 24 52 3c
       -0.075492114 0.065450676 -0.004572591 0.012826014
000380 b7 db cf bb 3b 49 fe 3c f3 63 31 bd cc bf 8f bd
       -0.0063433307 0.031040778 -0.04330821 -0.07019004
000390 6f 6b 4b 3c 89 30 74 3c ec 7c 37 bc ee 9e 46 bd
       0.012415751 0.01490415 -0.011199217 -0.04849141
0003a0 af 84 e5 bc 7a 81 b2 bb fc 68 8c bc 09 34 97 bd
       -0.02801737 -0.0054475637 -0.017139904 -0.07382972
0003b0 4f 97 09 3d be ca de 3a b6 b6 4b 3d 3e 63 68 3d
       0.033591565 0.0016997678 0.049734794 0.05673527
0003c0 ad c4 83 bd 14 29 9c 3d a9 e6 61 bd cc cf a5 3d
       -0.06433997 0.076250225 -0.055151615 0.08096275
0003d0 b1 50 b7 bc 78 f6 c3 3c 2f 14 a8 bb 90 51 7b 3d
       -0.022377344 0.023921236 -0.005129359 0.06135708
0003e0 4d 3b ca bc d7 45 7f bd c5 6d ef 3c e8 17 40 3d
       -0.02468648 -0.062322464 0.029227147 0.0468978
0003f0 ea f6 1f 3c dc 67 1e bd d1 5e 70 3d 9f 23 90 3c
       0.009763459 -0.038673267 0.058684174 0.01759511

digit_rec.conv2.bias f4 [10]
000000 9f 22 49 bc e9 8f d3 bb 20 e9 0f 3d 0b 34 2a 3d
       -0.012276321 -0.0064563644 0.035134435 0.04155354
000010 9f be 10 bd 0b c4 83 3d 79 4f fa bc 26 f5 81 bc
       -0.03533804 0.064338766 -0.030555474 -0.015863966
000020 37 d8 55 bd a1 ac 73 3c
       -0.05220815 0.014872701

digit_rec.fc1.weight f4 [100, 1440]
000000 46 dd c4 3c c8 3e bd bc 82 c6 b6 3b 35 8a fe bc
       0.024031293 -0.023101225 0.005577863 -0.031071762
000010 62 ce 7b bc 8d 14 b6 bc eb a3 94 3b b5 be cb bc
       -0.01536903 -0.022226596 0.004536142 -0.02487121
000020 f6 f5 e8 ba 00 b8 b3 bc ff de e3 3b 75 47 52 bc
       -0.0017773497 -0.021938324 0.0069540734 -0.0128344195
000030 1e 98 89 bc bc 40 b3 3c 33 38 04 3c 35 69 76 bc
       -0.016796168 0.021881454 0.00807004 -0.015039732
000040 88 30 ff 3b b5 df 09 3b 1f 67 81 ba 3f 4a 3d 3b
       0.007787768 0.002103788 -0.0009872651 0.0028883365
000050 61 d3 8b 39 aa 27 99 3c 69 5d 2c 3b 17 52 e6 bb
       0.00026669636 0.018695671 0.0026300794 -0.007028829
000060 f1 f4 af 3c 15 77 68 3c e4 62 f6 39 3f ab 0f 3d
       0.021479102 0.014188548 0.00046994456 0.035075422
000070 4e 89 38 3d 2c e1 94 bb c8 a8 d1 bb 1a 45 59 bc
       0.04505282 -0.004543444 -0.006398294 -0.013261104
000080 41 57 38 bc bc 0c 4d bc 41 c7 8b 3c 4a 87 72 bc
       -0.011251272 -0.012515243 0.017062785 -0.014802763
000090 36 8c c9 bc bf 02 a3 bc 47 9a 42 3a 82 9c d3 3c
       -0.02460299 -0.01989877 0.0007423502 0.025831465
0000a0 15 e7 09 3d 83 4b 33 3d 92 6b 6f bb a9 32 e0 bc
       0.033667643 0.043773185 -0.0036532623 -0.027367907
0000b0 5a 88 ac 3c 35 33 74 bc 21 ab 3a 3c 88 be 05 3c
       0.021061111 -0.014904787 0.011393339 0.008163102
0000c0 33 93 20 3c 68 ef 0e 3c 54 67 9e bc 2b ae 5a bb
       0.00980072 0.008724071 -0.01933638 -0.0033367972
0000d0 98 7d 58 bc d6 8f 9d 3c 0f 48 d3 bc 9d 19 21 bc
       -0.013213538 0.019233625 -0.025791196 -0.009832767
0000e0 ad 14 47 3c b0 c8 27 3b c5 ed e5 bb 8a 5d 24 bc
       0.012150926 0.0025601797 -0.0070168697 -0.010032067
0000f0 ec 55 d8 3c f0 ac 0c 3c 46 b3 8a bc 9a ae 58 3c
       0.026408158 0.008586153 -0.016931187 0.013225222
000100 92 16 8c bc 12 5f 97 3c 76 25 86 b9 b3 7e 59 b9
       -0.017100606 0.01847795 -0.00025586382 -0.00020741932
000110 56 6e dd bb a1 52 01 bb 9e 0d 63 bc ba 64 b4 3c
       -0.006757538 -0.0019733089 -0.013858227 0.022020686
000120 cc bb e6 3b 22 17 bc 3c 37 fd 60 bc 3e 6b d1 3b
       0.00704143 0.02296025 -0.013732246 0.006390958
000130 63 b6 c1 3c eb b6 a1 bb cd 0a 99 bc 93 c6 0a bd
       0.02364654 -0.0049351356 -0.018681908 -0.03388078
000140 61 57 a9 bc d2 ff 51 bc 08 5c 1e bc 7b 75 da 3b
       -0.020671548 -0.01281734 -0.009665497 0.006666837
000150 e7 7e 18 bc 6b 1c 36 ba 87 31 c3 3c fc 76 1a ba
       -0.0093076 -0.00069469836 0.023827327 -0.0005892364
000160 43 4e 57 bc cb 8c 97 bc 56 49 91 bc c9 b2 96 bb
       -0.013141218 -0.018499753 -0.017735165 -0.0045989496
000170 51 ac 47 bb 17 cf 4d 3c db c8 60 bc 05 0c 62 bc
       -0.0030467699 0.012561581 -0.013719763 -0.013796811
000180 63 47 82 3b 10 be b8 bb 0a ff 83 3c 11 42 00 bc
       0.003975795 -0.0056378916 0.016112823 -0.007828251
000190 52 5e c3 bb d4 e1 07 bd 26 f9 57 3c 36 73 df bc
       -0.0059621716 -0.03317435 0.01318196 -0.027276617
0001a0 f3 71 6f bc 89 1f fe bc 38 8e 54 3c 4b 9f a2 bb
       -0.01461457 -0.031020897 0.012973361 -0.004962837
0001b0 00 85 1b 3c 4f 57 b5 bc a5 60 60 3b 80 3e e9 3b
       0.009492159 -0.022136359 0.0034237292 0.0071180463
0001c0 62 0b 2d 3c 30 3a 9b 3c 27 e9 86 3b 7f 12 4c bb
       0.010561796 0.018948644 0.0041171494 -0.0031138954
0001d0 68 6e 11 3c f6 a7 12 bc d5 72 dd ba 69 ea ca bc
       0.008876421 -0.008951178 -0.0016895185 -0.024769979
0001e0 94 b7 e3 bc 26 fd 8d bc 28 7b 75 3b 1b 25 a0 3b
       -0.027797498 -0.017332625 0.003745744 0.004887236
0001f0 8f bc 6a 3a 7b 42 9f 3c da 45 84 3c e6 8f 4a bb
       0.0008954489 0.01944088 0.01614659 -0.0030908524
000200 16 a1 0d 3d 7d f2 40 bc dd 47 02 3c ba 19 17 3c
       0.03457745 -0.011776564 0.007951704 0.009222442
000210 d8 7f 14 3c ab 34 f5 bb 04 90 c5 bc d5 84 ba 3c
       0.009063683 -0.007483085 -0.024116524 0.022768417
000220 7f e7 53 3b 97 67 11 3d 08 e8 d8 3c 4a 54 b5 3c
       0.0032334027 0.03549918 0.026477829 0.022134919
000230 8e 23 22 3c c4 b5 c8 ba a0 19 3b bc 28 3d a2 3b
       0.009896172 -0.001531296 -0.011419684 0.004951138
000240 61 dc cd 3c 91 ea 3a 3c 0f db 94 3c 61 b1 05 3c
       0.025129499 0.011408464 0.018170862 0.008159966
000250 5d 95 97 3c 8e 3e 7d bc 38 b7 a7 bc 27 1f 30 bb
       0.01850384 -0.015456809 -0.020473108 -0.0026874037
000260 3d d2 5a bc 05 51 87 bb d4 fb 9d bb 1f 2a c1 3c
       -0.013355789 -0.0041295313 -0.00482128 0.023579655
000270 68 3f 74 bb 27 e0 d2 3c ac 05 e4 bc db 26 b8 bc
       -0.0037269238 0.02574165 -0.027834736 -0.022479465
000280 66 28 33 3c 29 f9 21 3c b9 2b 9e 3b c9 cd 67 b9
       0.010934925 0.009886065 0.0048269895 -0.00022106538
000290 31 8a 28 3c 88 5e 81 3c c5 90 2d 3c ae 7f 13 3c
       0.010286854 0.015792146 0.010593598 0.009002609
0002a0 2c f8 45 bc c6 69 8d 3c 55 f7 05 bc f2 b5 85 3b
       -0.012083095 0.01726235 -0.008176644 0.0040805275
0002b0 62 35 6a 3c b5 53 bf 3c 30 47 41 3c d5 a6 cc bb
       0.014294954 0.023355344 0.011796758 -0.006245474
0002c0 cd 2d 42 3c f3 71 9a 3c 7a 8f 5d 3b a2 5e de bb
       0.01185174 0.018853163 0.0033807443 -0.0067861835
0002d0 c0 8e 90 3b 04 ea 3a bc 8e ae 86 ba 8f ff 17 b8
       0.0044115484 -0.011408333 -0.001027541 -3.6239213e-05
0002e0 e7 8b c3 3b b3 df 52 bc 1a 65 84 3c 3b e9 ea 3c
       0.0059676054 -0.012870717 0.01616149 0.028675666
0002f0 3c 9c 61 3d 5f 42 ba 3c 4b d1 6d bc 52 c2 8b bc
       0.055080637 0.022736726 -0.014515231 -0.017060433
000300 f1 87 74 3c a7 2f 9a bc b2 3d 08 3d 09 b2 c7 3a
       0.014924989 -0.01882155 0.033261962 0.0015235554
000310 3a 97 ee bb 46 67 a4 bc 70 f6 a3 3c b5 95 06 3d
       -0.007281211 -0.020068776 0.020014971 0.032857616
000320 02 7a ff 3c 30 0b 93 3c ce c4 82 3c 3f 4f 96 3c
       0.031186108 0.01794967 0.015962984 0.018348334
000330 98 53 ec 3c d6 a8 e5 bb b0 26 ad 3c fd 6c 6b 3c
       0.028848454 -0.007008652 0.021136612 0.014369247
000340 a5 bc eb bc c4 87 b9 3b fc 36 39 3c 30 63 d3 3a
       -0.028776476 0.0056619365 0.011304613 0.0016127583
000350 4f 97 15 3d 44 9a 43 3c 05 b1 73 3c 87 ae 53 bc
       0.036521252 0.011938635 0.014873748 -0.0129200285
000360 17 4a 8c 3c b7 c7 b8 3b 24 9a ea ba ff 37 9e bc
       0.017125173 0.0056390422 -0.0017898721 -0.01931381
000370 2d 96 a9 bc ad 34 21 bd 35 17 8f 3b 15 7b 6f 3c
       -0.020701492 -0.039356876 0.00436678 0.014616747
000380 3d 9d 12 3c a3 92 9e 3c e7 75 a2 3c 9e b9 67 bc
       0.008948621 0.019357031 0.01983161 -0.014143376
000390 bd df 49 bc 43 31 95 bb 35 96 a4 bb 78 89 e6 ba
       -0.01232141 -0.0045529916 -0.005022789 -0.0017588576
0003a0 b2 53 fb bc 17 76 cc bc 9a 6e c5 bb ba cc 03 bc
       -0.030679557 -0.024958653 -0.0060251476 -0.008044416
0003b0 2f d9 de 3c 7d 91 65 3b 83 03 86 bc 7d 9b 62 bc
       0.02720317 0.0035029345 -0.016359096 -0.013831017
0003c0 2c 8a 79 3c 40 c3 a4 3c d4 5b 8b 3b ef 5d c0 ba
       0.015230697 0.020112634 0.00425289 -0.0014676432
0003d0 54 4a 30 bb 29 02 d0 3b c9 58 cf 3a 5c b6 44 bc
       -0.0026899772 0.0063479138 0.0015819307 -0.0120063685
0003e0 0b 93 69 3c 91 9e 5c bc 98 d9 71 bc d5 a8 fd bb
       0.014256249 -0.01346554 -0.014761351 -0.0077410736
0003f0 08 5d b9 bc 50 95 a6 bb c3 e9 84 3b ea 4a 10 3d
       -0.022627369 -0.0050837174 0.004056187 0.035227694

digit_rec.fc1.bias f4 [100]
000000 0f 7f 4a 3c 03 cd 78 ba 12 f4 07 3c 8c 69 e0 3a
       0.012359395 -0.00094909983 0.008297937 0.0017121299
000010 d3 81 56 bc 74 54 2b bb 0f b9 b0 3c cc 49 07 3c
       -0.013092476 -0.0026142867 0.021572618 0.008257341
000020 6a 63 8e 3c 99 08 94 3c 33 cd 1a bc 27 58 da bc
       0.017381389 0.018070506 -0.009448337 -0.026653362
000030 f3 a0 e3 bc ca 9e da bb f1 0f 9c bc c3 91 3b 3c
       -0.027786708 -0.006671761 -0.01905057 0.0114483265
000040 83 b0 89 3c 1d 2b 0b bc 19 5b 48 3c 55 84 b3 bb
       0.0168078 -0.008494166 0.012228751 -0.0054784217
000050 f8 80 4d 3b 20 73 f0 3b 5d 83 9a bc 3a fd 4a bc
       0.003135739 0.0073379427 -0.018861467 -0.0123894755
000060 bb 91 cb ba fe 15 f6 bc 94 a8 2b bc 5e 0c b8 3b
       -0.0015531102 -0.030039784 -0.010477204 0.0056167087
000070 c2 d0 e0 bc 00 ab 4e 3c 37 6d 83 3b 0d bb d3 38
       -0.027443293 0.012614012 0.004010822 0.00010096105
000080 64 5b ce bc 8c 16 9a bc 36 fc 13 bc 38 74 bc bc
       -0.025190063 -0.01880958 -0.0090323 -0.023004636
000090 4a f0 b4 bb 63 3f da 3a 1c 6e df 3c 7b a0 a7 bc
       -0.0055218088 0.0016650971 0.027274184 -0.020462265
0000a0 38 5a 89 bc 7f 1b 55 3c 6e 70 b2 bc 84 5d e9 bc
       -0.016766652 0.013007044 -0.021782126 -0.028486975
0000b0 9d 57 77 3b 2b c6 08 3c f8 6e c3 3c 4c 4d 05 bc
       0.003774143 0.008348028 0.023856625 -0.008136105
0000c0 3b bb 76 bc 44 7e f8 3b 7c 96 5e bc af a2 5b 3c
       -0.015059288 0.0075834114 -0.013585683 0.013405486
0000d0 44 e8 8e 3b 50 7b 27 bc 2a e4 b1 bb 5f 13 b0 bc
       0.0043611843 -0.010222271 -0.0054288106 -0.021493612
0000e0 a9 02 04 3b a9 f7 9d 3c 82 e6 6b bc fe 37 0f 3c
       0.0020143187 0.019283133 -0.014398219 0.008741377
0000f0 8d 5e be ba bf cf b1 3b 93 c6 fe ba d7 74 ae 3c
       -0.0014524028 0.0054263766 -0.0019437842 0.021295948
000100 97 e6 29 bc 75 63 64 3c 43 33 97 bc 3b 4e ae 3a
       -0.010369918 0.013939728 -0.01845706 0.0013298461
000110 fd 46 fb 3a 68 1c a6 bc 7c c9 62 3a 4c 3f 9d 3c
       0.0019170936 -0.020277217 0.00086512393 0.019195221
000120 0c 40 ab 3c 96 24 d3 bb 37 06 31 3c b5 96 7f bc
       0.020904563 -0.0064435704 0.010804704 -0.015599896
000130 84 f4 0e 3c df fa 5d 3c 32 80 84 3c 8a ef 30 3c
       0.008725289 0.013548582 0.01617441 0.010799298
000140 fb 7c 9e bb 95 95 d2 bc bf e4 87 3c a3 2c a6 3c
       -0.004836676 -0.025706092 0.016588567 0.020284956
000150 39 eb 41 bb 7d 06 25 bb cb fe aa 3c 35 0d 9d 3c
       -0.0029589667 -0.002518087 0.020873448 0.019171337
000160 49 c3 99 bb d1 41 16 3c 7c 74 ee bc 74 04 b3 39
       -0.0046924693 0.009170965 -0.029108278 0.00034144858
000170 17 c6 54 3c f1 9c 29 bc ec ed 05 bc 60 f0 ab 3c
       0.012986681 -0.010352359 -0.008174401 0.020988643
000180 dc a6 0e 3c d7 f1 02 3c 37 60 36 3a 59 eb aa 3c
       0.008706775 0.007992229 0.0006957086 0.020864176

digit_rec.fc2.weight f4 [10, 100]
000000 86 90 bb bd f2 ea 29 3d e6 e9 9f 3c ee 04 b0 3d
       -0.09158425 0.041483827 0.019520711 0.0859469
000010 71 a3 1f bd a3 cd 2e 3d af 78 0d be 35 f4 01 bd
       -0.03897423 0.04267658 -0.13815568 -0.031727035
000020 7f be 2a bc cc 84 19 3d 50 25 85 bd f8 bb c2 3d
       -0.010421394 0.03748016 -0.065012574 0.095085084
000030 a9 78 61 3d 09 c3 f0 3b a0 3a a8 3d 93 75 27 3d
       0.05504671 0.0073474688 0.08214307 0.040883612
000040 1e e4 ca bb 3f b1 99 3d a3 ee e4 bd 60 5f 46 3d
       -0.0061917445 0.0750451 -0.11178329 0.0484308
000050 d6 7f 89 bc b8 32 1e 3d d2 ce ec bd 48 47 7e 3d
       -0.01678459 0.038622588 -0.11562885 0.062079698
000060 a6 7c b0 3d 6b 72 a4 3d c3 62 00 bd 79 02 1e bb
       0.08617525 0.08029636 -0.031344187 -0.002411036
000070 31 fc 17 bd 1f b3 ba bd 66 59 c3 bc ac 59 23 be
       -0.037105743 -0.09116196 -0.02384634 -0.15952176
000080 12 90 c7 3d 24 d4 6d bd ea da 1d 3d 25 38 1d bd
       0.09744276 -0.05806364 0.03853885 -0.03838362
000090 26 02 83 3d b6 8a cd bd 85 65 b7 3d 58 67 25 bd
       0.06396894 -0.10036223 0.0895491 -0.04038176
0000a0 97 24 b6 bd 14 cf f8 3c 50 bb db bd 05 e7 7c 3d
       -0.08893698 0.03037218 -0.107290864 0.061743755
0000b0 17 17 b4 3d ec 6a a1 3d 3f 98 9b 3d 4b 20 e5 bc
       0.087934665 0.07881722 0.07597398 -0.0279695
0000c0 6c 36 14 be 9a 6f 64 bd ef e9 b6 bd b4 a4 b3 3d
       -0.14473885 -0.055770494 -0.08931338 0.08771649
0000d0 80 20 d8 3d e4 45 34 bd a7 ad b9 3d ca 3d a2 bd
       0.10553074 -0.044011965 0.09066325 -0.079219416
0000e0 e1 f6 33 3d 81 52 31 bd bc 4c 58 3d 81 e6 a7 bd
       0.043936614 -0.043291572 0.052807555 -0.08198262
0000f0 1d 44 ec 3d ec ec 80 3d a1 76 62 bd ea 48 e5 3d
       0.11536429 0.06295189 -0.055288915 0.11195548
000100 7c 84 6f 3d d8 df 7c 3d 6a 69 8b 3b e3 46 b1 3d
       0.058475956 0.06173691 0.0042545097 0.08656099
000110 e8 0b 54 bd b5 83 20 3d 54 cb ae 3b d4 8f 83 3d
       -0.051769167 0.039188106 0.005334297 0.064239174
000120 5e 52 71 3d 1a 9d 4c 3d 57 b9 23 bd ae d5 90 3d
       0.058916442 0.04995451 -0.039971676 0.07072006
000130 70 36 f5 bc 49 75 a1 bd 1e a6 4a bd 62 29 bb bd
       -0.029933184 -0.078836985 -0.049474828 -0.091387525
000140 42 5e c1 3d 57 2b 8c 3c 1c da 57 3d b4 7a a8 3c
       0.094418064 0.01711051 0.05269824 0.020566322
000150 a6 21 17 bd 99 3f 2d bc 09 38 38 3d dc 1f 2d be
       -0.036897324 -0.010574245 0.044975314 -0.16906685
000160 7c ef e4 3c f7 ed b3 3d 0b 51 70 3d 17 95 fb 3c
       0.027946226 0.087856226 0.05867104 0.03071074
000170 02 aa 98 bd 00 ab 3e 3d 58 90 7d 3d 42 d1 1d 3c
       -0.074543014 0.046549797 0.061905235 0.0096324105
000180 b7 93 bc 3d 34 98 ea bd d6 ba be bd a6 c2 ba bd
       0.09207862 -0.11454812 -0.0931298 -0.091191575
000190 2c 4e 8e bc fe 27 5a bd 6d 0d 8f 3d 3a 99 c1 3d
       -0.01737126 -0.053260796 0.06984983 0.09453054
0001a0 4d d0 a9 3d a4 db 03 be c5 b1 31 bd d1 f7 35 3c
       0.08291683 -0.12876755 -0.043382425 0.011106447
0001b0 64 e4 bf bd fd de bb 3d e5 ce 8a bd 5c e6 69 bd
       -0.09369734 0.09173391 -0.06777743 -0.057104453
0001c0 2e ca 8e 3c 3a cd ad 3d 4c 99 bb 3d 13 69 ba bd
       0.017430391 0.084864095 0.091600984 -0.091020726
0001d0 04 06 cb bc eb 46 2d 3c 49 0e 6f 3d ab a8 8b bd
       -0.024783142 0.01057599 0.058363233 -0.0681928
0001e0 07 a9 4b bd 17 f9 55 bd 29 66 9d bd 2b 1a a8 3d
       -0.049721744 -0.052239504 -0.07685501 0.08208116
0001f0 88 bb b9 bd b4 95 aa bd 15 e9 0f 3d 91 93 60 3d
       -0.09068972 -0.08329335 0.035134394 0.05482823
000200 9a 66 35 bd 5f 52 d7 3b 6a 6b 70 bd 1d 0a 4e 3d
       -0.0442873 0.0065710987 -0.058696188 0.050302614
000210 15 ea c1 3d cd c1 b7 bd 56 cd 04 3d 69 ef 75 bc
       0.09468476 -0.089725114 0.032422386 -0.015010693
000220 87 83 38 3d 9f 29 67 bc 79 54 32 3c 83 8f 09 3e
       0.04504731 -0.014109044 0.010884398 0.13433652
000230 09 35 bc 3d f9 34 33 bd 33 4d 8d 3d c3 70 44 bd
       0.09189803 -0.04375169 0.0689949 -0.0479591
000240 37 96 1d bc c4 2c 25 bd 5e 53 6a 3d 5c e0 92 bd
       -0.009618334 -0.040325895 0.05720841 -0.071716994
000250 0c 58 7d 3d e6 1f b1 bd e3 b5 97 3b 66 ec 97 3d
       0.061851546 -0.08648662 0.004629837 0.07418136
000260 10 ef dd 3d b3 81 bd bd 0e 9f 2b bd 75 3e 41 bd
       0.10836613 -0.09253254 -0.041899733 -0.047178704
000270 50 41 aa 3d 38 12 b5 3c a4 d3 eb 3a 38 52 ef 3d
       0.083132386 0.022103414 0.0017992151 0.11685604
000280 4d d5 8b 3d f4 1f 5a 3c f1 7b 99 bd 67 c5 5c 3c
       0.06827793 0.013313282 -0.07494343 0.013474799
000290 bf 1d 66 3d a7 48 af bc f4 3d 42 3c 6d 60 68 bd
       0.05618071 -0.021396948 0.011855591 -0.056732584
0002a0 0a 9d 09 bc 15 c2 7a bd 78 54 a5 3d c2 4c 98 bd
       -0.008399257 -0.061220247 0.08072752 -0.074365154
0002b0 4e f2 5f bd 7f 64 92 bd 64 7c 48 bd 69 59 0a bd
       -0.05467444 -0.07148074 -0.048946753 -0.033776674
0002c0 8d 66 09 3c e2 43 ba 3d 9e c1 76 3d cf 08 78 3d
       0.008386266 0.09094979 0.06024324 0.060555276
0002d0 2f c3 c5 3d 5b bb be bd 84 57 3a bd 79 c0 4c 3d
       0.09656369 -0.09313079 -0.045493618 0.049988244
0002e0 66 3b 8f bd 73 50 c4 3d 2f d9 29 3d 04 23 22 3d
       -0.06993751 0.09585657 0.041466888 0.039584175
0002f0 7f 7f 3b bd 70 23 ab 3d 16 09 85 bd 7a d1 9c 3d
       -0.045775887 0.083563685 -0.06495874 0.07657142
000300 e1 23 e9 bc bd 6e f0 bd 25 b8 4d bd 5b 36 84 bc
       -0.028459491 -0.11739872 -0.050224442 -0.0161392
000310 9d 06 b3 bc 93 8e ae 3d 03 88 d9 3c dc b4 38 3d
       -0.02185374 0.085232876 0.026554113 0.045094356
000320 f4 67 5c 3d 03 7e 80 bd a1 e8 2d 3d 1d b7 9a bd
       0.053810075 -0.06274035 0.04245818 -0.07554457
000330 e7 b2 7f bd 5c 1d 30 3c da fd 81 3d 8f 68 39 3d
       -0.062426474 0.010749187 0.063472465 0.04526573
000340 23 48 a5 bd ea 1e 76 bc 3f 8b b6 bd d9 b4 f2 bc
       -0.080703996 -0.015022019 -0.08913278 -0.02962725
000350 5e 3d 76 3d 5e b6 b2 3d 22 54 22 3c 18 d2 83 bd
       0.060117118 0.0872619 0.009907754 -0.064365566
000360 80 45 b0 3d 3e 41 6b 3d 0f 6d b2 bd c0 59 96 3b
       0.08607006 0.057435267 -0.087122075 0.0045883358
000370 5c 2c 9c bd d9 33 9d bd 88 c7 8a bd 8a 86 b5 3d
       -0.076256484 -0.07675905 -0.06776339 0.08863552
000380 a1 e4 05 3d 19 80 96 3d 50 7f 8a bd 0e e2 d1 3d
       0.03268874 0.073486514 -0.06762564 0.10248195
000390 96 df 6c 3c 87 ee a3 3c 9d b0 ca 3d 73 51 4c 3d
       0.014457604 0.0200112 0.098969676 0.049882364
0003a0 f0 0e 85 3d 6d ff c2 bd eb 9c a6 bb 0e b4 1d 3d
       0.0649699 -0.09521375 -0.005084624 0.03850179
0003b0 3f b3 a0 3d 4d 9b 68 3d f2 f7 96 bd 8e 52 f7 bc
       0.078466885 0.05678873 -0.073715106 -0.030190732
0003c0 07 5d 36 bc b4 fc 56 bd 60 f4 34 bd 5e 12 ce bd
       -0.011130578 -0.05248709 -0.044178367 -0.10062097
0003d0 71 00 e5 bc a6 ad af 3d 29 24 ba bd d6 e3 98 bc
       -0.027954312 0.08578043 -0.09088928 -0.018663328
0003e0 fb 8c 81 3d 4c 69 c0 3d 94 09 58 bd 81 f5 1c 3d
       0.06325718 0.09395084 -0.05274351 0.03832007
0003f0 3d 40 af bd ec 84 39 3d ea 62 1f bd 32 e3 58 3d
       -0.08557174 0.04529278 -0.03891269 0.052951045

digit_rec.fc2.bias f4 [10]
000000 9b 51 c5 bc ff da 52 bd 99 87 aa bc cb c0 6a 3d
       -0.024086764 -0.051478382 -0.020816611 0.057312768
000010 ba 9d 35 3d b2 4e d0 bd 12 0c 90 3c 51 64 fd bc
       0.044339873 -0.1017126 0.01758388 -0.030931624
000020 56 82 f1 3d eb 18 95 bd
       0.11792438 -0.07280143
