outputs/perception/big_kaggle/checkpoint_last.pth (torch, 591247 bytes, 8 tensors)

digit_rec.conv1.weight f4 [20, 1, 3, 3]
000000 69 6f 33 3e bd c7 3d be 52 d0 11 be 86 d9 0b 3e
       0.17522968 -0.18533225 -0.14239624 0.13657197
000010 3d 5e aa be d9 c7 47 3e e4 44 e9 bd c6 10 32 3e
       -0.33275023 0.1950983 -0.11390093 0.17389211
000020 b4 d0 86 3c f8 e6 95 bd 9b 09 cd 3d ee 75 30 bd
       0.01645694 -0.073194444 0.10011598 -0.043081217
000030 5b 93 3b 3e 93 45 d8 bd d7 2b ba bd 70 9e 07 bd
       0.1831793 -0.10560145 -0.09090393 -0.033110082
000040 d8 97 59 3c da c4 66 bd a1 34 84 3e 8c c6 a0 3d
       0.013280831 -0.056340076 0.25821403 0.0785037
000050 50 e7 0c be d2 0a 52 be 3b dd d3 bd 41 b3 01 be
       -0.13760114 -0.2051194 -0.10344931 -0.12666036
000060 81 0b ad bd dd e8 98 bb 67 23 77 3e 60 e1 3f 3e
       -0.0844946 -0.0046664313 0.24134599 0.18738317
000070 79 1d ac be 0d f3 55 3e 79 68 fb 3d 56 fb a0 3e
       -0.33616236 0.20893498 0.12275786 0.31441754
000080 73 a0 87 3e 0d ad 8d be 36 33 a1 be 21 05 0c be
       0.264896 -0.2767109 -0.31484383 -0.13673832
000090 8c 46 82 3e 72 7a 8c bd 7e 6b 0d 3e 13 00 40 be
       0.25444448 -0.06859292 0.13810536 -0.18750028
0000a0 dc ad 92 3e f1 92 2d be ac 19 4a 3e 83 c5 b0 bd
       0.2864827 -0.16950585 0.19736356 -0.08631422
0000b0 2a fb 8e be d0 30 61 3e 2e 2c f2 bd 8e b5 18 3e
       -0.27925998 0.21991277 -0.11824833 0.14913008
0000c0 8b 46 d6 bd cd 8e 35 bd a0 a3 be be 28 b4 17 be
       -0.10462674 -0.04432564 -0.3723421 -0.14814818
0000d0 0b 99 85 3e 0b a5 28 bd 4b 8e 73 3e 66 4b 45 3e
       0.26093325 -0.041173022 0.23784749 0.19267043
0000e0 49 b6 b6 bd 71 36 91 be 23 2a dc 3d 91 6a 07 3d
       -0.08921487 -0.28361848 0.107502244 0.033060614
0000f0 52 12 84 be ce 7e c9 3d 5d bf f9 3d 42 b5 a9 3e
       -0.25795227 0.09838639 0.12194703 0.331461
000100 e3 9a 15 be 1f 9a a9 bd f1 88 9c 3c 2a cc 7b 3d
       -0.14609866 -0.082813494 0.019108268 0.061474003
000110 91 aa 7f be 69 6a 7d be 22 55 56 3e 64 a9 a3 bd
       -0.2496741 -0.24747624 0.20930913 -0.07991293
000120 0a 73 15 3e 08 d1 bb bb ae 1f f7 3d bf dc 4d 3d
       0.14594665 -0.0057317056 0.12066589 0.050259348
000130 62 d0 98 3d 85 2d f9 3d 79 3a b7 be 2e 03 17 3e
       0.07461621 0.12166885 -0.357868 0.14747307
000140 a6 08 8f be 28 ba 84 be b8 67 1c bd 82 3b 49 bc
       -0.27936286 -0.25923276 -0.03818485 -0.012282254
000150 e3 f6 3e 3e 64 02 27 be c8 39 9b be 82 7e 99 3e
       0.18648867 -0.16309506 -0.3031752 0.2997933
000160 5c 7a 3c 3d 4b 2c 4f 3e 3f 48 f0 3d 7c a7 96 be
       0.04601513 0.2023174 0.1173253 -0.29424655
000170 bf 01 2d 3e 81 fe 27 3e a5 ff 85 be 02 9c 17 be
       0.16895197 0.1640568 -0.26171604 -0.14805606
000180 2e 17 2b 3e 3b 67 43 3d 00 a5 42 be 04 de 10 be
       0.16708061 0.04770587 -0.19008255 -0.14147192
000190 99 01 9e 3e 40 1c b7 bd aa 0c 36 3e 6a 06 f6 3d
       0.30860594 -0.08940935 0.17778268 0.12012942
0001a0 43 f0 8f be 96 c1 b9 be e8 45 93 3e 7c a8 9f 3a
       -0.28112993 -0.36280507 0.28764272 0.001218095
0001b0 39 14 9e 3d 13 12 d1 bc e5 76 1b bd ea 9d f0 3d
       0.07718701 -0.025521314 -0.037955184 0.1174887
0001c0 02 81 45 3e fb 93 9b be 34 6c 27 bd 65 72 26 3e
       0.19287494 -0.30386338 -0.040874675 0.16254576
0001d0 bf f5 34 3e 3f 67 97 3e f1 e8 8d be 17 f4 93 be
       0.1767187 0.29570958 -0.27716783 -0.28897163
0001e0 e9 3e 67 be 73 de 15 3c fa b6 bd 3e 92 f0 01 be
       -0.22582592 0.009147274 0.37053663 -0.12689427
0001f0 21 b1 89 3e ae d2 2c be 5f a0 e4 be 27 fe d9 bd
       0.2689295 -0.16877243 -0.44653603 -0.10644179
000200 3b d2 13 3e 6e 7f 59 3e dc e4 6c be aa 4b 33 3c
       0.14435665 0.21240017 -0.23134178 0.010943333
000210 1f a5 86 3e 88 32 46 3e e5 f7 47 3e af 43 84 3e
       0.26297852 0.19355214 0.19528158 0.25832888
000220 67 e3 8c 3e 99 13 23 3e 15 ea 65 be f2 91 43 be
       0.27517244 0.15925445 -0.22452576 -0.19098642
000230 59 62 23 be 62 1c 15 bd ce 32 01 be 43 84 c2 3d
       -0.15955485 -0.03640402 -0.12617037 0.09497883
000240 a5 2a 02 3b 81 f4 08 be 4f 33 6c 3d 93 22 80 3c
       0.0019861844 -0.13374521 0.05766612 0.015641486
000250 4a 91 c8 3d d7 a8 17 3e b9 ad 3f be c2 f1 6f 3e
       0.09793337 0.14810501 -0.18718614 0.23432067
000260 88 38 d4 bd 06 07 e1 3d 6b 6e 9f be 7d 87 24 bd
       -0.10362345 0.10987668 -0.3113893 -0.040168274
000270 e3 75 04 bd 44 a0 db bd 1e d5 aa 3e 1a f8 04 be
       -0.032338988 -0.107239276 0.3336572 -0.12985268
000280 25 18 74 be 99 47 51 3e e5 d4 5e 3e b2 22 9a 3e
       -0.23837335 0.20437469 0.217609 0.30104595
000290 6a 1d 90 bd fe db 7f 3e 3e 45 97 bd 3c ea 09 be
       -0.0703686 0.24986264 -0.07386254 -0.1346826
0002a0 00 c3 20 be ed 6c 15 be e7 19 48 be e8 48 03 3d
       -0.15699387 -0.14592333 -0.19541131 0.03205195
0002b0 bc a5 90 bd 12 8e 5a bd 66 27 82 3e b0 93 2e 3e
       -0.07062861 -0.053358145 0.25420684 0.17048526
0002c0 05 ff c0 3d f4 b3 8b bd 5b 44 9e be a5 93 f7 3d
       0.09423641 -0.06821433 -0.30911526 0.12088708

digit_rec.conv1.bias f4 [20]
000000 8e 5f c1 bd 50 1f 11 bd 0a ec 8f be 9c 10 88 bd
       -0.09442054 -0.035430253 -0.2810977 -0.06643793
000010 ad 01 66 be 93 7f a1 3e c3 fd 9f be 8e 41 82 be
       -0.22461577 0.31542644 -0.31248292 -0.2544064
000020 e6 c4 bf bb fd 7b 42 be e7 b5 f1 3d d4 2d f0 bd
       -0.0058523295 -0.1899261 0.11802273 -0.11727491
000030 7a 07 1b be ac b1 e4 3c 9a 4d 76 3e 08 b7 61 be
       -0.15139571 0.027916752 0.2405304 -0.22042477
000040 38 f5 04 3e 7d 9e 64 3e 61 10 ab 3e 04 7c 7d be
       0.12984169 0.22326083 0.33410934 -0.2475434

digit_rec.conv2.weight f4 [10, 20, 3, 3]
000000 61 85 67 3d 9e 9d ef 3c 53 24 95 3d 13 ff 18 bb
       0.056523684 0.029249962 0.07282319 -0.0023345395
000010 a1 81 fc 3c fc 41 24 3d eb 41 5c bd bd 27 b4 bb
       0.03082353 0.04010199 -0.0537738 -0.0054979012
000020 33 5f 12 bc 81 06 2e bd 0d 29 eb bc 07 60 bb 3b
       -0.00893383 -0.04248667 -0.028706098 0.0057182345
000030 a7 a9 cb bd 6b 1e ae 3c 90 b9 4c 3d 2e 44 ab 3c
       -0.09944468 0.021254739 0.049981654 0.020906534
000040 6c 66 83 3c f7 37 38 bd a3 5b a8 bc 68 5e 88 3d
       0.01604005 -0.044975247 -0.020551508 0.066586316
000050 e5 f1 aa 3c 97 4c 0d bc dc 0d a9 bd 69 e1 e7 bd
       0.020867297 -0.0086242175 -0.082545966 -0.113222905
000060 36 6d 6a 3d e7 b9 78 bd 71 3d ad bc 3b 91 d4 bd
       0.057233058 -0.060724165 -0.021147462 -0.10379263
000070 e1 8c 12 bd e7 82 6a 3d 23 91 38 bd 2a 9e 97 3d
       -0.035778884 0.057253744 -0.04506029 0.07403214
000080 1f 10 2d 3e e8 ff a8 3d 45 28 a9 3d a6 2e 14 3e
       0.16900681 0.08251935 0.08259634 0.1447092
000090 19 a1 06 3d db 94 4a 3d 12 9e 85 bd 9e ae bd bc
       0.03286848 0.049458366 -0.0652429 -0.023154553
0000a0 3f c2 bf bd 71 20 70 bc d1 7f c1 3b aa 77 89 bb
       -0.093632214 -0.014656172 0.0059051295 -0.0041951733
0000b0 9f c6 c7 bd 68 d3 fd bc c8 82 2a bd 94 da 28 bd
       -0.09754681 -0.030984595 -0.04162863 -0.041224077
0000c0 74 0e b3 bd 50 92 8e 3d 25 c4 91 3d 7e c5 ae bc
       -0.08742991 0.06961501 0.0711749 -0.021334406
0000d0 45 d4 9a 3c 53 21 eb 3d ad 5a 7e 3d e2 aa 03 bd
       0.018900046 0.114809655 0.062098194 -0.03214539
0000e0 2e f7 7a 3d 33 b7 17 3d e2 2c 1c bd 07 e1 83 bc
       0.061270885 0.037039947 -0.03812874 -0.016098512
0000f0 5f e5 aa 3d 07 b8 cc 3c dd 5e 41 bd 0f 30 5c 3d
       0.0834453 0.024990095 -0.04720961 0.05375677
000100 2c 7c bb 3a ae a5 d1 3c d0 66 f0 3c ce 9e 3b bd
       0.0014303974 0.025591698 0.0293459 -0.045805745
000110 8c 7f 90 3d c2 18 9e bc 24 3d 86 bc b6 6e 87 bb
       0.07055578 -0.019298915 -0.016386576 -0.004133071
000120 f0 fd fe bc 5d 9e 10 bd 8b 2e ab bd b6 5d 73 bc
       -0.031126946 -0.035307277 -0.08358487 -0.014853885
000130 b2 1b 6b bd ca 7a 27 3d 23 05 6b bd 01 28 c9 bc
       -0.05739946 0.040888585 -0.057377946 -0.024555208
000140 48 90 92 3d b6 99 19 bd 92 69 db bc ca 4a d5 bd
       0.07156426 -0.037500106 -0.026783738 -0.104146555
000150 ab 7f 16 bd 12 80 83 bd f5 03 3a be 26 8b 49 3d
       -0.036742847 -0.06420912 -0.18165572 0.049204968
000160 ea b7 be 3d b1 d3 0f 3d 4a df 54 3d 1a 2d 10 bd
       0.093124226 0.035113994 0.051970758 -0.035199262
000170 dc ea f0 3c c2 83 8c 3d 73 63 41 3d 5c 16 94 3c
       0.029408865 0.06861068 0.047213983 0.018077068
000180 fa cb d9 bc 8a cc d7 3d 7c 3c e5 3d bc be e5 bc
       -0.026586521 0.105370596 0.11193177 -0.02804505
000190 42 9e 97 3c 12 a9 4a bc a3 62 1c 3d 17 cf 62 bd
       0.01850808 -0.012369411 0.038180005 -0.055373278
0001a0 96 44 bc 3d 01 c7 28 3d 8d 2c 52 bc bb e9 25 3e
       0.09192769 0.04120541 -0.012828005 0.16202442
0001b0 6c b5 61 3d 5e bf 37 3d 14 ba 16 3d 42 36 94 ba
       0.055104658 0.044860236 0.03679855 -0.0011307674
0001c0 cb 84 8b bd 32 46 1c bd a5 30 9c 3d 40 c3 5f bd
       -0.068124376 -0.03815288 0.07626466 -0.054629564
0001d0 97 95 84 bd 12 60 89 bd b8 51 fa 3d ed a4 1f 3e
       -0.064738445 -0.06707777 0.12222618 0.15590258
0001e0 7f ea c1 3c 3d 84 69 bc 28 ac 8c 3d 2a 15 04 be
       0.023671387 -0.0142527195 0.06868774 -0.12898698
0001f0 b4 c6 ce bd ef da f2 bc 1c 52 e5 bd c3 15 08 3d
       -0.10096493 -0.029645411 -0.11197302 0.03322388
000200 28 49 97 bd 84 27 5f bd 6c 4f 7c 3c bf ad ac bc
       -0.07387 -0.054481044 0.015399795 -0.021078942
000210 b6 6c 6f bc 03 08 d4 bd 4c a7 a5 bd c6 27 30 bd
       -0.014613321 -0.103530906 -0.0808855 -0.04300668
000220 34 1b f4 bd d6 fc 18 be f1 33 c1 bd 53 09 f6 bd
       -0.11919251 -0.149402 -0.09433735 -0.12013497
000230 fa df 02 be c3 0c d0 bd f2 ff 06 be eb 9e ec 3d
       -0.12780753 -0.10158684 -0.13183573 0.11553749
000240 95 7f 9b bc 3e 3e ae bb 62 48 da ba 74 86 e6 bb
       -0.018981734 -0.0053174784 -0.0016653652 -0.007035071
000250 e7 8c 0a bd 53 92 3f bd 7e 37 15 3d 09 5f 61 bd
       -0.03382578 -0.046770405 0.036429875 -0.055022273
000260 d5 ab 7c bd 62 4a b1 3c dc 13 08 3e 11 b3 ab 3d
       -0.06168731 0.021641914 0.13288826 0.083837636
000270 2c 8d 50 3e 38 a0 a0 3c cb 59 46 3d e7 83 71 bc
       0.20366353 0.019607648 0.048425477 -0.014740921
000280 2b 91 78 bd 59 89 44 be 0f f2 60 3d 5a da 67 3d
       -0.060685318 -0.19193019 0.054918345 0.05660472
000290 63 b5 0b bd 54 a7 8b 3d 20 2b c4 bd 7c 3b 12 be
       -0.03410853 0.06819025 -0.09578538 -0.14280504
0002a0 27 e4 64 3c 0c 88 3d be 98 ad 35 be a6 ec 00 3d
       0.013970411 -0.18508929 -0.17742002 0.031475686
0002b0 6e 5c 14 bb 8d bd c4 bb 0d 98 84 3d 32 08 08 3d
       -0.00226381 -0.0060040415 0.06474314 0.03321094
0002c0 a7 b7 35 3c 48 41 1d 3d 2b 13 42 3b 25 20 20 bd
       0.011091149 0.038392335 0.0029613476 -0.039093155
0002d0 6c f2 4c 3d e2 74 01 bd 23 1d 4e 3d 02 c2 40 3d
       0.05003588 -0.03160561 0.050320756 0.04706002
0002e0 81 c4 1d bd 9b d9 34 3d 14 01 e5 3d c8 50 82 3c
       -0.03851748 0.044152837 0.11181846 0.01590766
0002f0 f2 11 c5 bc b6 6a 11 bc 3d e7 32 3d 37 27 2f 3d
       -0.024056409 -0.0088755395 0.043677557 0.042762008
000300 ea 4e b4 3b 1b 56 3f bd b0 7c 7f 3d 58 fa 06 bc
       0.0055025714 -0.046712976 0.06237477 -0.008238398
000310 7d 00 22 3d 31 61 a3 bc bf ff a4 3d 63 0d a1 3c
       0.039551247 -0.019943805 0.08056592 0.019659704
000320 81 ce 0b bd 72 29 9d 3d 5d 67 4f 3a 78 7c a1 bd
       -0.034132484 0.07673921 0.00079118257 -0.07885069
000330 71 e8 60 3d b8 d7 9d bd 29 f1 80 bd 41 9a 8b bd
       0.054909173 -0.07707161 -0.06295998 -0.06816531
000340 f4 d0 fb bc dc 09 a1 bd 4d f4 42 3b 5e 6e 53 3b
       -0.030739285 -0.07863209 0.0029747665 0.003226183
000350 87 2b f1 bc 2b 31 17 bb ae 09 83 bc 70 06 67 3d
       -0.0294397 -0.0023070078 -0.015995827 0.056402624
000360 9b 6c 00 bd 02 b9 0c 3d 69 8e 89 bd 86 e0 09 3a
       -0.031353574 0.034356125 -0.06716616 0.0005259592
000370 1a 2c 80 bd ca 4f 1c bd 25 51 33 3d 9e 92 1c 3d
       -0.06258412 -0.03816203 0.043778557 0.038225763
000380 9e 68 b9 bd 69 9b a6 3d a2 32 c0 bd 61 d9 07 be
       -0.09053157 0.08135111 -0.093846574 -0.13266517
000390 4b b5 c6 3d de 3c 88 3c aa ad 04 3d df 40 37 bd
       0.09702548 0.016630586 0.03239218 -0.0447396
0003a0 93 93 f2 bc 7f 18 63 3c d6 1e ff bc 11 28 93 bd
       -0.029611384 0.013860821 -0.031142633 -0.071853764
0003b0 86 9d 0e 3d 9d 3b 61 bb 01 96 0a 3d a3 79 60 3d
       0.034818195 -0.0034367808 0.03383446 0.0548035
0003c0 76 f4 40 bd 76 c1 54 3d 6e a3 de bc 1f 02 d3 3c
       -0.047108136 0.05194231 -0.027177539 0.025757847
0003d0 ca 41 01 bd 56 3e d8 bb 80 5a a2 3c 0e 02 b5 3d
       -0.031556882 -0.006599228 0.019818544 0.088382825
0003e0 24 60 dc bc cb 70 91 bd 51 12 60 3a 04 2a c7 3c
       -0.026901312 -0.07101592 0.0008547651 0.024312027
0003f0 ae 51 68 3d 02 30 1d bb ee 23 ad bc 16 0f cc 3c
       0.05671852 -0.0023984914 -0.021135297 0.024909537

digit_rec.conv2.bias f4 [10]
000000 50 50 91 bc 3b c4 10 bb 66 b2 f3 3c 04 73 1c 3d
       -0.017738491 -0.0022089619 0.029748153 0.038195625
000010 95 2d 1d bc 3c 8c 60 3d 71 b8 34 bd 3c e7 d0 bb
       -0.009593387 0.054821238 -0.04412121 -0.0063752215
000020 ae 84 62 bd b4 ba dd 3b
       -0.055302314 0.0067666415

digit_rec.fc1.weight f4 [100, 1440]
000000 b4 c1 c4 3c 94 8e b2 bc a0 bc 4d 36 a0 bd eb bc
       0.024018146 -0.021796502 3.0657175e-06 -0.028776944
000010 f2 40 0a bc a4 e9 98 bc f7 e7 3d bb f2 fd 96 bc
       -0.008438336 -0.018666096 -0.0028977373 -0.018431637
000020 de 0c c4 3b 95 ac cf bc ce a7 ba 3b 9a 7f 26 bc
       0.005982979 -0.025350848 0.0056962734 -0.0101622585
000030 77 2b 81 bc 21 4c b8 3c 2e e6 ca bb bd 88 28 bd
       -0.015767796 0.022497239 -0.0061919903 -0.04114603
000040 65 c0 14 bd e0 0c bb bc d3 27 87 bc ee 68 a0 ba
       -0.036316294 -0.022833288 -0.016498482 -0.0012238303
000050 14 59 07 bc 2b 0a e8 3c 8b 08 18 3a 46 c1 63 bc
       -0.008260984 0.028325161 0.0005799613 -0.01390106
000060 e0 f7 be 3c 7f 4d 64 b9 e7 dd e9 bc ee c3 67 bc
       0.023311555 -0.00021772644 -0.028548194 -0.014145834
000070 d4 68 9d bc e1 6b 3b bd b9 47 8a bc cf 08 a7 3b
       -0.019215025 -0.04575718 -0.016879903 0.0050974856
000080 bc cc 67 bc 58 6f 64 3c 20 60 b1 3c 2f aa c8 bc
       -0.014147934 0.013942562 0.021652281 -0.024495212
000090 ad 87 c0 bc b4 20 35 bd b7 f3 86 bb 59 90 c5 3c
       -0.023502195 -0.04422064 -0.0041184085 0.024116682
0000a0 13 70 9c 3c 9a ff b0 bb aa 86 a0 bb 07 25 04 bc
       0.01909641 -0.005401564 -0.0048988657 -0.008065469
0000b0 74 4c c9 3b eb 44 8e 3c d2 64 ba 3c 09 99 46 3c
       0.006143147 0.017366847 0.022753153 0.012121447
0000c0 3a 52 d8 3b 69 98 cb bc 09 52 d0 39 8d 61 c5 ba
       0.006601599 -0.024852948 0.00039733973 -0.001505898
0000d0 dd 19 bd bb 15 00 b4 bb 53 bd 2d bc c9 4d 56 bc
       -0.0057709054 -0.005493174 -0.01060422 -0.013080069
0000e0 23 05 db 3c 13 d3 72 3d 81 1a e5 3b 92 0c b6 bc
       0.026735848 0.059283327 0.006991685 -0.02222279
0000f0 2b 8d d3 3c 73 60 a3 bc 99 89 d8 bb 60 02 4e 3b
       0.02582415 -0.019943452 -0.0066082 0.003143452
000100 fa c1 ea ba 29 53 39 3d b1 35 94 3c 43 8f ba 3c
       -0.0017910593 0.045245323 0.018092008 0.02277339
000110 f3 0f 81 3c 8a 6a a4 3c d8 70 2c 3a 3c 83 67 3c
       0.015754675 0.020070333 0.00065780943 0.01413041
000120 ea 7a 39 3c fc 46 76 3c 10 30 e8 3a 68 69 20 3c
       0.011320809 0.015031572 0.0017714519 0.009790756
000130 95 d0 ed 3c 7f 0d d4 bc 57 34 79 b9 9a 20 e1 3a
       0.029030124 -0.025885342 -0.00023765989 0.0017175854
000140 07 25 59 3c 20 72 16 3d 45 d8 44 3c e1 73 01 3c
       0.013253457 0.03672993 0.012014453 0.007901163
000150 8c 50 62 3a b1 17 42 3c 54 81 ac 3c e7 aa 35 3d
       0.0008633218 0.011846469 0.021057762 0.04435244
000160 05 91 2d 3d 00 7b 6b bd 6f fa 05 bd 45 e0 1c 3c
       0.04237463 -0.05749035 -0.032709535 0.009574954
000170 6e fe e6 3c 1d c6 2f 3d f3 d4 88 bb a4 1e 92 b9
       0.028197493 0.042913545 -0.004175776 -0.0002787012
000180 5c fc 8d 3c 93 ec 82 3c 46 18 06 3d c3 60 ad 3c
       0.017332248 0.015981948 0.032737993 0.021164304
000190 6e 27 29 bc a7 80 96 bd ae ad c8 bb 42 90 24 3b
       -0.010324342 -0.07348757 -0.00612422 0.0025110398
0001a0 94 ca be 3c ed aa 22 3c 91 f3 0f 3d a6 96 e0 3b
       0.023289956 0.009928447 0.035144392 0.006853896
0001b0 3b 3f 67 3c be 6c a0 3b 84 7a 8e bc 57 d4 af bc
       0.014114196 0.0048957756 -0.017392404 -0.021463556
0001c0 26 c5 1c bd a0 c2 51 bb 8a f7 d3 3c c4 b0 6d 3c
       -0.038273953 -0.0032006875 0.025874872 0.014507476
0001d0 ae df 4f 3d 2e 78 86 3c 81 62 ca bb ff 31 c3 bc
       0.050750427 0.016414728 -0.0061762934 -0.023827551
0001e0 92 37 cb bc 0c d2 1c bd 8f 4f 01 bd 2c ae a7 bb
       -0.024806771 -0.038286254 -0.031570014 -0.0051171985
0001f0 ae 30 60 3d d2 6f 2b 3d ea d2 2f 3d 35 ef e3 3c
       0.054733925 0.041854687 0.042925753 0.027824024
000200 50 9f 06 3d 48 98 10 bc 10 99 90 bc b0 4d 42 3c
       0.032866776 -0.008825369 -0.01765111 0.011859342
000210 94 05 db 3b c0 26 30 bc e6 b2 1b bb b3 01 90 3c
       0.0066840146 -0.010751426 -0.0023757755 0.017578935
000220 11 c3 d4 3c de ab 33 3d 31 cf 10 3d 62 c4 18 3d
       0.025971921 0.043865077 0.035353843 0.03729666
000230 37 b4 b3 b9 b8 dd a7 3b 0d f2 d8 bc be 89 5a 3b
       -0.0003427581 0.0051228665 -0.026482606 0.003334626
000240 56 c2 e8 3c 71 b3 9a 3c b4 f6 dc 3c c8 bc d6 3c
       0.02841298 0.018884392 0.026973106 0.026213065
000250 4d 5c e2 3b a4 5e cb bc b7 9f c4 bc 88 79 17 bc
       0.0069079758 -0.024825402 -0.02400194 -0.009245284
000260 79 36 d4 bc 14 f9 1f bc 7b 7d 3d bc ce ca c7 3c
       -0.02590488 -0.009763975 -0.011565561 0.024388697
000270 92 0d a8 3a 79 ed e9 3c cf 50 a3 bc 2a 6b 34 bd
       0.0012821427 0.028555619 -0.019935993 -0.044047512
000280 f2 36 2f bd 6a 05 0c bd c4 2d e5 bc 2e 77 45 bd
       -0.04277701 -0.03418485 -0.027975924 -0.04820936
000290 96 23 a6 bc 86 82 a7 bc d6 12 eb bb 53 13 97 3c
       -0.02028064 -0.02044798 -0.0071738763 0.018441832
0002a0 87 47 07 bc 2d 8c b8 3c 57 2f 88 bc 6e 1b d4 bc
       -0.0082568 0.022527779 -0.016624136 -0.025891986
0002b0 e7 00 04 3b 66 ca 84 3c 12 39 55 bc db 53 91 bc
       0.002014214 0.016209792 -0.013014095 -0.01774018
0002c0 64 38 01 bd 13 41 06 bd 0e 5b 15 bc 01 d4 14 3b
       -0.03154792 -0.032776903 -0.009115947 0.0022709372
0002d0 76 a8 19 3c d1 76 15 bc 27 44 b9 ba 51 12 ea bb
       0.009378543 -0.009122566 -0.0014134691 -0.0071432968
0002e0 9c 9e 2c bb 43 76 a2 38 86 cc 16 3c 54 30 3e 3c
       -0.0026339656 7.74679e-05 0.009204036 0.011608202
0002f0 9f 5e 2a ba 6e c3 24 b9 b5 0a af 3c 10 8c 76 bc
       -0.0006499085 -0.00015713062 0.02136741 -0.015048042
000300 c9 e5 81 3c a5 54 79 bc 97 53 23 3d 36 fe 2c bd
       0.01585664 -0.015217935 0.03987464 -0.042234622
000310 74 ad 73 3c 38 fe 10 bc 4e a3 62 3c 35 fd 8e 3b
       0.014872897 -0.008849673 0.01383288 0.0043636807
000320 87 54 a3 bc 54 d7 1a bb 20 84 12 3d 6d 24 9e 3b
       -0.019937767 -0.002362688 0.035770535 0.0048261196
000330 f9 50 a0 3c 6f 56 7e ba 53 ad 95 3a e3 d7 d2 3c
       0.01956986 -0.00097022107 0.0011419452 0.025737708
000340 64 80 1c bc dd ca 2b bd 7d 8b d8 bc 64 64 c2 bc
       -0.009552095 -0.041941512 -0.0264337 -0.02372951
000350 ba 91 d1 bb 42 6e c3 39 fc 9b 94 bb 74 3e 01 bd
       -0.006395546 0.00037275447 -0.0045351963 -0.0315537
000360 26 db 79 3c a1 45 a4 3c 9c 49 51 3c a2 60 fc 3c
       0.015250003 0.020052733 0.0127738975 0.030807797
000370 cd df 75 bc 27 8c 8b bc bf c0 3d bd 31 7e 83 3b
       -0.015006972 -0.017034603 -0.046326395 0.004012846
000380 7b 9a 85 bb 94 10 c2 b7 4a b1 98 3c 98 49 2f bd
       -0.0040772534 -2.3134322e-05 0.018639226 -0.042794794
000390 29 dd 94 bc 89 c6 8b 3b 5c 31 c1 3b 23 8a 8f 3c
       -0.018171864 0.0042656106 0.0058957767 0.017521923
0003a0 97 30 90 ba 2c 51 14 bc 29 d0 4c bb 31 d2 22 3c
       -0.0011000809 -0.009052556 -0.0031252003 0.009937809
0003b0 5f 53 37 3c f0 b9 19 3c 80 a5 94 3b 21 a7 e8 bc
       0.011189311 0.00938271 0.0045363307 -0.028400006
0003c0 ec 85 a0 3c 12 23 f4 3c c9 62 92 3c 5f 44 cd 3c
       0.019595109 0.02980188 0.01786937 0.025057016
0003d0 85 41 3a ba 31 14 de 3c 51 4e db bb 70 aa f8 3b
       -0.00071051 0.027109237 -0.0066926857 0.007588677
0003e0 f9 26 94 3c 26 b3 d6 3c 76 72 a9 bc 1d de e3 bb
       0.01808499 0.026208472 -0.020684462 -0.006953968
0003f0 69 f3 80 bc b1 8a b4 3b bc 2f 5b bb 0a 51 76 3c
       -0.015741067 0.0055096974 -0.00334452 0.01503397

digit_rec.fc1.bias f4 [100]
000000 5d e7 54 bc 9b e4 24 ba 6a 95 7c 3f e7 1b 38 3f
       -0.012994614 -0.00062901684 0.9866549 0.71917576
000010 ff 25 63 bc 5b 11 7c bc 50 07 ca bc 22 1a 96 bb
       -0.013864039 -0.015384997 -0.02466169 -0.004580752
000020 b3 16 79 3d 20 26 33 3f e2 2a 11 3f 23 fc fa bc
       0.060812663 0.6998005 0.5670606 -0.030637806
000030 6d 66 f1 bc 35 14 22 bb e9 db 92 bc 2e ce 30 3f
       -0.029467786 -0.0024731283 -0.017927127 0.69064605
000040 86 79 1c bc a4 b9 da ba a3 10 06 bc 8c 1f d4 bb
       -0.009550458 -0.0016687405 -0.008182677 -0.0064734872
000050 55 30 bd bb 31 fc 21 3f ca fb 0d bd 6e be 81 bc
       -0.005773584 0.6327544 -0.034663953 -0.015837874
000060 04 9a 4a 3f cc fc e2 bc d9 4c 84 bc 7d c4 e0 bc
       0.7914126 -0.027708434 -0.016149925 -0.027437443
000070 4a 09 19 bd e5 fc 15 bc ba 8c 87 3f 20 54 5c bc
       -0.037362374 -0.009154533 1.0589821 -0.013447791
000080 a3 34 af bc aa e3 ed bc a5 c1 2b bc b9 20 af bc
       -0.021387404 -0.029039223 -0.01048318 -0.021377908
000090 3a ff 3e 3c a1 73 0d 9f 60 94 59 3f dc 28 8f bc
       0.01165753 -2.9953557e-20 0.8499203 -0.017475538
0000a0 f4 52 4b bb 9a 64 42 3f 30 14 11 bd 7d 45 1b bd
       -0.0031024786 0.75934756 -0.035419643 -0.037908066
0000b0 cf 37 1f 3f 04 84 b3 3f b4 c0 23 3f 9a 22 a9 bc
       0.6219453 1.4024663 0.63965917 -0.020646382
0000c0 8a 15 5f bc fa aa 78 bc 3f c0 94 bc ea 7c 45 3f
       -0.013615975 -0.015177483 -0.018158076 0.7714373
0000d0 89 20 b5 bb 87 0c ad bc f3 fb f0 b9 ad c1 45 bd
       -0.00552756 -0.021124138 -0.00045964084 -0.048280407
0000e0 ff 91 1e 3f c0 6f 29 3f d0 5f 2d b1 5e f8 0c b7
       0.6194152 0.6618614 -2.5229276e-09 -8.402478e-06
0000f0 57 d8 05 3f 58 91 01 3f 86 1c 56 3f 1b 99 52 3f
       0.52283233 0.506124 0.83637273 0.8226487
000100 63 e1 9f bc 99 8f 1b 3f c7 ff 8e bc 3e dd 29 3f
       -0.019516652 0.6076599 -0.017455949 0.66353214
000110 8a 7e 76 bc ca 46 1f bd 43 e6 3a 3f 94 12 4c 3f
       -0.015044818 -0.03888587 0.730076 0.7971585
000120 82 74 4c 3f a8 d2 55 bd 9a a0 bf bb b6 bc ca bc
       0.79865277 -0.05220285 -0.0058480026 -0.024748188
000130 d3 d3 5c 3f 11 f6 88 bc b4 a2 3e bb c4 58 27 bb
       0.8626072 -0.016718896 -0.0029088678 -0.0025535086
000140 c0 e2 0a bc 1c 48 19 bd 41 22 2b 3f e8 8f 94 3f
       -0.008476913 -0.037422284 0.6684914 1.1606417
000150 4a 61 94 bc dc 7f 02 bc aa 1b 9f 3f 74 3e 51 bc
       -0.018112797 -0.007965054 1.2430317 -0.012771238
000160 36 0f 4a bc 31 65 4e 3f 0e cc a7 bc 5f a9 83 bc
       -0.012332728 0.80623156 -0.020483043 -0.016071973
000170 f2 4b 25 bc 6b c1 72 bc 44 6d a5 bc 0a 71 f0 3e
       -0.010088908 -0.014816622 -0.020193703 0.46961242
000180 d0 bd 84 3f 43 94 2c bb 32 7f 81 bc 1c 13 88 bc
       1.0370426 -0.0026333488 -0.015807722 -0.016610675

digit_rec.fc2.weight f4 [10, 100]
000000 54 2c 70 be 77 e9 cf bd c3 66 c6 3e 65 ad b9 3e
       -0.2345441 -0.10151952 0.38750276 0.36265102
000010 db fa 22 be 2e 99 54 ba 5d c5 4b be a7 26 2a be
       -0.15916006 -0.0008109984 -0.19899507 -0.16616307
000020 fa d5 00 be f6 80 8c 3e 4d 7c 3b 3e 2c e5 2a bd
       -0.12581626 0.2744214 0.18309136 -0.04172246
000030 fc 72 b9 bd a8 55 1a be 32 d0 ed bd 7f c8 a2 3d
       -0.09055135 -0.15071738 -0.11611976 0.07948398
000040 80 82 b3 bd f2 ea 15 be cb 06 55 be de 79 bc bd
       -0.08765125 -0.14640406 -0.20803373 -0.09202932
000050 47 83 96 bd 88 1a 4e 3e c1 db 1e be ed 9e 99 bd
       -0.07349258 0.20127308 -0.15513517 -0.07501016
000060 03 30 e1 3e e4 ce c1 bd 6c e1 9d bd 80 62 33 be
       0.43981943 -0.094632894 -0.077090114 -0.17518044
000070 d1 1d b1 bd 98 d2 39 be 3b 6c 03 3f e1 c1 81 be
       -0.08648265 -0.18146741 0.5133702 -0.2534323
000080 02 b7 13 bd 0f 5c cc bd 6e 5b 33 be db b3 37 be
       -0.0360632 -0.09978496 -0.17515346 -0.17939703
000090 40 09 ed bd da f4 37 be 20 75 16 3f 16 4c 43 be
       -0.1157403 -0.17964497 0.5877247 -0.19071993
0000a0 c9 ff 38 be e0 a0 9d 3e d9 8b 71 be cd 74 34 be
       -0.18066324 0.307868 -0.23588504 -0.17622681
0000b0 bc 80 71 3e ba 7d a2 3f ff 25 27 3e e5 80 a4 bd
       0.23584265 1.2694619 0.16323088 -0.08032397
0000c0 71 ff 64 be 1b 0e 22 be 68 80 1b be c5 1d da 3e
       -0.22363068 -0.15825693 -0.15185702 0.42600837
0000d0 ec 4d 1a bd 8e 2e 0e be 82 e3 3a bb 19 7c 4f be
       -0.03767197 -0.13884947 -0.0028516953 -0.20262183
0000e0 a8 5c b1 3d 31 41 f1 3d 5f 60 41 be a1 4a 2e be
       0.08660251 0.117800124 -0.18884419 -0.17020656
0000f0 4b fe 57 3e 56 73 f5 3d 1f 9d 65 3e c3 7b 10 3f
       0.21093099 0.11984889 0.22423218 0.56438845
000100 71 5f 50 be f5 a7 51 3e 39 c5 7e bd 13 15 89 3e
       -0.20348908 0.20474227 -0.062199805 0.2677389
000110 41 aa 07 be ee 34 01 be 83 90 a9 3e 3e e8 b4 3e
       -0.1324854 -0.12617847 0.33118066 0.35333437
000120 d2 df c8 3e be b1 78 be 32 2c c4 bd 1a ca d9 bb
       0.3923326 -0.24286553 -0.09578742 -0.006646407
000130 a8 c4 a2 3e d6 b3 38 be ef 16 46 be 5e f5 51 be
       0.31790662 -0.18037352 -0.19344686 -0.20503756
000140 65 64 f0 bc 6e 50 3a be 08 27 1f 3e 37 02 75 3f
       -0.029344747 -0.18194744 0.15542233 0.95706505
000150 b5 58 fe bd c0 8d 09 be c6 3b 61 3f a9 d6 77 be
       -0.12419263 -0.1343298 0.8798183 -0.2420298
000160 97 56 ff bc 66 15 11 3f 1f c9 96 bd 32 0b 49 be
       -0.031169219 0.56673276 -0.073625796 -0.19633177
000170 47 cc 36 be ef f2 1b bd 62 b0 f7 bd 6d 04 3a 3d
       -0.17851363 -0.038073476 -0.12094189 0.045414377
000180 ce 1a 80 3f 74 97 59 be eb 41 6e be 30 95 70 be
       1.000818 -0.21249181 -0.23267333 -0.2349441
000190 73 40 3e bd d2 fd 84 3d 65 d7 ff 3d 57 0e db 3d
       -0.046448182 0.06493725 0.12492255 0.106960945
0001a0 62 58 40 3d ec fe ad bd ca 62 e3 bc 8a 78 db bb
       0.04695929 -0.08495888 -0.027757067 -0.006697719
0001b0 86 58 05 be e7 46 11 3e 56 6f 08 be 41 fb 92 bd
       -0.1302205 0.14187203 -0.13323721 -0.07176829
0001c0 4c ed c2 3d d0 3d fe 3d 66 a8 06 3e 46 ce 59 be
       0.09517917 0.124141335 0.13150176 -0.21270093
0001d0 3b 76 3d bc 34 a6 bc 3d 11 67 0e 3d 3f 2b 7e bc
       -0.011563833 0.09211388 0.03476626 -0.01551324
0001e0 f1 45 a6 bd 9d 15 09 be 20 46 4c bd 03 30 05 3e
       -0.08118809 -0.13387151 -0.049871564 0.13006596
0001f0 bd ea 76 be 8c 1b e8 bc 39 37 dc 3d 99 65 33 bd
       -0.24112983 -0.028333448 0.107527204 -0.043798063
000200 43 65 68 bd d0 9a 27 bd 9f cf 90 be 31 cb 7f 3d
       -0.056737196 -0.040919125 -0.28283402 0.062449638
000210 4b 9b 03 3e 15 62 80 bd e0 c2 46 3d d4 b8 93 3d
       0.12852208 -0.06268708 0.04852569 0.072129875
000220 6b 11 77 3d a2 fc 92 3d 28 63 22 be 83 e2 b2 3d
       0.060319345 0.07177092 -0.15858138 0.0873461
000230 71 ab 95 3d 93 99 f7 bd 6b e0 2c 3d 54 43 3c 3d
       0.073080905 -0.12089839 0.04220621 0.045962647
000240 07 4f 81 bd 7c 85 a1 be b3 8c ed 3d 60 9a a6 bd
       -0.063139014 -0.31547153 0.11599102 -0.081349134
000250 93 18 bc 3d c5 dd 68 bd 69 43 92 3d 10 a6 ea bd
       0.09184375 -0.05685212 0.07141764 -0.11457455
000260 11 91 10 3e fd 27 c5 bd 4a c1 c9 bc ac b8 ef bc
       0.14117838 -0.09626768 -0.0246283 -0.029262863
000270 fe 7e 3b 3d 94 86 cb bd d8 9f a9 3d 40 94 cd 3d
       0.045775406 -0.09937778 0.08282441 0.10038042
000280 ea 81 06 3e 57 0b d8 bd f2 1d 59 be 46 58 b5 3d
       0.13135496 -0.10549038 -0.2120283 0.088547274
000290 14 4f 45 3d e5 30 5e bd c6 e0 d1 3d 36 75 15 be
       0.048171118 -0.05424585 0.1024795 -0.14595494
0002a0 0a 34 b0 bd 3d 6b 41 bd 19 b6 5a 3e 05 16 23 be
       -0.08603676 -0.04722141 0.21358527 -0.15926369
0002b0 12 d3 39 3d 88 ed e3 bd 50 37 cc 3b f5 d0 0b bc
       0.045367308 -0.1112929 0.0062321797 -0.008533706
0002c0 5f c6 6f be 00 27 3f 3d f2 26 14 3d a5 f9 85 3d
       -0.23415516 0.046668053 0.036169954 0.065417565
0002d0 e9 0f 82 3d 93 22 b1 bd a9 ca 96 bd 35 7f 78 be
       0.06350691 -0.08649173 -0.07362873 -0.24267276
0002e0 74 4f 1b bc 02 57 ad 3d 96 4e 3a bd f8 4a 37 3b
       -0.009479392 0.08463861 -0.0454851 0.002796827
0002f0 eb 50 da bc 2a 7a f8 bd 7d 65 5c bd da 83 99 3d
       -0.026649913 -0.12132676 -0.053807724 0.07495852
000300 a0 df 23 bd d8 cf d4 bd e1 f0 32 bd 80 07 56 3d
       -0.040008187 -0.103912055 -0.04368675 0.052253246
000310 f4 a0 81 be 48 61 8c 3d 15 70 ac bc c9 28 06 3d
       -0.2531811 0.068544924 -0.021049539 0.03275374
000320 82 b0 98 3d 4c 6b 17 be d8 45 ac bd ae 48 84 be
       0.07455541 -0.14787024 -0.08411759 -0.258367
000330 4e 63 fd 3c f3 8e 38 bc d7 0d 46 3d b8 21 ac 3d
       0.030931141 -0.0112645505 0.048353042 0.08404869
000340 da c9 71 bd 2a 55 15 be 36 01 0a be 71 cd 42 3d
       -0.05903039 -0.14583269 -0.13477024 0.047559205
000350 71 12 ef 3d a0 08 f7 3d 5d 1e 26 3d 23 b7 14 be
       0.11673439 0.12062192 0.0405563 -0.14522986
000360 10 4d 18 3e 62 d5 cc 3d 2b f1 e3 bd ad a0 82 3d
       0.14873147 0.10001637 -0.111299835 0.06378303
000370 e3 ee 8e bd 07 05 3d be 6a 14 8c bd 1d 7b 02 3e
       -0.06979158 -0.18458949 -0.06839831 0.12742276
000380 9e 07 19 3d cf 34 c6 3d 64 cd 8e bd 1b 65 7f 3d
       0.03736078 0.09678041 -0.06972769 0.06235228
000390 83 3b 82 bd a5 b5 25 3d 7d 7e 3a 3e a9 3a 81 3d
       -0.06359007 0.040456433 0.18212314 0.06310017
0003a0 a0 ef 28 bd 1a a1 82 bd ac b1 64 3d a5 b2 9c 3d
       -0.04124415 -0.06378384 0.055833504 0.07651261
0003b0 fe c4 8b 3d 7c 3c b1 3d 80 0d 52 be 62 57 3c bd
       0.06824683 0.086541146 -0.20512962 -0.045981772
0003c0 9e db 83 bd 74 53 2e be d6 28 ac bd 14 1c 8b bd
       -0.06438373 -0.17024022 -0.08406226 -0.06792465
0003d0 5b 6d 08 be 9f bd 0c bd c9 ad 2a be 4b 0a ac bd
       -0.13322966 -0.034360524 -0.16667856 -0.08400401
0003e0 72 0d 83 bc 5a a9 cb 3d c7 b5 25 bd 5a 04 0d be
       -0.015997622 0.099444106 -0.04045656 -0.13771191
0003f0 b7 95 83 bd a5 2a 51 3d 44 49 c1 bc 06 a2 1b 3d
       -0.0642504 0.05106606 -0.023594506 0.037996314

digit_rec.fc2.bias f4 [10]
000000 72 de 64 3f 34 30 16 bf dd 63 bc be a8 56 bd be
       0.89401925 -0.586673 -0.3679494 -0.36980176
000010 63 3b ef be 12 61 f9 be af 43 ed be c5 51 d3 be
       -0.46724996 -0.4870687 -0.463407 -0.41273323
000020 5b 26 20 be 5c 6c a8 be
       -0.15639631 -0.32895172
