outputs/perception/big_kaggle/checkpoint_best.pth (torch, 591247 bytes, 8 tensors)

digit_rec.conv1.weight f4 [20, 1, 3, 3]
000000 2c b5 27 3e 3f 11 4f be 5e 4c e1 bd ff 44 05 3e
       0.16377705 -0.20221423 -0.11000894 0.13014601
000010 5c 1b a7 be 24 c9 4e 3e 10 70 f5 bd 53 6f 35 3e
       -0.3263806 0.20193917 -0.11984265 0.17718248
000020 34 e1 bf 3a ff 91 9e bd 10 54 b8 3d 34 b5 39 bd
       0.0014639259 -0.0774269 0.09000409 -0.045338824
000030 1a f4 fd 3d 2a c8 f0 bd 59 cd 03 bd 0e 96 91 bd
       0.12400074 -0.11756928 -0.032178257 -0.07108699
000040 1e 24 83 3d 6a 3c 17 bd 49 dd 85 3e bb e0 b1 3d
       0.06403373 -0.03692285 0.2614539 0.08685442
000050 cd 9b 13 be a5 dc 4f be 41 63 d1 bd 09 f3 16 be
       -0.14414902 -0.20299013 -0.10224009 -0.14741148
000060 35 6b a3 bd be 1b 5f bc ba be 5b 3e a3 e4 37 3e
       -0.079794325 -0.013617454 0.21459475 0.17958312
000070 03 5f b4 be dd 74 35 3e 86 83 e0 3d 4c 92 a8 3e
       -0.35228738 0.17720361 0.10962586 0.32924116
000080 e9 60 72 3e 2c 2d 8b be 30 43 97 be 77 16 2b be
       0.23669781 -0.271829 -0.29543447 -0.16707788
000090 ac 4f 6f 3e 3b 4f 8b bd 10 c5 05 3e 75 68 4c be
       0.23370236 -0.068022214 0.13063455 -0.19961722
0000a0 06 c4 97 3e a1 8b 31 be 83 df 46 3e f4 61 3e bd
       0.29641742 -0.1733842 0.194212 -0.046480134
0000b0 41 71 7b be 85 df 63 3e fb 8d 0b be 13 c0 f6 3d
       -0.24554922 0.22253235 -0.1362838 0.12048354
0000c0 c1 fb e4 bd e2 b1 39 bd ba 97 b0 be 77 48 1f be
       -0.11180831 -0.045335658 -0.34490758 -0.15554987
0000d0 a0 69 80 3e b4 46 09 bd f5 35 71 3e 7d 38 3d 3e
       0.25080585 -0.033514693 0.23555739 0.1847858
0000e0 71 6a b4 bd 49 bb 90 be 56 6a b9 3d b2 b7 ae 3c
       -0.088093646 -0.28267887 0.09053485 0.021327827
0000f0 70 71 8d be 7e 0d ab 3d af 07 d9 3d e2 63 a1 3e
       -0.27625608 0.08352183 0.10597169 0.31521517
000100 08 fe 22 be 53 88 b3 bd 21 5f 96 3c 54 e4 5e 3d
       -0.15917218 -0.08766236 0.018355908 0.05441697
000110 d1 c3 83 be 16 9e 82 be c8 86 5d 3e 81 a3 71 bd
       -0.25735334 -0.25511235 0.21633446 -0.05899382
000120 54 ce fe 3d 10 9d 0d b9 e2 61 b5 3d 2d d1 20 3d
       0.12441698 -0.00013505318 0.0885656 0.039261986
000130 fb 91 d6 3d 00 b8 0a 3e 33 1b bd be f1 60 2a 3e
       0.10477062 0.13546753 -0.36934814 0.16638543
000140 d5 f8 8a be 58 e0 86 be d7 84 b8 3b 7b 5e d7 bc
       -0.2714297 -0.26343036 0.00563107 -0.026290169
000150 54 86 1b 3e 5e 76 1f be 4b f7 9a be 5f dc 8c 3e
       0.15187961 -0.15572497 -0.30266795 0.2751188
000160 fd 4b 39 3d ba 32 65 3e 43 f4 de 3d 21 71 96 be
       0.045238484 0.22382632 0.10886433 -0.29383186
000170 bf 60 2c 3e cb b7 1e 3e 05 0b 67 be b9 66 0f be
       0.1683378 0.15499799 -0.22562797 -0.1400403
000180 83 28 30 3e 51 36 69 3d fe 4f 41 be 88 d9 21 be
       0.17202954 0.056936566 -0.18878171 -0.15805638
000190 f4 50 91 3e 90 08 a5 bd 12 40 33 3e a9 f3 fd 3d
       0.28382075 -0.08058274 0.1750491 0.1239999
0001a0 a9 74 81 be d1 f0 ba be 5a bc 8a 3e f7 d2 08 3d
       -0.25284317 -0.36511853 0.27096826 0.033404317
0001b0 05 7f 6d 3d 82 44 40 bd e8 64 fa bc 23 62 c3 3d
       0.057982463 -0.046940334 -0.030565694 0.095402025
0001c0 41 6e 44 3e 46 44 9d be f6 50 60 bd f5 99 1f 3e
       0.19182684 -0.3071615 -0.05476471 0.15586074
0001d0 b8 86 19 3e 55 a1 89 3e 16 ba 7e be 25 a3 7d be
       0.14992797 0.268809 -0.24875674 -0.24769266
0001e0 e4 86 84 be 9b ea 40 3d 2b 64 bf 3e eb 67 5c be
       -0.25884163 0.047098737 0.3738111 -0.21524017
0001f0 b1 76 76 3e 51 f7 2e be e4 8f ea be 82 02 dc bd
       0.24068715 -0.17086531 -0.45812905 -0.10742666
000200 04 e9 0a 3e d6 b2 64 3e b6 5d 6c be 29 b7 b3 3c
       0.13565451 0.22333845 -0.23082623 0.021937924
000210 3b c2 82 3e 7b 42 2f 3e 97 05 2a 3e 56 33 84 3e
       0.2553881 0.17115204 0.16603695 0.25820416
000220 f6 0c 6e 3e 45 11 ee 3d 03 9d 60 be f3 7a 68 be
       0.23247132 0.11624388 -0.21934895 -0.22703151
000230 4d 47 23 be cf 5d 59 bd 0f bb 21 be 80 ab c2 3d
       -0.15945168 -0.05306798 -0.15794013 0.09505367
000240 a0 00 7b 37 38 62 0b be f8 88 52 3d 7d b8 91 3c
       1.4960911e-05 -0.13611686 0.051400155 0.017788166
000250 f2 90 af 3d a1 58 0c 3e cd 90 4c be 7c 43 66 3e
       0.08572568 0.13705684 -0.19977112 0.22486681
000260 5e 15 c5 bd de f8 b3 3d f4 e8 9f be 78 d5 3d bd
       -0.09623216 0.08787702 -0.31232417 -0.046346158
000270 be 95 a3 bd 60 a1 c3 bd 51 04 a8 3e 25 4e 9f bd
       -0.079875454 -0.09552264 0.32815793 -0.07778577
000280 b2 18 5c be d8 8b 45 3e 58 4b 44 3e c0 dd 97 3e
       -0.21493796 0.19291627 0.19169366 0.2966137
000290 cc 9b b3 bd 23 77 57 3e a8 3c a1 bd 18 32 1a be
       -0.0876995 0.21041541 -0.078728974 -0.15058172
0002a0 b2 3c 03 be 8c dc f8 bd 94 9f 3b be 05 25 d2 3c
       -0.12816122 -0.12151441 -0.18322593 0.025652418
0002b0 61 69 29 bd 3d 09 e1 bc 28 b6 63 3e 51 d6 22 3e
       -0.041360263 -0.027470225 0.22237456 0.15902068
0002c0 50 19 87 3d 0c ec ba bd b9 28 a8 be b0 ac e3 3d
       0.06596625 -0.091270536 -0.3284357 0.11116922

digit_rec.conv1.bias f4 [20]
000000 42 0a c5 bd 9a c0 0c bd cf 1f 91 be df af 90 bd
       -0.09621097 -0.034363367 -0.2834458 -0.07064795
000010 42 21 5e be f1 30 a1 3e d5 f5 9e be f0 f1 82 be
       -0.21692374 0.31482652 -0.3104693 -0.2557521
000020 d3 7c 7b bc 26 b0 41 be e6 0b f6 3d 53 6a f1 bd
       -0.015349585 -0.18914852 0.12013988 -0.11787858
000030 2b a2 1a be a7 58 e8 3c 89 d6 79 3e c4 d2 66 be
       -0.15100925 0.028362585 0.24398245 -0.22541338
000040 4d bd 0a 3e 36 f1 60 3e 28 9a aa 3e 10 d0 7f be
       0.13548775 0.21967015 0.33320737 -0.24981713

digit_rec.conv2.weight f4 [10, 20, 3, 3]
000000 27 65 ad 3d f0 c3 f1 3c 22 bc c7 3d 6f bb 2f bc
       0.08466559 0.029512376 0.0975268 -0.01072584
000010 8e 57 fe 3c 53 b3 0a bd 13 39 3f bd d1 9b 2e bd
       0.031047609 -0.033862423 -0.04668529 -0.042629067
000020 4b f6 29 bd 59 1b 8c bc 55 b3 4f 3b dd e8 05 3c
       -0.04149465 -0.017102884 0.0031692584 0.008173195
000030 4b bf 98 bd 6e 78 e1 3c 51 79 61 3d 1a 88 17 3d
       -0.07458361 0.027523246 0.055047337 0.03699503
000040 14 e7 2c 3d b3 a4 36 bd 6f af 98 3b e9 a5 b1 3d
       0.04221256 -0.044590663 0.004659585 0.08674223
000050 03 44 13 3c 10 44 27 bc 3c 11 f5 bd 18 51 03 be
       0.008988383 -0.010209098 -0.11966178 -0.12823904
000060 09 88 2a 3d ca 2e a3 bd eb 24 0b 3c d1 de c5 bd
       0.04163364 -0.07967909 0.008492689 -0.096616395
000070 c5 07 1d 3b c7 9e 8c 3d fc 43 9f bc 0c 29 bb 3d
       0.002396093 0.06866222 -0.019441597 0.091386884
000080 e0 fe 45 3e 56 d8 03 3d e1 5a d5 3d 12 a8 47 3e
       0.19335508 0.032188736 0.104177244 0.19497707
000090 fb 59 15 3c d1 78 79 3c b0 c9 2a bd 2d 31 6a bd
       0.009115691 0.015226559 -0.04169625 -0.057175804
0000a0 fc 4a ac bd fa ab d7 bb 7c ee a0 3c 92 27 38 3a
       -0.0841274 -0.0065817805 0.019644968 0.00070249394
0000b0 eb cd 4b bd 2d 6a 07 bd 2f 2a 56 bd ee eb 16 bd
       -0.049756926 -0.03306024 -0.052286323 -0.036846094
0000c0 87 74 b0 bd e6 9c 8e 3d 37 c3 9a 3d 3b b5 4a bc
       -0.08615976 0.0696352 0.075567655 -0.01237231
0000d0 f1 fe 22 3d 48 21 91 3d bd 32 46 3d 2d c3 85 bd
       0.039793912 0.07086426 0.04838823 -0.065313675
0000e0 69 92 1d 3d 03 f4 1c 3d 44 7e 2b bd 2a 93 fd bc
       0.038469706 0.038318645 -0.041868463 -0.030953962
0000f0 35 ff b3 3d 58 42 ae 3c e9 75 7b bd 45 3a 73 3d
       0.08788911 0.02127187 -0.061391745 0.059381742
000100 50 7b 18 3d 43 94 3d 3d 73 0b 16 3d 8d 4e 65 bd
       0.037226975 0.04628397 0.036632013 -0.055983115
000110 24 ce 8a 3d 01 17 7f bc ac 21 c7 3c e5 97 f7 bb
       0.067775995 -0.015569449 0.024308048 -0.007555949
000120 d3 3d 21 bd e5 e0 64 bd cc aa 80 bd 98 1b 62 bd
       -0.0393656 -0.05587854 -0.06282577 -0.055202097
000130 2c 4c 34 bd c9 d5 1c 3d ea db a4 bd 1c 52 be ba
       -0.044017956 0.03828982 -0.08049758 -0.001452032
000140 d1 5a df 3d ec 16 c4 bc 96 4c 98 bc 6d b7 4c bd
       0.10905994 -0.023936711 -0.018591207 -0.049979616
000150 58 7d 31 bd 28 8f b4 bd da 23 10 be 38 aa 36 3d
       -0.043332428 -0.088163674 -0.14076176 0.044595927
000160 5a 78 91 3d e5 63 f2 3d d1 b2 55 3c f9 f6 37 bd
       0.07103033 0.118354596 0.013043121 -0.044913266
000170 37 ef 6a bb e4 b8 8d 3d e2 a6 9f 3d 44 3e 33 bd
       -0.003584815 0.06920031 0.07795502 -0.043760553
000180 9e 39 31 bc 5e 38 df 3d cf fb fa 3d 69 b7 fa bb
       -0.01081696 0.10899423 0.1225506 -0.0076512587
000190 fc 9a 22 bd b5 66 81 bb 40 72 3e 3d ee a2 70 bd
       -0.039698586 -0.003949011 0.046495676 -0.05874913
0001a0 ff 7b b5 3d 86 bc 05 3c b6 cf 1b bc bb f5 b7 3d
       0.08861541 0.008162623 -0.009509971 0.08982416
0001b0 b7 d5 ff 3c 28 30 36 3d 1d 3c a2 bb 82 a2 c5 bb
       0.031229837 0.04447952 -0.0049510137 -0.0060313353
0001c0 12 84 c5 bd 64 71 34 bd ef b5 85 3d 49 f8 45 bd
       -0.09644331 -0.04405345 0.06528842 -0.048332486
0001d0 03 33 90 bd fe 0a 79 3d b0 51 35 3e 75 f3 21 3e
       -0.0704098 0.0608015 0.17706943 0.15815528
0001e0 8a f1 18 3d 06 a9 87 3b ca 99 1e 3c df 1c de bd
       0.037339725 0.004140022 0.009680221 -0.108453505
0001f0 34 aa 96 bd 26 e1 44 bd 59 a3 bb bd 2a e3 1c 3d
       -0.073566824 -0.04806628 -0.091620155 0.038302578
000200 0b 21 62 bd 86 72 03 bd 1e ff a2 3c db 3f 3a bd
       -0.055207293 -0.03209164 0.01989704 -0.045471054
000210 11 4f c0 bc fb 34 e1 bd e4 86 bf bd 60 e2 43 bd
       -0.023475202 -0.10996433 -0.093519 -0.04782331
000220 20 0d 04 be b2 09 37 be 19 76 c8 bd 29 65 25 be
       -0.12895632 -0.17874792 -0.0978815 -0.16151871
000230 0c 33 01 be e2 81 fc bd ef 2f 0b be 82 ca a5 3d
       -0.12617129 -0.12329461 -0.13592504 0.08095266
000240 c0 11 3e bc ec bc 38 3c 26 a6 e5 3b 5f 0a bd bc
       -0.011600912 0.011275511 0.007008332 -0.023076234
000250 06 a1 5a bd 0f cf 58 bd 40 4b 75 3c c8 5d 22 bd
       -0.05337622 -0.05293184 0.014971554 -0.039640218
000260 96 fc b9 bd 01 2d 9f 3d ff 02 2b 3e cb 64 bf 3d
       -0.0908138 0.07772256 0.16700362 0.093453966
000270 57 fc 21 3e 82 14 08 3d 5f d7 86 3d d0 d2 74 bd
       0.15818916 0.033222683 0.065840475 -0.05977136
000280 e1 c7 ce bd 46 85 46 be 63 77 9e 3d 8c fc 7f 3d
       -0.100967176 -0.19386777 0.07737615 0.062496707
000290 43 02 e6 bc c8 5b 26 3d 31 cf ed bd c8 28 fe bd
       -0.02807725 0.040614873 -0.11611784 -0.12410122
0002a0 b0 6c 14 3b b8 7b 55 be 98 c8 34 be a1 f3 b9 3b
       0.002264779 -0.20847976 -0.17654645 0.005674795
0002b0 6b 28 4d bc cf f7 c7 bc d0 1b 3c 3d ac da aa 3c
       -0.012521843 -0.024410157 0.04592496 0.020856224
0002c0 e8 f9 57 3c c6 f2 5d 3d 66 f3 83 bc 08 68 1d bd
       0.013182141 0.054186605 -0.016107272 -0.03842929
0002d0 7b b9 2a 3d 98 4d 27 bd 7c e4 82 3d ee 61 ef 3c
       0.041680794 -0.040845484 0.06391236 0.029221501
0002e0 d3 7b 33 bd 1f cf 3f 3d da f0 9c 3d d9 98 88 3c
       -0.04381926 0.046828385 0.07663126 0.016674446
0002f0 ca 7b 61 bd 17 d5 9f ba 18 51 10 3d de f3 44 3d
       -0.055049695 -0.0012194243 0.035233587 0.048084132
000300 a9 29 be 3c 03 95 3c bd 8c ee 92 3d 4c 24 9e bc
       0.023213224 -0.046040546 0.071744055 -0.019304417
000310 ec 54 2d 3d eb eb 5e bc ee 74 ae 3d 17 05 b1 3c
       0.042317316 -0.013606052 0.08518396 0.021608872
000320 ba cc 9b bd b7 55 85 3d 37 49 43 3a 57 05 fd bd
       -0.07607408 0.065104894 0.00074495695 -0.12354534
000330 f9 a1 8e 3d 9d 00 a9 bd d6 5e 8a bd 86 b1 a1 bd
       0.069644876 -0.0825207 -0.0675637 -0.07895188
000340 a1 13 f5 3b 60 f0 9c bd 4d 93 d4 3c 79 d5 0a bc
       0.0074791466 -0.076630354 0.025949145 -0.008473747
000350 d2 c3 f6 bb 62 fe ed bb 36 15 05 bd ee 57 f5 3c
       -0.007530668 -0.007262991 -0.03249093 0.029949155
000360 6d 38 23 bd 1c 8b a5 3c 6d 7f 54 bd b8 96 4f bd
       -0.039848734 0.020207934 -0.051879335 -0.050680846
000370 73 4e a6 bd 20 3e 09 3c 3d 18 f7 3b ba b5 86 3c
       -0.08120432 0.008376628 0.007540731 0.016444076
000380 5b a4 48 bd 76 67 4e 3d 5f f4 bf bd 9d 2f 07 be
       -0.048984867 0.050391637 -0.09372782 -0.13201757
000390 d5 a4 8e 3d 1e ed 38 3b a0 e2 76 3b 3f 01 5f bd
       0.06965033 0.0028217505 0.00376717 -0.054444548
0003a0 a8 7f b6 bc 35 a7 94 3c b1 a9 82 bc d0 69 82 bd
       -0.022277668 0.018146137 -0.015950056 -0.063678384
0003b0 17 31 0e 3d 38 c7 5b bb 34 8c 0b 3d b9 1b 34 3d
       0.034714784 -0.0033535492 0.034069255 0.04397175
0003c0 f8 4c e0 bc c3 ea 26 3d b3 8f 38 bd e2 46 35 3d
       -0.027380452 0.04075123 -0.045058917 0.044257052
0003d0 83 9a 89 bc f7 42 09 bd 29 5a f0 3b 51 f0 bb 3d
       -0.01679731 -0.03351113 0.0073349667 0.09176696
0003e0 1b 87 e9 bc 4e e2 88 bd b7 b8 4e 3c 64 90 de 3c
       -0.028506806 -0.06683789 0.012617282 0.02716846
0003f0 cd b6 c3 3c 6d 4a 08 bd 56 28 19 3c 4a 8c 18 3d
       0.023890877 -0.033274103 0.009347996 0.037243165

digit_rec.conv2.bias f4 [10]
000000 16 5a 84 bc 78 fc 90 bb 1f 60 f7 3c 24 60 27 3d
       -0.016156238 -0.004424628 0.030197201 0.04086317
000010 06 15 02 bc 04 de 6a 3d f9 c0 2d bd 34 a1 30 bb
       -0.007939583 0.057340637 -0.04242036 -0.0026951553
000020 c7 5b 61 bd c0 16 f8 3b
       -0.055019166 0.0075710714

digit_rec.fc1.weight f4 [100, 1440]
000000 b4 c1 c4 3c 14 95 b2 bc c0 1b ce 3b a6 c6 c8 bc
       0.024018146 -0.021799602 0.006289929 -0.024508785
000010 1d 6d c6 bb 41 b9 53 bc 7b 7b a1 ba a0 8f a3 bc
       -0.006055488 -0.012922586 -0.0012320125 -0.019965947
000020 e2 84 cc 3b 89 73 cd bc eb 46 bd 3b a4 7d 26 bc
       0.006241427 -0.025079506 0.0057762763 -0.010161791
000030 11 31 81 bc a0 22 b7 3c d5 97 18 bb a2 b6 d0 bc
       -0.015770467 0.022355378 -0.0023283858 -0.025477711
000040 c4 64 ae bc f7 9c 97 bc c7 4f 9a bc 51 bd 40 bb
       -0.021288283 -0.018507464 -0.018836869 -0.0029409716
000050 51 d4 a6 3a 47 06 c1 3c 20 54 96 39 1a ab 68 bc
       0.001272807 0.023562564 0.00028672908 -0.01420095
000060 72 52 ba 3c c4 75 e1 3b 1f b3 08 bc fc fe 7f 3c
       0.022744391 0.006880494 -0.008343487 0.015624758
000070 ae da e4 3a e6 06 51 bd 6a 15 af bc b6 ed 85 bc
       0.0017460191 -0.05103197 -0.021372516 -0.016348701
000080 81 d0 8d bc df 7c a7 bb b7 cf 25 3c 4d 49 ca bc
       -0.017311336 -0.0051113213 0.010120324 -0.024693156
000090 63 47 c3 bc da e4 b7 bc 1a 0b 5d bc e0 bb 82 3c
       -0.02383775 -0.022447992 -0.013491416 0.015958726
0000a0 ff 43 d2 3c 73 58 0d 3a da ba ca 3c 63 0f ac 3a
       0.025667189 0.0005391903 0.0247473 0.0013127144
0000b0 8e 42 02 3d 4d c4 75 bc a5 df 0d 3c 77 a8 5a 3c
       0.031801753 -0.015000415 0.008659278 0.013345829
0000c0 2d 9f 37 3c 5b 40 ce bb 6e 29 9c bc 25 43 4a 3c
       0.011207384 -0.006294293 -0.019062724 0.01234511
0000d0 5f ff 54 bc 7b 9a 6a 3c e1 36 87 bb 77 e2 7c bc
       -0.013000338 0.014319058 -0.004126415 -0.015434853
0000e0 c6 3c 09 3d 6b 65 27 3d e8 09 3b bc ac 04 b1 bc
       0.033505224 0.040868204 -0.011415936 -0.021608673
0000f0 4f 8d d9 3c c8 ca f5 3b c6 a2 ff 3b 78 da 61 bc
       0.026556639 0.00750098 0.0078013865 -0.013784997
000100 43 7d 87 ba aa 28 2d 3d e3 a2 56 3d 36 24 0b 3d
       -0.0010337014 0.04227511 0.052401435 0.03397008
000110 41 bf 70 3c 6a 62 22 3c 99 f5 51 bc 4d 88 73 3c
       0.014694036 0.009911159 -0.012814903 0.01486404
000120 28 89 fd 3b c0 20 0c 3d cc 6e 25 bc 13 9b db 3c
       0.0077372976 0.03421092 -0.010097217 0.026807344
000130 30 ad 8d 3c 3d 6c 1c bc 3b 00 2c 3d 08 fa 45 bb
       0.017294496 -0.00954729 0.041992407 -0.0030208845
000140 ca 12 f5 3b cd 79 c8 ba 04 e2 24 bc 9f 07 f3 3b
       0.0074790465 -0.0015295089 -0.010063652 0.00741668
000150 36 19 d3 bb e9 e3 02 3c 64 b9 37 3c 02 3a be 3c
       -0.0064422144 0.007988908 0.011213634 0.02322102
000160 ef 60 84 bc 9e ab 34 bd d7 1c 06 bd 4f 56 0e bb
       -0.016159503 -0.04410898 -0.032742348 -0.0021718924
000170 7f 70 88 3c d7 05 dd 3c 35 49 58 bc 42 90 3a bb
       0.016655205 0.026980324 -0.013201048 -0.0028467332
000180 c9 20 ec 3b ed 8e b5 38 a4 ca 3e 3c 28 12 d7 bb
       0.0072060567 8.6573746e-05 0.011644993 -0.0065634437
000190 23 cc 06 bd 74 c6 6a bd 3f f9 d1 bc 37 f4 cb bc
       -0.032909524 -0.057318166 -0.025631545 -0.024896724
0001a0 d8 0d a9 3c 57 30 5c b9 c5 33 ff 3c 05 af b8 3a
       0.020636484 -0.00020998843 0.031152615 0.0014090246
0001b0 61 d7 45 3c d0 30 ac bc ce 54 9d bc 65 ab f5 bc
       0.012075276 -0.02101937 -0.019205477 -0.029988954
0001c0 8d a9 b2 bc 31 3b 11 bc cf 47 b0 bb 17 95 12 bc
       -0.021809364 -0.00886421 -0.005379654 -0.008946679
0001d0 24 47 6d 3d 33 ba 82 3c 15 73 4c bc 02 9d cf bc
       0.057929173 0.015957927 -0.01247861 -0.025343422
0001e0 93 dd e2 bc d6 6b dc bc 9c 72 ae bc 15 6e d8 bc
       -0.027693545 -0.026906889 -0.021294884 -0.026419679
0001f0 b2 46 b9 3c a7 0a 04 3d e4 c8 9b 3c f4 c7 db 3c
       0.022616718 0.03223672 0.01901669 0.026828744
000200 bc f0 6d 3d 5e 15 01 bc 07 61 2a bc 4a 87 29 3c
       0.05809091 -0.0078786295 -0.01039911 0.010347197
000210 26 75 d9 3b ce 71 3d bc 70 4d 7d bc 5e 9b 12 3c
       0.0066362796 -0.011562778 -0.015460357 0.008948175
000220 18 2c 8e 3c b5 d5 3c 3d 38 93 96 3c 0a 94 00 3d
       0.01735501 0.046102244 0.018380746 0.03139118
000230 bd c9 58 3c e9 7d 84 3b fe 6c c7 bc ed a8 51 3b
       0.013231692 0.00404333 -0.024343964 0.0031991557
000240 7c 9e b5 3c 38 31 4f 3c 53 13 aa 3c b8 44 a5 3c
       0.022170298 0.012646012 0.020761168 0.02017437
000250 68 a0 02 3c 34 d8 c1 bc e8 de ce bc 40 b4 f9 bb
       0.007972814 -0.023662664 -0.025252774 -0.0076203644
000260 f4 b2 a1 bc 3a 9d 8d bc ad 4b 65 bc d3 b9 a3 3c
       -0.019738652 -0.017286886 -0.013995093 0.019986069
000270 de 58 a1 bb d9 23 b7 3c a7 4d dd bc 26 d6 17 bd
       -0.004923924 0.02235596 -0.027014567 -0.037069462
000280 f9 32 34 bc c2 26 91 bc 95 df 23 bd c9 e7 03 bd
       -0.010998481 -0.017718676 -0.040008146 -0.03220347
000290 53 12 87 bc 77 de bc bc 93 14 c9 bb b0 3c 68 3c
       -0.01648823 -0.023055298 -0.006136486 0.014174625
0002a0 fe 3e 6b bc 1f 82 88 3c 58 af d8 bc 99 6b 9b bc
       -0.01435828 0.01666361 -0.026450798 -0.018972205
0002b0 27 7c b9 39 21 33 b5 bc 61 4c 15 bd a6 d7 e4 3b
       0.0003537845 -0.022119107 -0.036449794 0.006983715
0002c0 02 84 3a 3c 66 88 86 bc a4 0e a0 bc cf 0a a8 bc
       0.011384012 -0.016422462 -0.019538231 -0.020512966
0002d0 9a 27 50 3b b1 39 af bc 80 1b 24 bd 29 ce 4c bc
       0.0031761886 -0.021389814 -0.04006529 -0.012500324
0002e0 21 28 40 bc ec 3e 85 3b 91 91 9e 3c c5 19 09 3d
       -0.0117283175 0.0040663388 0.01935652 0.03347184
0002f0 58 30 81 3b b7 14 98 3b 64 01 fa bb 0a 46 f6 bc
       0.0039425306 0.0046411413 -0.0076295603 -0.030062694
000300 06 19 27 3c d4 b9 f3 bc 27 14 ac 3c 63 55 0d 3c
       0.010198837 -0.029751696 0.021005703 0.008626315
000310 b0 94 93 3c 78 4d a1 3b a1 bc 3c 3b f8 25 cb 3b
       0.018015236 0.004922565 0.0028798955 0.0061995946
000320 b2 38 df bc 45 51 44 bc 81 9d e7 3c 5b 50 47 bc
       -0.027248714 -0.011982267 0.028273346 -0.012165154
000330 19 82 51 3c 28 6d 9d bc c2 17 2d bb 99 f3 40 3d
       0.012787365 -0.019217089 -0.0026411866 0.047107313
000340 2a 5e 85 3a 33 ff 98 bc 55 69 0f bd f5 fb 6a 3a
       0.0010175158 -0.018676376 -0.03501256 0.0008963936
000350 80 62 8d bc f2 f4 f7 3a ae ed 16 3b 56 9d 08 bd
       -0.017258883 0.0018917604 0.0023029852 -0.033353172
000360 36 fc 14 3c c8 14 05 3c 7c a0 20 3c bb 5f 6d 3c
       0.009093335 0.00812263 0.009803887 0.014488156
000370 e7 3e b6 bb 3f d8 f0 bc ec 3f 16 bd 3b ac 64 bc
       -0.0055616978 -0.02939999 -0.036682054 -0.013957079
000380 ea cb 75 bc ea 8a f2 3b de bb 16 3b 07 d1 5e bd
       -0.01500223 0.0074018138 0.002300016 -0.054398563
000390 e7 85 ca bc 50 39 81 bc e9 1f ab bc 18 04 9f 3c
       -0.024722053 -0.015774399 -0.02088924 0.019411132
0003a0 2c 94 bd 3a 33 57 e1 bb b1 eb 29 bb 6f eb a5 bb
       0.0014463714 -0.00687685 -0.0025927837 -0.0050634663
0003b0 a9 01 e2 3c 3c 2b 7e 3c 92 d0 37 3b e4 ca 09 bd
       0.027588682 0.015513238 0.0028047902 -0.033640757
0003c0 0c c1 50 3c 83 ee 39 3c c2 ff 26 bb 65 88 de 3b
       0.012741338 0.0113483695 -0.0025482033 0.006791162
0003d0 93 40 5e bc 1a fb d3 3c 64 00 97 3c bd fd 0c 3b
       -0.0135652 0.02587657 0.018432803 0.0021513544
0003e0 3e a3 ed 3c 0b 80 78 3c 18 9c 16 bc 37 87 d0 bc
       0.029008504 0.015167247 -0.009192489 -0.0254551
0003f0 0d ed b3 bc 98 38 10 bb 76 39 06 bc 13 9c a9 3c
       -0.02196362 -0.0022006389 -0.008192411 0.020704305

digit_rec.fc1.bias f4 [100]
000000 ba 68 1c bc ef 9b 36 3e 96 67 5e 3f 79 fe 2f 3f
       -0.009546453 0.17832921 0.8687681 0.6874767
000010 0f f4 42 bc be 34 85 bc 9f b8 cb bc af 49 9f bb
       -0.011899008 -0.016260501 -0.024868308 -0.0048610787
000020 45 b6 b3 3d d5 cc 22 3f c5 fb 0d 3f 8f 4a 11 bd
       0.087749995 0.635938 0.55462295 -0.035471495
000030 5e 49 dd bc 1b 3e d6 b8 37 9f 63 bc 81 34 24 3f
       -0.027012523 -0.00010215883 -0.01389294 0.64142615
000040 8d 0c 3a bc cf 0b 1c bb 55 95 30 bc e7 15 65 bb
       -0.011355531 -0.002381075 -0.010777791 -0.0034955682
000050 4f c8 16 bc 1c 5d 2b 3f 81 ed fb bc ed 00 4e bc
       -0.009203031 0.6693895 -0.0307529 -0.012573463
000060 60 47 2b 3f 48 49 d0 bc 93 ca 22 bc 90 4f 86 bc
       0.66905785 -0.025425568 -0.009935993 -0.01639536
000070 83 65 11 bd 8c f2 b7 ba 33 94 72 3f c6 ef 97 bb
       -0.0354972 -0.0014034077 0.94757384 -0.0046367375
000080 04 06 a2 bc 85 09 f0 bc 46 9a 2a b9 59 d7 a6 bc
       -0.01977826 -0.029301414 -0.00016269935 -0.020366358
000090 34 58 0c ba 53 a5 84 b8 63 1c 46 3f b7 bf 8b bc
       -0.00053537195 -6.3250445e-05 0.77387065 -0.01705919
0000a0 c7 64 8c bc 6c 39 28 3f 9c 1c 2b bd 77 3d e9 bc
       -0.017137898 0.6571262 -0.04177533 -0.028471692
0000b0 1b c5 22 3f 47 1a ac 3f b8 0f 2a 3f b9 93 96 bc
       0.6358201 1.3445519 0.66430235 -0.018380987
0000c0 b5 19 91 bc 89 7e 53 bc 90 41 95 bc 11 a7 39 3f
       -0.017712453 -0.012908586 -0.01821974 0.7252055
0000d0 3d f1 1f 3e 53 0b 81 bc 4a 17 de ba c3 ec 36 bd
       0.15619369 -0.01575247 -0.0016944197 -0.044659387
0000e0 3f c9 14 3f be 4b 22 3f cf 9b 20 bc ba c9 64 b8
       0.5811958 0.63396823 -0.009802773 -5.454731e-05
0000f0 63 ca f2 3e bc b7 03 3f b7 5a 30 3f f4 3c 44 3f
       0.47420034 0.5145223 0.6888842 0.7665551
000100 b1 c7 f4 bb ed 5c 1a 3f 52 de 2e bc 6c 32 2a 3f
       -0.007470094 0.60298043 -0.0106731225 0.6648319
000110 33 c7 7b bc e9 ba 19 bd 9b 27 30 3f 09 b4 3c 3f
       -0.015367317 -0.037531767 0.68810433 0.7371221
000120 60 61 37 3f 33 84 1f bd 39 49 82 bb 88 a6 aa bc
       0.7163296 -0.038944434 -0.003976014 -0.020831361
000130 23 80 51 3f 55 13 a1 bb 47 84 26 ba b7 ac 5a b9
       0.81836146 -0.0049156346 -0.00063521083 -0.00020854441
000140 34 f3 0b bc da 20 21 bd 98 2d 23 3f 6a de 88 3f
       -0.008541871 -0.03933797 0.63741446 1.0692875
000150 37 b6 6b bc 8f df 09 ba 2e fc 92 3f b8 29 f7 bb
       -0.014386705 -0.0005259448 1.1483209 -0.007542815
000160 46 21 6c 3f ef a8 3b 3f c1 4e a8 bc 2a 5d f0 3e
       0.9223827 0.7330465 -0.020545365 0.4694608
000170 1b 3b eb bb 9f 1c 88 bc 04 0d 0a bc 29 ab f6 3e
       -0.007178677 -0.01661521 -0.008425955 0.4817746
000180 07 95 71 3f a4 d7 87 b8 f0 c9 38 bc 44 23 90 bc
       0.9436802 -6.477468e-05 -0.011278614 -0.017594941

digit_rec.fc2.weight f4 [10, 100]
000000 85 82 47 be 4f 0c e7 bb cd 25 a4 3e fb d0 c5 3e
       -0.19483383 -0.007051028 0.3206009 0.38636002
000010 22 b0 2d be 6b a2 04 bd 29 50 4a be be bf 06 be
       -0.1696172 -0.032381456 -0.19757141 -0.13159081
000020 94 26 fb bd c6 fd 6e 3e b0 30 24 3e 05 be 73 bd
       -0.122632176 0.23338994 0.16034198 -0.05950739
000030 2f c0 26 be 88 89 4b be ed 4c ce bd 4a ac ee 3d
       -0.1628425 -0.19876683 -0.10073266 0.11653955
000040 22 19 2f be 66 1a ea bd 05 4d 3c be 4f c3 09 be
       -0.17099431 -0.11430816 -0.18388756 -0.1345341
000050 ed 98 4a bd 01 d2 8a 3e 36 ec 28 be 94 16 5e bc
       -0.049462248 0.27113345 -0.16496357 -0.013555188
000060 30 df 83 3e c8 04 db bd 77 91 03 be 63 6d 50 be
       0.25756216 -0.10694271 -0.12848459 -0.20354228
000070 11 62 4e bd 8b 72 3b be dc e0 c7 3e 29 bd 78 be
       -0.050386492 -0.18305413 0.39038742 -0.24290909
000080 53 88 12 bd 06 6f f4 bd 66 94 46 be 8d dd 07 be
       -0.03577454 -0.119352385 -0.19392547 -0.13268109
000090 90 20 47 be be 8f 51 be 7f 1e 06 3f 70 b5 3f be
       -0.19446015 -0.2046499 0.52390283 -0.18721557
0000a0 89 cf 6c be c9 2f 87 3e ae 92 4e be 38 52 0d be
       -0.23126043 0.26403645 -0.20173141 -0.13800895
0000b0 f5 60 96 3e ea ee a0 3f 1a e5 60 3e 62 34 de bd
       0.29370847 1.2572911 0.21962395 -0.10849835
0000c0 42 4d 5f be 32 60 2f be 4c 46 2e be 1b ee f9 3e
       -0.21806815 -0.1712654 -0.17019004 0.48814473
0000d0 44 66 4c 3d 5f 2b 2e be 94 6a 00 bc 3e 24 43 be
       0.049902216 -0.17008732 -0.00783791 -0.19056794
0000e0 82 6d ed 3d db 7d 23 3e 25 15 98 bd 22 0b 25 be
       0.115931526 0.15965979 -0.07425908 -0.16117528
0000f0 f5 62 5f 3e 6a 4b b3 3d 81 a9 d8 3d 3c f9 0f 3f
       0.21815093 0.087546185 0.10579205 0.56239676
000100 93 af 56 be 91 f1 50 3e 25 19 ac bd 2c 19 a5 3e
       -0.20965414 0.2040465 -0.084032334 0.32245767
000110 94 5a 1c be d9 bf 15 be b2 6d 9a 3e 37 ff 93 3e
       -0.15268928 -0.14623965 0.30161816 0.2890565
000120 c9 1c a8 3e ea f9 54 be 69 28 d8 bd c4 40 1b bd
       0.3283446 -0.2079846 -0.105545826 -0.037903562
000130 f8 83 82 3e b2 31 6c be c9 3c 4a be 3a b9 66 be
       0.2549131 -0.23065832 -0.1974975 -0.22531596
000140 22 5d 17 bd 7c 88 6d be fa b4 37 3e eb f4 b2 3f
       -0.036954053 -0.23196596 0.17940131 1.3980993
000150 f1 48 c4 bd e8 4a 35 be ee e9 49 3f 2c c1 75 be
       -0.09584225 -0.17704356 0.78872573 -0.2399947
000160 a1 ff cc 3e b2 c6 06 3f fd 2e a9 bd f7 d8 1f bb
       0.4003878 0.52646935 -0.082609154 -0.0024390796
000170 2c e3 0b be aa 03 21 bd 22 ba 02 be 13 54 93 3d
       -0.13660878 -0.039310135 -0.12766317 0.0719377
000180 ef d3 39 3f 05 36 4f be 0d d3 8a be 64 14 5c be
       0.7258901 -0.2023545 -0.27114144 -0.21492153
000190 ce e8 01 bb 92 b7 5a 3d 07 50 88 3d 79 75 28 3e
       -0.00198226 0.053397723 0.06655889 0.16451062
0001a0 eb fc 84 3d 45 b0 c9 bd c4 6e 13 bd f7 09 43 bd
       0.06493553 -0.09848074 -0.035994306 -0.047616925
0001b0 f9 d4 14 be b0 27 05 3e c3 91 16 be f7 f8 61 bd
       -0.14534368 0.13003421 -0.14704041 -0.055169072
0001c0 45 25 86 3d 34 4f c4 3d 71 31 fc 3d 78 86 5b be
       0.06550077 0.09585419 0.12314118 -0.21438015
0001d0 e7 13 a3 bd 72 ce 94 3d 0d 53 34 3d a7 a9 83 bc
       -0.079627804 0.07265939 0.044024516 -0.016072107
0001e0 c4 98 2e bd 56 1b 2c be 1f 82 af bc 56 f1 30 3e
       -0.042626157 -0.16807303 -0.021424351 0.17279562
0001f0 70 28 4d be 28 3c a2 bc 52 56 92 3d ad b2 b2 3c
       -0.20034957 -0.019804075 0.071453705 0.021813715
000200 a7 70 36 bd 6d 19 1d 3d d5 92 98 be 05 ab 63 3d
       -0.044541027 0.038354326 -0.29799524 0.05558302
000210 b5 af 03 3e 1b 53 85 bd fa 11 67 3d a9 0d a4 3d
       0.12859996 -0.06509992 0.05641363 0.08010418
000220 ee 2b 80 3d a6 1f 59 3d 7a 5b 09 be f8 cb b7 3d
       0.06258379 0.053008698 -0.13413802 0.08974451
000230 87 c6 19 3d 95 88 a5 bd 5a 1f 0a 3d 1a da 95 bc
       0.037542846 -0.080826916 0.033721305 -0.018292475
000240 e6 86 0c bd 4c 1f 6c be 3d 6a d8 3d 6f c0 9c bd
       -0.034308337 -0.23058814 0.10567138 -0.07653891
000250 6a 97 b1 3d 33 ff 84 bd 04 9e 59 3d e2 cc a9 bc
       0.08671458 -0.06493988 0.05312921 -0.020727579
000260 fc 08 10 3e 67 ea 94 bd 75 54 2a 3c 1d a3 5a bc
       0.14065927 -0.07271271 0.010396113 -0.013344553
000270 c7 b3 4a 3d b4 37 07 be ee c9 a1 bd 8d 63 1b 3e
       0.049487855 -0.13204843 -0.07899843 0.15174694
000280 a8 cc e7 3d 81 51 43 bd 76 eb ec bd 49 4b d1 bd
       0.11318332 -0.04768515 -0.11568348 -0.10219438
000290 53 55 6b 3d 0d fc 9f bd 67 d2 d3 3d f1 b8 1c be
       0.05745442 -0.07811747 0.103428654 -0.15304925
0002a0 54 89 bb bd 43 10 1b bd c5 19 22 3e db f2 26 be
       -0.09157053 -0.037857305 0.15830143 -0.1630358
0002b0 aa 81 20 bd 7a 98 ed bd 24 d1 e1 3b 43 57 5c ba
       -0.039186157 -0.11601348 0.0068913866 -0.0008405337
0002c0 92 11 5d be a5 d5 74 3d b9 c6 68 3d 07 37 95 3d
       -0.21588734 0.05977406 0.05683014 0.07285886
0002d0 1f 06 84 3d ab e1 c5 bd 34 fa 40 bd 10 77 65 bd
       0.0644648 -0.096621834 -0.047113612 -0.05602175
0002e0 df e8 2f bc a0 d0 b1 3d 62 87 fb 3c a2 9d 8f 3c
       -0.010736673 0.0868237 0.030704204 0.01753122
0002f0 43 71 82 be 8c 03 ce bd d9 78 82 bd 97 41 c8 bb
       -0.25477037 -0.1005927 -0.06370706 -0.0061113345
000300 c8 33 86 bc fa b5 d9 bd 04 cb 5a bd 57 2a 97 3d
       -0.016382113 -0.106304124 -0.053416267 0.073811226
000310 e2 ce 88 be e3 d8 aa 3d 50 24 2d 39 54 c3 03 3c
       -0.2672034 0.08342149 0.00016512093 0.008042175
000320 b8 de c9 3c 61 b3 0c be bc 9b 5a 3d a7 27 88 be
       0.024642333 -0.13740303 0.053371176 -0.26592752
000330 7c eb d6 3b 4a 36 bc 3d 6a 3b 4e 3d 6d 9a b8 3d
       0.0065588336 0.09190042 0.05034963 0.090138294
000340 92 6f 6c bd c1 06 22 be 0b 66 20 be c1 09 e6 3b
       -0.05772359 -0.15822889 -0.15663926 0.0070202057
000350 7f 1f c3 3d 31 2d d1 3d e9 b7 14 3d 24 2f 19 be
       0.09527492 0.10213698 0.036308203 -0.14959389
000360 0c fe 8b 3d 65 10 b6 3d 8d ad b2 bd 9c dd 88 3d
       0.06835565 0.08889846 -0.087245084 0.06682894
000370 9f 45 3f bd 89 18 4d be eb 01 90 bd b3 49 81 3c
       -0.046697255 -0.2002889 -0.07031616 0.015782213
000380 3e f2 4d 3c 44 c7 7e 3d 05 37 c9 bd af b1 89 3d
       0.012569962 0.062201753 -0.09824947 0.067233436
000390 17 7a f6 bc b5 c7 47 3d 6d 3f 0b 3e 94 9c 6f 3d
       -0.030087514 0.04877444 0.13598414 0.058498934
0003a0 2f d6 f0 bb 48 55 6c bd cf 64 7d 3d 5a aa b2 3d
       -0.0073497514 -0.057698518 0.061863717 0.08723898
0003b0 d7 6b 93 3d 75 2b 9b 3d fc 16 3e be cc 65 42 bd
       0.07198303 0.07576648 -0.18563455 -0.047460362
0003c0 af 9a 33 bc 3b 8e 1a be 8c b8 9a bd be 56 6b bd
       -0.010962172 -0.15093319 -0.07554731 -0.05745577
0003d0 96 b3 07 be 30 4d db bc 6e 97 30 be f8 cb a6 bd
       -0.132521 -0.026770204 -0.17245266 -0.08144373
0003e0 55 d9 fd 3c f7 47 98 3d db c9 cf bb 96 83 19 be
       0.030987421 0.07435601 -0.0063412017 -0.14991602
0003f0 94 24 6a bd ab c0 a6 3d 7a ec 28 bd cc 93 30 3d
       -0.05716379 0.08142217 -0.041241147 0.0431097

digit_rec.fc2.bias f4 [10]
000000 15 bf 4c 3f 75 09 0e bf 4f f8 a4 be 21 50 b8 be
       0.7997907 -0.5548318 -0.32220694 -0.35998634
000010 75 34 de be 98 a5 f4 be 0d d1 e4 be 19 03 be be
       -0.43399397 -0.47782588 -0.44690743 -0.37111738
000020 09 53 54 be 65 dd af be
       -0.207348 -0.34348598
